advanced_face_cnn_model.pth (torch, 234999 bytes, 32 tensors)

res_block1.fc1.weight f4 [128, 128]
-0.023286631 0.042341627 0.025834626 -0.020491367 0.061387975 0.091527045 -0.08363411 0.08393173
-0.0746442 -0.038422033 -0.038120966 0.06009197 0.07087093 0.05851453 0.011901389 0.012848471
-0.009854417 -0.0001432084 -0.028188791 -0.046234403 0.07301054 0.00013959724 -0.02079969 -0.024912378
0.039474037 0.08029591 0.009075166 0.017614312 0.04941907 -0.014369356 0.031386595 0.06772815
0.06882011 -0.025338378 0.07231061 -0.07732223 -0.011032879 0.07415962 0.045717258 -0.06122778
-0.028876722 -0.06159377 0.013837265 0.03045218 -0.01843534 0.030296959 -0.00932067 -0.055003148
-0.022757616 -0.0770901 0.00331069 0.023725567 -0.007985597 -0.0041299616 -0.038092244 0.070598096
-0.080818616 -0.040990528 -0.040854793 0.08526542 0.04956008 -0.06557686 0.014351785 -0.04504939
0.087769374 -0.031855244 0.007857901 0.040161334 0.06686691 -0.053823836 -0.01724322 -0.0093757585
0.013403708 0.044709947 -0.025781646 -0.04764575 0.026332164 0.008699261 0.02616601 -0.032164868
0.06924094 -0.039644424 -0.042160902 0.046703808 -0.049741723 0.00437335 0.002118588 -0.020744441
-0.0023832282 -0.06369879 0.08881007 -0.07824393 -0.052053906 -0.011714365 -0.04134097 -0.03295638
-0.03856332 -0.04236588 -0.009062698 0.04602158 -0.027414467 -0.018100513 -0.060148284 -0.035086725
-0.013578314 -0.032560952 0.028458877 -0.036097683 0.071195826 0.021987485 -0.07593001 0.06680278
0.07014173 0.04587829 -0.079662494 -0.081243575 -0.059798576 -0.004410848 0.0132721225 -0.032516085
0.06881726 0.04251398 -0.019348325 0.026067661 0.06995798 -0.031876612 -0.028111996 0.043840427
0.075843826 0.07940044 -0.015190369 -0.02248854 -0.025487417 0.06486093 0.06390071 -0.082951695
0.04985477 -0.007785862 -0.0033758006 -0.04280578 0.0014870295 -0.050069906 -0.056549273 0.0026449023
0.0669025 -0.075433455 -0.01741382 0.0024635554 0.028061368 0.05378462 -0.07548325 0.03274645
0.024548037 0.040414754 -0.06065329 -0.028436162 0.0063716685 0.071600854 0.015064566 -0.018833594
-0.006126352 0.061973475 -0.035363253 -0.033590835 -0.06850495 -0.01648473 0.038283426 -0.05415167
0.0020041463 0.050075635 0.019141011 0.013201147 0.048993565 0.052953124 0.014327835 -0.03493643
0.009608329 -0.0064100916 -0.015217825 -0.07490097 -0.05604612 -0.031133303 0.04468181 0.083651565
0.03782044 0.020597996 0.008747494 0.07490896 0.023665939 0.013789558 -0.027585037 0.019521432
0.038742464 -0.019201811 -0.046794727 0.015984172 -0.0505994 0.079273455 0.03302673 0.04217225
-0.089625165 0.071352884 0.078835085 0.006009197 0.054775707 -0.0674651 0.038198374 -0.010184083
-0.07121394 0.032538254 -0.02701227 0.030833816 -0.076629564 0.016164629 -0.060645808 0.04836673
0.035001416 0.005105917 -0.026594628 0.061861753 -0.04281937 -0.042803623 0.038263146 0.037774563
0.07573581 0.06879663 -0.03496377 0.022556746 -0.07580058 0.0097451545 -0.024875596 -0.051250253
-0.0032814473 0.007012416 0.007132474 0.07345104 0.036560725 -0.03954678 -0.0490021 -0.049457144
0.08334399 0.068797626 -0.08499713 0.0033793412 -0.055913515 0.07941184 0.072231755 -0.03381246
-0.009838518 0.038173456 -0.012478305 0.00035916362 0.03628233 0.08089469 0.042946976 -0.07593109
00000000: 9bc3 bebc 6a6e 2d3d 23a3 d33c 83dd a7bc
00000010: f571 7b3d 8872 bb3d 5c48 abbd 66e4 ab3d
00000020: 0fdf 98bd 6c60 1dbd bb24 1cbd ff22 763d
00000030: c724 913d efac 6f3d 0bfe 423c 6582 523c
00000040: 6c74 21bc 362a 16b9 2eec e6bc 4960 3dbd
00000050: 8d86 953d d960 1239 1d64 aabc 0b15 ccbc
00000060: 87af 213d 2f72 a43d 01b0 143c e44b 903c
00000070: a76b 4a3d 736d 6bbc 3b8f 003d 0eb5 8a3d
00000080: 8ff1 8c3d 6e92 cfbc 9617 943d 1e5b 9ebd
00000090: 40c3 34bc 00e1 973d 0542 3b3d fbc9 7abd
000000a0: e08e ecbc c049 7cbd b2b5 623c da76 f93c
000000b0: b605 97bc 5431 f83c b9b5 18bc fb4a 61bd
000000c0: 2e6e babc 6ae1 9dbd 29f8 583b 1f5c c23c
000000d0: 05d6 02bc a154 87bb 9d06 1cbd bc95 903d
000000e0: 3b84 a5bd afe5 27bd 5b57 27bd a39f ae3d
000000f0: 83ff 4a3d 294d 86bd c023 6b3c b685 38bd
00000100: 6ec0 b33d a57a 02bd 6dbe 003c 3680 243d
00000110: 85f1 883d 6276 5cbd a741 8dbc c89c 19bc
00000120: 3a9b 5b3c c721 373d 0834 d3bc 3128 43bd
00000130: 8db6 d73c 5887 0e3c 1a5a d63c 4fbf 03bd
00000140: 32ce 8d3d 3162 22bd e9b0 2cbd 7e4c 3f3d
00000150: fabd 4bbd 524e 8f3b 02d8 0a3b 3ff0 a9bc
00000160: ef2f 1cbb 8374 82bd 0ee2 b53d 5b3e a0bd
00000170: 7a36 55bd 9ced 3fbc 2655 29bd 45fd 06bd
00000180: 92f4 1dbd d887 2dbd b67b 14bc 2081 3c3d
00000190: 4e94 e0bc 8747 94bc 0c5e 76bd 19b7 0fbd
000001a0: 9477 5ebc a25e 05bd 9722 e93c 2adb 13bd
000001b0: 1ecf 913d 191f b43c 3181 9bbd e5cf 883d
000001c0: 78a6 8f3d e0ea 3b3d 1726 a3bd 0863 a6bd
000001d0: 5aef 74bd e088 90bb 5173 593c 962f 05bd
000001e0: 10f0 8c3d 2423 2e3d 6180 9ebc d98b d53c
000001f0: 2146 8f3d 0d91 02bd 214b e6bc 0592 333d
00000200: 0254 9b3d b39c a23d 07e1 78bc e339 b8bc
00000210: fdca d0bc cfd5 843d 60de 823d 94e2 a9bd
00000220: 8434 4c3d 8b20 ffbb 893c 5dbb 1d55 2fbd
00000230: 6ee8 c23a 1a16 4dbd 36a0 67bd 1956 2d3b
00000240: 2e04 893d db7c 9abd 6da7 8ebc 9a73 213b
00000250: f4e0 e53c 434d 5c3d f696 9abd 2421 063d
00000260: f718 c93c f189 253d 966f 78bd f4f2 e8bc
00000270: 6ec9 d03b 78a3 923d 5fd1 763c e948 9abc
00000280: 91bf c8bb e6d7 7d3d 0fd9 10bd 8b96 09bd
00000290: 534c 8cbd fc0a 87bc 15cf 1c3d 24ce 5dbd
000002a0: ff57 033b 1c1c 4d3d 9ccd 9c3c a049 583c
000002b0: 7aad 483d 60e5 583d 4cbf 6a3c 8119 0fbd
000002c0: 416c 1d3c bf0b d2bb 2f54 79bc ae65 99bd
000002d0: 9e90 65bd 450b ffbc 4604 373d 8351 ab3d
000002e0: 9be9 1a3d 21bd a83c a651 0f3c de69 993d
000002f0: 12df c13c 99ed 613c 04fa e1bc 69eb 9f3c
00000300: 6bb0 1e3d 1e4d 9dbc d4ab 3fbd 3df1 823c
00000310: 5141 4fbd 1f5a a23d 0947 073d cfbc 2c3d
00000320: 668d b7bd 7621 923d 4a74 a13d cce8 c43b
00000330: 7e5c 603d 242b 8abd e675 1c3d 24db 26bc
00000340: 9dd8 91bd d546 053d d648 ddbc 3397 fc3c
00000350: f6ef 9cbd af6b 843c bd67 78bd 311c 463d
00000360: a55d 0f3d 894f a73b fadc d9bc c062 7d3d
00000370: 5d63 2fbd da52 2fbd d1b9 1c3d 80b9 1a3d
00000380: 601b 9b3d 3fe5 8c3d 2c36 0fbd edc8 b83c
00000390: 563d 9bbd 24aa 1f3c e8c7 cbbc c9eb 51bd
000003a0: 8d0d 57bb 69c8 e53b 87b7 e93b 806d 963d
000003b0: b3c0 153d cefb 21bd 6db6 48bd 9393 4abd
000003c0: 41b0 aa3d c5e5 8c3d fa12 aebd f077 5d3b
000003d0: 9205 65bd ada2 a23d 3eee 933d ef7e 0abd
000003e0: bc31 21bc c55b 1c3d ce71 4cbc 204e bc39
000003f0: c89c 143d 1dac a53d 2be9 2f3d c281 9bbd

res_block1.fc1.bias f4 [128]
-0.047769003 -0.041133415 -0.04304592 0.08750946 -0.00095416175 0.00029770346 -0.034602214 0.03190623
-0.022701167 -0.059399795 -0.09284884 0.00057272846 0.069566086 -0.008014075 0.056138355 0.04613212
0.068642594 -0.009243748 0.06544751 -0.054880396 0.014019474 0.030084938 -0.06228733 0.007073451
-0.027752098 -0.07488324 -0.06685444 -0.01931421 0.056711785 0.0857077 -0.045439646 -0.080949634
0.0631325 -0.04892845 0.044442512 0.04116417 0.059875794 -0.07774291 -0.06863673 -0.026967835
-0.08661129 0.06250153 -0.033929896 -0.08376714 0.042702165 -0.002916531 0.04564191 -0.072788246
0.043971416 -0.02623041 -0.011442019 -0.08816597 0.063609466 0.03953372 0.007109575 0.027510328
-0.04900281 -0.04091577 0.04783752 -0.016430985 0.01785387 0.026561176 0.041939702 -0.058074392
0.059359398 0.046294063 -0.03711516 0.057999127 0.0096051525 0.06389197 0.041313466 0.07223272
0.028332446 -0.033000518 0.046516202 0.051246464 0.06381583 -0.035726678 0.023932697 0.052774638
-0.07634349 -0.064689554 0.07257335 -0.06060615 0.05015533 -0.02024757 0.0042143352 0.009194151
-0.0011894332 -0.08167022 0.07803092 -0.016897472 -0.079594955 -0.08990875 -0.022246292 0.026762633
-0.06934988 0.023797238 -0.083326906 0.070141725 -0.056517944 0.053332116 0.007657339 0.058051992
-0.06470131 0.046039682 -0.048761774 -0.019390406 -0.035417408 0.062084828 -0.053899106 -0.018558389
0.08510466 0.062492114 0.023514893 -0.085786834 0.02182442 -0.08197907 -0.08735417 0.021078212
0.017217698 -0.026400445 -0.07783798 -0.06306378 -0.05533444 -0.024359334 -0.007841668 -0.045312565
00000000: 6ea9 43bd 837b 28bd eb50 30bd 2938 b33d
00000010: b620 7aba 1515 9c39 0dbb 0dbd 1bb0 023d
00000020: ccf7 b9bc 334d 73bd 8827 bebd 2823 163a
00000030: aa78 8e3d 784d 03bc 55f1 653d 09f5 3c3d
00000040: 7d94 8c3d 1773 17bc 5809 863d 44ca 60bd
00000050: f0b1 653c b074 f63c 0021 7fbd 68c8 e73b
00000060: 5e58 e3bc 625c 99bd fbea 88bd d638 9ebc
00000070: 9e4a 683d 8587 af3d ec1e 3abd ecc8 a5bd
00000080: 9d4b 813d 3369 48bd 5a09 363d c39b 283d
00000090: 5240 753d ad37 9fbd 6a91 8cbd a6eb dcbc
000000a0: 4361 b1bd cd00 803d 13fa 0abd 1b8e abbd
000000b0: 77e8 2e3d 4523 3fbb 03f3 3a3d 0112 95bd
000000c0: 5f1b 343d 28e1 d6bc 4e77 3bbc 5c90 b4bd
000000d0: ae45 823d 1cee 213d 70f7 e83b 575d e13c
000000e0: 2cb7 48bd 4b97 27bd 46f1 433d 469a 86bc
000000f0: 4742 923c d396 d93c f7c8 2b3d 6adf 6dbd
00000100: d722 733d d89e 3d3d 1106 18bd 7e90 6d3d
00000110: ee5e 1d3c cbd9 823d 4f38 293d c0ee 933d
00000120: 7219 e83c 8d2b 07bd c687 3e3d d0e7 513d
00000130: e0b1 823d 2356 12bd 810e c43c 382a 583d
00000140: fa59 9cbd f57b 84bd 56a1 943d 283e 78bd
00000150: ad6f 4d3d 3bde a5bc 6818 8a3b 10a3 163c
00000160: c1e6 9bba b742 a7bd adce 9f3d 916c 8abc
00000170: ae02 a3bd 1422 b8bd db3d b6bc 4f3d db3c
00000180: 4f07 8ebd 6df2 c23c 4ca7 aabd 77a6 8f3d
00000190: 5c7f 67bd c772 5a3d 6aea fa3b edc7 6d3d
000001a0: 1f82 84bd 1b94 3c3d 6dba 47bd a1d8 9ebc
000001b0: d811 11bd a94c 7e3d 4fc5 5cbd c307 98bc
000001c0: 5a4b ae3d bbf7 7f3d 4ea2 c03c 02b1 afbd
000001d0: 20c9 b23c a5e4 a7bd bee6 b2bd 37ac ac3c
000001e0: 210c 8d3c bf45 d8bc 8569 9fbd 9527 81bd
000001f0: 5ea6 62bd 3a8d c7bc 577a 00bc ab99 39bd

res_block1.bn1.weight f4 [128]
1.0067985 0.99833834 1.0048594 0.9939337 0.99493295 0.99948186 0.99467945 1.0068722
0.997289 1.0046427 1.0060529 1.0027876 0.9969573 0.9960388 1.0010476 1.0018388
1.0070076 1.0009838 0.9953423 1.0056778 0.9965215 1.0035379 0.9992409 0.99019945
1.010998 0.9914647 1.003214 0.99770176 0.9986018 1.0003262 1.0040456 0.9984899
1.0051194 0.9965072 1.0035629 1.0021305 0.99721706 1.0036279 1.0002176 1.0022205
1.00096 1.0108485 0.9972315 1.0048453 1.0083406 1.0050732 1.0019784 0.9945879
0.991729 0.9998292 0.997985 0.9994562 1.0024014 1.0005397 0.99645907 1.0046735
0.9946964 1.0015512 1.0012953 1.0021707 1.0105797 0.9997697 1.0069832 0.99851924
0.9966044 1.0052991 0.9994664 0.99970025 0.99552745 0.9944087 1.0099285 0.9958603
1.0050622 1.0081059 0.9952028 0.9940117 0.9911771 0.99536383 1.0041422 0.99571043
0.9939568 0.99405116 1.003392 0.99331135 1.0069861 1.0040411 0.9985056 0.99679947
1.0059862 0.99957144 1.0002708 1.0029026 0.9949263 0.99135584 0.9941614 1.0086962
0.98839986 1.0010568 1.001234 0.9952958 0.9963389 0.9984243 1.0050677 1.0037061
1.0030171 0.996619 0.99668294 0.99830025 0.99192464 0.9961003 0.99471384 1.0053216
1.0045815 0.9994037 1.0002036 0.99932647 1.0019522 0.99697804 1.0003549 0.9999147
1.0077533 1.0034144 0.99952495 1.0080073 0.9976171 0.99501926 1.0031731 1.0012156
00000000: c6de 803f 1a93 7f3f 3c9f 803f 7072 7e3f
00000010: edb3 7e3f 0bde 7f3f 50a3 7e3f 30e1 803f
00000020: 554e 7f3f 2298 803f 57c6 803f 585b 803f
00000030: 9838 7f3f 66fc 7e3f 5422 803f 413c 803f
00000040: a0e5 803f 3d20 803f c1ce 7e3f 0dba 803f
00000050: 081c 7f3f ee73 803f 40ce 7f3f b67d 7d3f
00000060: 6268 813f a1d0 7d3f 5169 803f 6269 7f3f
00000070: 5ea4 7f3f b00a 803f 9184 803f 099d 7f3f
00000080: c1a7 803f 191b 7f3f c074 803f d045 803f
00000090: 9e49 7f3f e176 803f 2107 803f c348 803f
000000a0: 751f 803f 7c63 813f 904a 7f3f c59e 803f
000000b0: 4e11 813f 3da6 803f d440 803f 509d 7e3f
000000c0: f4e1 7d3f cef4 7f3f f27b 7f3f 5ddc 7f3f
000000d0: b04e 803f af11 803f f117 7f3f 2499 803f
000000e0: 6ca4 7e3f d432 803f 722a 803f 2147 803f
000000f0: ad5a 813f e8f0 7f3f d3e4 803f f59e 7f3f
00000100: 7721 7f3f a4ad 803f 08dd 7f3f 5bec 7f3f
00000110: e3da 7e3f 9291 7e3f 5645 813f b3f0 7e3f
00000120: e1a5 803f 9d09 813f 9cc5 7e3f 8d77 7e3f
00000130: c8bd 7d3f 2ad0 7e3f bb87 803f e1e6 7e3f
00000140: f473 7e3f 237a 7e3f 266f 803f a749 7e3f
00000150: ece4 803f 6b84 803f 109e 7f3f 402e 7f3f
00000160: 28c4 803f eae3 7f3f e008 803f 1d5f 803f
00000170: 7db3 7e3f 7fc9 7d3f 5d81 7e3f f51c 813f
00000180: c607 7d3f a122 803f 7028 803f b5cb 7e3f
00000190: 1110 7f3f bc98 7f3f 0fa6 803f 7179 803f
000001a0: dd62 803f 6c22 7f3f 9d26 7f3f 9b90 7f3f
000001b0: c6ee 7d3f 6e00 7f3f 91a5 7e3f 61ae 803f
000001c0: 2096 803f ecd8 7f3f ac06 803f dcd3 7f3f
000001d0: f83f 803f f439 7f3f a10b 803f 69fa 7f3f
000001e0: 0ffe 803f e26f 803f dee0 7f3f 6206 813f
000001f0: d663 7f3f 95b9 7e3f fa67 803f d527 803f

res_block1.bn1.bias f4 [128]
0.0071234745 -0.0030010978 0.0062822895 -0.0013099752 -0.0075972467 0.0031487376 -0.0066281534 0.008523059
-0.008358282 0.008166233 0.006237382 0.0007061665 -0.0030270196 -0.002227886 -0.0007987625 -0.00144173
0.0048659896 0.004040627 -0.003429526 0.005474639 -0.004296586 -0.00011235033 -0.005158801 0.0040271045
0.011217266 -0.00498876 0.0014795328 -0.0011865167 -0.0035960684 0.0023327244 0.0048953393 -0.0018769305
0.0040867655 -0.002832764 -0.0023268715 0.0053616543 -0.0042045047 -0.0041548144 -0.0032337043 0.0018787312
0.001860362 0.003415138 -0.0007699933 0.0044618114 0.0063013867 -0.0021634873 0.0006448965 -0.005150681
-0.008320202 0.00446506 0.006255902 -0.00053069036 0.00692515 0.0041840677 -0.0035585975 -0.002722195
0.0079655 0.0027316422 -7.850272e-05 -0.0007257504 0.008994713 -0.00058683846 0.006443636 -0.00030787807
0.0049644858 -0.002171941 0.00042732665 -0.0012561594 -0.004528762 0.0017081387 0.0050829784 -0.004687519
0.0011253787 0.0063957423 -0.00087391067 0.0035699042 -0.009435756 -0.0060781525 -0.0075552408 -0.0016561728
-0.003863117 -0.0007449528 -2.212639e-05 0.0054964754 0.00031750303 0.0020853523 0.004454758 -0.0039207344
0.0017163965 0.007694202 0.0023189299 0.007363301 -0.0035114954 -0.00024401007 -0.009657327 -0.00015803787
-0.009555556 0.0029299 -0.0021395874 -0.00045092328 -0.0052707363 -0.0060452204 0.005191148 0.0023368308
0.006613417 -0.0010687467 0.0013075637 -0.0025876737 -0.010237207 -0.0028346325 -0.006200093 -6.0297345e-05
-0.0005890848 -0.007122132 0.00091956154 0.0035959815 0.0032417038 0.00038657972 0.0014554334 -0.00021007846
0.007688495 0.0012460226 -0.0027996497 0.0076244585 0.00059707905 -0.003871718 0.0017429435 -0.0016013294
00000000: 096c e93b 11ae 44bb aadb cd3b 79b3 abba
00000010: 53f2 f8bb 0d5b 4e3b fb30 d9bb 4da4 0b3c
00000020: 2df1 08bc aacb 053c f462 cc3b 081e 393a
00000030: f660 46bb ba01 12bb 0b64 51ba 6ef8 bcba
00000040: e172 9f3b 3c67 843b e6c1 60bb 9a64 b33b
00000050: 60ca 8cbb a09d ebb8 290b a9bb cdf5 833b
00000060: a0c8 373c c178 a3bb e2ec c13a e584 9bba
00000070: 04ac 6bbb 9fe0 183b 1569 a03b 5603 f6ba
00000080: 46ea 853b e5a5 39bb 6d7e 18bb d1b0 af3b
00000090: f1c5 89bb 1c25 88bb 8eec 53bb c23f f63a
000000a0: 64d7 f33a 82d0 5f3b 60d9 49ba 6334 923b
000000b0: dd7b ce3b 4bc9 0dbb 460e 293a 0bc7 a8bb
000000c0: 7551 08bc a34f 923b 4ffe cc3b 071e 0bba
000000d0: 5eec e23b 811a 893b 5c37 69bb da66 32bb
000000e0: ba81 023c 5a05 333b d4a1 a4b8 4940 3eba
000000f0: 905e 133c 10d6 19ba 2325 d33b b26a a1b9
00000100: 20ad a23b 2057 0ebb d00a e039 b7a5 a4ba
00000110: 0266 94bb a0e3 df3a 1d8f a63b c299 99bb
00000120: 7181 933a 6093 d13b 2717 65ba 0ef5 693b
00000130: 6e98 1abc 3d2b c7bb f491 f7bb f013 d9ba
00000140: 592c 7dbb f048 43ba 109c b9b7 c71b b43b
00000150: 8976 a639 68aa 083b 38f9 913b 8179 80bb
00000160: b6f8 e03a a51f fc3b 30f9 173b d847 f13b
00000170: 1e21 66bb f4dc 7fb9 c439 1ebc f8b6 25b9
00000180: e88e 1cbc 9103 403b 5238 0cbb e669 ecb9
00000190: 24b6 acbb fc16 c6bb 811a aa3b 8425 193b
000001a0: 5db5 d83b 3015 8cba 8f62 ab3a f695 29bb
000001b0: f5b9 27bc 3ec5 39bb 262a cbbb c8e7 7cb8
000001c0: d06c 1aba c660 e9bb bb0e 713a 8faa 6b3b
000001d0: c472 543b daad ca39 3ec4 be3a 8248 5cb9
000001e0: c5ef fb3b 9551 a33a 547a 37bb 98d6 f93b
000001f0: 4c85 1c3a a6bc 7dbb 7b73 e43a b3e3 d1ba

res_block1.bn1.running_mean f4 [128]
-0.040775076 0.20583068 -0.21270756 0.14648445 -0.38166344 0.06934947 0.18391366 -0.1249493
0.07822924 0.13585226 -0.24757907 -0.26148075 -0.036764145 -0.02857637 0.1917031 0.27480528
0.31300992 0.11610547 0.0014305918 0.21884497 -0.2721012 -0.07721316 -0.061638143 0.20998278
0.16136365 0.008286549 -0.17197153 -0.37082234 0.36600414 0.038741 0.10617179 0.21004592
0.24657792 0.016185207 -0.16428569 -0.10397428 -0.09695563 -0.20563096 -0.15887648 -0.017004287
-0.4435863 0.2307219 0.090865 -0.22900149 0.3612148 0.0051830364 0.06350973 0.19633792
-0.16024828 0.35045436 0.15457046 -0.20438811 0.12153417 0.24116442 0.23101673 0.16679254
0.004589086 0.47941795 0.0011438197 -0.026903167 -0.07248873 -0.23956873 -0.07274548 0.09805735
0.11844787 0.2793796 0.0802693 0.4669225 -0.15758134 -0.049665034 0.27250668 0.41365206
0.09365366 0.22222967 -0.3235529 -0.032123093 0.15673347 -0.13673879 -0.0029022896 0.035932753
0.11732539 0.13563246 0.39778033 -0.18963179 0.29469264 0.27251056 0.06775093 0.19921798
-0.06731027 -0.4042594 -0.30696508 -0.023093658 0.08366785 -0.10208442 -0.114939384 -0.03223214
0.08302593 0.3257403 0.39585155 -0.034963574 -0.16479109 0.25438336 0.47073665 0.16902307
0.1370383 0.59287417 0.126681 0.041417733 -0.25991482 0.022731122 -0.09468294 0.12153957
0.52086014 0.058097858 0.33676702 -0.41411665 -0.19682164 0.06845796 -0.27228087 0.09819077
-0.28775463 0.22467063 -0.24510397 -0.017654087 0.21919803 0.3531585 0.12724812 -0.053767502
00000000: c403 27bd 47c5 523e 03d0 59be 0500 163e
00000010: 6469 c3be 1807 8e3d dd53 3c3e 6be5 ffbd
00000020: a736 a03d db1c 0b3e 5e85 7dbe cee0 85be
00000030: 0096 16bd fe18 eabc d14d 443e 47b3 8c3e
00000040: d642 a03e b4c8 ed3d b282 bb3a e518 603e
00000050: d950 8bbe ef21 9ebd 4778 7cbd ba05 573e
00000060: 833c 253e 4ec4 073c 4e19 30be 6ddc bdbe
00000070: e564 bb3e e2ae 1e3d 9870 d93d 4716 573e
00000080: ec7e 7c3e d796 843c 823a 28be 78f0 d4bd
00000090: ac90 c6bd ec90 52be 84b0 22be 934c 8bbc
000000a0: be1d e3be 5d42 6c3e 6e17 ba3d 5e7f 6abe
000000b0: 25f1 b83e 76d6 a93b 6411 823d cf0c 493e
000000c0: 2018 24be c16e b33e b847 1e3e 1e4b 51be
000000d0: e8e6 f83d cef3 763e a68f 6c3e aacb 2a3e
000000e0: 0b60 963b 4576 f53e 38ec 953a 0864 dcbc
000000f0: f974 94bd 8151 75be 95fb 94bd 4bd2 c83d
00000100: cc94 f23d d80a 8f3e 3b64 a43d 7710 ef3e
00000110: 015d 21be 906d 4bbd ff85 8b3e 34ca d33e
00000120: 7dcd bf3d 2d90 633e baa8 a5be 8193 03bd
00000130: bd7e 203e 4105 0cbe 5734 3ebb 392e 133d
00000140: 4b48 f03d 3ce3 0a3e dda9 cb3e d62e 42be
00000150: f4e1 963e 8186 8b3e 00c1 8a3d ccff 4b3e
00000160: f8d9 89bd 17fb cebe 872a 9dbe e92e bdbc
00000170: 0d5a ab3d a311 d1bd 5765 ebbd d905 04bd
00000180: 8009 aa3d 6fc7 a63e 0ead ca3e f735 0fbd
00000190: ffbe 28be 893e 823e 6504 f13e 6214 2d3e
000001a0: c553 0c3e 9ac6 173f aab8 013e a4a5 293d
000001b0: 8e13 85be 9e36 ba3c 21e9 c1bd bde9 f83d
000001c0: 1757 053f 05f8 6d3d ba6c ac3e 1907 d4be
000001d0: 9d8b 49be b033 8c3d 6668 8bbe 3e18 c93d
000001e0: 9354 93be 0f10 663e 89fc 7abe 4e9f 90bc
000001f0: 7375 603e 31d1 b43e 554d 023e 503b 5cbd

res_block1.bn1.running_var f4 [128]
0.17348033 0.17275356 0.17461425 0.17669688 0.17433394 0.17252897 0.17258427 0.17611772
0.17335741 0.17307846 0.17505586 0.17732458 0.17391157 0.17113438 0.17584799 0.17544736
0.17536305 0.17382084 0.17255624 0.17336102 0.17537142 0.17469124 0.17658894 0.17276773
0.17351636 0.1713471 0.17476277 0.17908089 0.17360531 0.17442243 0.17320393 0.17723586
0.17589469 0.17152248 0.17711017 0.17712952 0.17409067 0.17531876 0.17195635 0.17347965
0.17445794 0.1710277 0.17359002 0.17348863 0.17541677 0.17390622 0.17443725 0.17283748
0.17700581 0.17633383 0.17202246 0.1736405 0.17551935 0.17393503 0.17481256 0.17554492
0.17723152 0.17542936 0.17886959 0.17562675 0.1750382 0.17499372 0.17273912 0.17327762
0.17410274 0.17265187 0.17418736 0.1732606 0.1750705 0.1738215 0.17565262 0.17287223
0.17374758 0.1744654 0.17500831 0.17272513 0.17458482 0.17481992 0.17450225 0.1732209
0.17990544 0.1777065 0.1747299 0.17181095 0.17330462 0.1743907 0.17420039 0.173551
0.17279552 0.17502294 0.17816572 0.17283721 0.17523308 0.1741055 0.1744326 0.17545241
0.17209063 0.17488831 0.17410862 0.17383496 0.17375582 0.17550956 0.17537579 0.17261907
0.17386629 0.17243199 0.17380495 0.17110807 0.17373703 0.17598444 0.17485791 0.17362742
0.17476586 0.17652456 0.172944 0.17579645 0.17283931 0.17601696 0.17349018 0.17395611
0.17653829 0.172731 0.17205347 0.17561309 0.17457972 0.17450565 0.17475392 0.17563601
00000000: d4a4 313e 4fe6 303e 14ce 323e 07f0 343e
00000010: 9984 323e 6fab 303e eeb9 303e 3458 343e
00000020: 9b84 313e 7b3b 313e d841 333e 9394 353e
00000030: e015 323e da3d 2f3e 7f11 343e 79a8 333e
00000040: 5f92 333e 17fe 313e 95b2 303e 8d85 313e
00000050: 9194 333e 43e2 323e bbd3 343e 06ea 303e
00000060: 46ae 313e 9d75 2f3e 03f5 323e fb60 373e
00000070: 97c5 313e cb9b 323e 5f5c 313e 517d 353e
00000080: bd1d 343e 97a3 2f3e 5e5c 353e 7161 353e
00000090: d344 323e c386 333e 5315 303e a6a4 313e
000000a0: 1aa5 323e e321 2f3e 95c1 313e 01a7 313e
000000b0: 74a0 333e 7914 323e ae9f 323e 4ffc 303e
000000c0: 0341 353e db90 343e a826 303e d1ce 313e
000000d0: 58bb 333e 061c 323e 1002 333e 0cc2 333e
000000e0: 2e7c 353e c1a3 333e 9729 373e 80d7 333e
000000f0: 373d 333e 8e31 333e 86e2 303e b06f 313e
00000100: fd47 323e a7cb 303e 2c5e 323e 3a6b 313e
00000110: ae45 333e 43fe 313e 48de 333e 6b05 313e
00000120: e3ea 313e 0fa7 323e 6135 333e dbde 303e
00000130: 5dc6 323e fe03 333e b8b0 323e d260 313e
00000140: 2239 383e b1f8 353e 65ec 323e 36ef 2f3e
00000150: c476 313e 7a93 323e 9661 323e 5ab7 313e
00000160: 4ff1 303e 3739 333e 1371 363e 3dfc 303e
00000170: 4d70 333e b648 323e 769e 323e cca9 333e
00000180: 8738 303e ec15 333e 8849 323e cb01 323e
00000190: 0ced 313e c7b8 333e b695 333e 0ec3 303e
000001a0: 010a 323e 0392 303e edf9 313e f436 2f3e
000001b0: 1fe8 313e 4435 343e f40d 333e 63cb 313e
000001c0: d2f5 323e dbc2 343e 3b18 313e fc03 343e
000001d0: cafc 303e ca3d 343e 69a7 313e 8d21 323e
000001e0: 74c6 343e 65e0 303e c92e 303e ebd3 333e
000001f0: 07c5 323e 9cb1 323e b1f2 323e edd9 333e

res_block1.fc2.weight f4 [128, 128]
0.08028608 0.0032252914 -0.004727223 -0.026423018 -0.0413228 0.045021437 0.02900158 -0.044824414
0.008370769 0.025301121 -0.064692296 0.01159966 -0.046493266 -0.07987609 0.040037554 0.07820416
-0.085793816 0.0679878 0.02458751 0.006261534 0.017792132 0.07680627 0.07011928 0.034360684
-0.08299377 0.07281703 -0.07843426 -0.021254448 0.05278978 0.07423112 0.027502473 0.0766953
-0.030216496 0.005460928 -0.086285934 -0.08154361 0.030413903 -0.0021573307 -0.030769236 0.017012548
0.007920628 -0.04464127 0.002944107 -0.051886205 -0.030499695 0.056559406 -0.07850733 0.07708287
0.029387968 -0.019931661 -0.053641237 -0.035902888 0.0078057935 -0.01581706 0.08762952 0.010298541
-0.07041086 -0.043800406 -0.043336257 -0.0047223885 0.0025451812 -0.024981136 -0.08178131 -0.081177436
-0.08819484 0.06959078 0.053260114 -0.018751383 0.068844475 0.055136155 0.050930597 0.009079234
0.0052716006 0.057858102 0.037127182 -0.03105281 -0.0094577875 0.058885653 -0.0089930175 0.080211505
-0.038420755 -0.08168079 0.000517163 0.009817809 0.006876445 -0.03906283 0.098476045 0.027618287
0.0144715505 -0.08150915 -0.027688192 -0.03758603 0.041724693 0.08434349 0.07316573 0.033928357
-0.027576875 -0.012976377 -0.037914466 -0.04832077 -0.056428116 -0.05340422 0.06342968 0.08935188
0.029508736 0.0241728 0.014795314 -0.018997567 0.05961404 -0.049256314 0.08409131 0.016150208
0.079181984 0.007895735 0.048981316 -0.04504086 0.009009916 0.04312911 -0.029067637 0.009745944
-0.07686247 0.043132104 -0.071361385 0.030147921 0.04033136 0.03453426 0.04071419 0.039597224
0.0059164213 0.08256019 -0.0840978 -0.0065588728 0.024582915 -0.0860044 0.03849719 0.08804088
0.009909571 0.044069365 -0.03999175 -0.018189875 -0.043630227 0.005868401 -0.031591434 0.018416576
-0.0019135214 0.082138926 -0.056857392 0.055395804 0.027941154 0.045500293 -0.03348848 0.0012692264
-0.005929299 -0.06725302 0.027977308 0.06047062 -0.05662419 0.010620205 -0.06941701 0.040972736
0.07622648 -0.039762914 -0.013212045 -0.07346007 0.012500253 -0.07363231 0.018986473 -0.059727877
0.06045123 -0.061667785 0.039903294 0.06578671 0.02367942 -0.020752637 -0.078631744 -0.03159232
0.065122336 -0.025586491 0.009507353 0.012347471 -0.07532733 -0.088859096 -0.019967139 0.08606866
-0.02086615 0.06538983 -0.04767114 -0.001448434 0.045730285 -0.0011637132 0.044614643 -0.02684532
0.030535841 -0.08698527 0.03005851 0.06884099 -0.03613065 -0.033225395 0.027200574 -0.043527763
-0.0753823 -0.0030834163 0.0548347 0.027239474 0.04246492 -0.03640419 -0.042906556 0.042981878
0.017673312 -0.04956772 -0.049031954 -0.030106386 -0.00973866 -0.037184272 -0.024530387 0.026365839
0.021075437 0.08466163 -0.06011355 0.061319478 -0.03440865 -0.049643964 -0.0116626965 0.01965848
0.018957635 -0.046852876 0.04132435 0.056317665 -0.010941197 -0.007157537 -0.024626644 0.022655882
-0.06303073 0.07794738 0.03750076 -0.052713048 0.025362218 0.03618196 -0.028529964 0.061664484
0.0678409 0.033642918 0.07622716 -0.00992253 -0.06724387 -0.04578672 0.0734595 -0.007167421
-0.0032710696 -0.053168632 -0.026331943 -0.0029027706 0.02816906 -0.013781372 0.0027771613 -0.035345197
00000000: 076d a43d 695f 533b d2e6 9abb 1675 d8bc
00000010: 1942 29bd 6668 383d b994 ed3c ce99 37bd
00000020: 8d25 093c 4c44 cf3c 657d 84bd 800c 3e3c
00000030: b96f 3ebd 1396 a3bd 6bfe 233d 8129 a03d
00000040: abb4 afbd 303d 8b3d bf6b c93c 8e2d cd3b
00000050: cec0 913c 9b4c 9d3d b29a 8f3d cabd 0c3d
00000060: a3f8 a9bd 1821 953d 24a2 a0bd cf1d aebc
00000070: 193a 583d 7c06 983d de4c e13c 6d12 9d3d
00000080: 9688 f7bc 96f1 b23b aeb6 b0bd 5600 a7bd
00000090: 9426 f93c 0162 0dbb c40f fcbc e65d 8b3c
000000a0: 86c5 013c c4d9 36bd ebf1 403b a186 54bd
000000b0: 7fda f9bc d6aa 673d 73c8 a0bd a0dd 9d3d
000000c0: 09bf f03c b947 a3bc eab6 5bbd e80e 13bd
000000d0: bec7 ff3b c792 81bc 1b77 b33d 36bb 283c
000000e0: 9233 90bd 0e68 33bd 5c81 31bd 44be 9abb
000000f0: 0ecd 263b 3da5 ccbc f67c a7bd 5b40 a6bd
00000100: 7f9f b4bd 9c85 8e3d 4727 5a3d 809c 99bc
00000110: 55fe 8c3d 73d6 613d 9a9c 503d 11c1 143c
00000120: 64bd ac3b 9efc 6c3d ac12 183d 7662 febc
00000130: d6f4 1abc 1532 713d 7357 13bc ee45 a43d
00000140: 155f 1dbd 4248 a7bd 3992 073a e0da 203c
00000150: cd53 e13b 5900 20bd cfad c93d bf3f e23c
00000160: 151a 6d3c 45ee a6bd 59d2 e2bc cff3 19bd
00000170: 83e7 2a3d 48bc ac3d ead7 953d 76f8 0a3d
00000180: e6e8 e1bc df9a 54bc 334c 1bbd 00ec 45bd
00000190: 2b21 67bd 62be 5abd 6ce7 813d 1efe b63d
000001a0: 4ebc f13c 0906 c63c 0b68 723c c9a0 9bbc
000001b0: da2d 743d fdc0 49bd 1138 ac3d 714d 843c
000001c0: 2a2a a23d 1d5d 013c a2a0 483d c47c 38bd
000001d0: 549e 133c 26a8 303d 411f eebc 74ad 1f3c
000001e0: 126a 9dbd 4aab 303d eb25 92bd c6f8 f63c
000001f0: 7f32 253d cc73 0d3d ecc3 263d b330 223d
00000200: 8ade c13b 5115 a93d 783b acbd d0eb d6bb
00000210: 1c62 c93c 1323 b0bd 3baf 1d3d c74e b43d
00000220: c15b 223c 1482 343d 64ce 23bd ef02 95bc
00000230: 9cb5 32bd b74b c03b 0566 01bd 5cde 963c
00000240: 20cf faba 7438 a83d 4ce3 68bd b6e6 623d
00000250: d9e4 e43c 845e 3a3d 372b 09bd 2c5c a63a
00000260: 914a c2bb f4bb 89bd ab30 e53c 0ab0 773d
00000270: c4ee 67bd 5e00 2e3c 812a 8ebd 07d3 273d
00000280: a11c 9c3d 70de 22bd 5577 58bc 3c72 96bd
00000290: dccd 4c3c 89cc 96bd 8589 9b3c 38a5 74bd
000002a0: b59b 773d 5c97 7cbd a371 233d 2fbb 863d
000002b0: 58fb c13c 6f01 aabc ae09 a1bd f366 01bd
000002c0: dc5e 853d c39a d1bc bbc4 1b3c 0c4d 4a3c
000002d0: 3745 9abd c2fb b5bd 2092 a3bc c444 b03d
000002e0: 7def aabc 1aeb 853d d042 43bd 61d9 bdba
000002f0: ae4f 3b3d bc87 98ba d8bd 363d b7ea dbbc
00000300: 4d26 fa3c 5525 b2bd 443d f63c 81fc 8c3d
00000310: bcfd 13bd 5a17 08bd bdd3 de3c 2b4a 32bd
00000320: 0962 9abd 2413 4abb 5a9a 603d 5125 df3c
00000330: b2ef 2d3d 8f1c 15bd c9be 2fbd c40d 303d
00000340: 9fc7 903c 8607 4bbd bbd5 48bd aba1 f6bc
00000350: e78e 1fbc 894e 18bd f3f3 c8bc 2cfd d73c
00000360: 65a6 ac3c 1463 ad3d a039 76bd 222a 7b3d
00000370: 16f0 0cbd 7857 4bbd e514 3fbc d20a a13c
00000380: 0b4d 9b3c cde8 3fbd b943 293d 5aad 663d
00000390: b542 33bc c689 eabb d1bd c9bc d498 b93c
000003a0: 4116 81bd e0a2 9f3d 669a 193d a3e9 57bd
000003b0: 6dc4 cf3c 8933 143d acb7 e9bc e693 7c3d
000003c0: 2bf0 8a3d 28cd 093d fc1c 9c3d 1b92 22bc
000003d0: 27b7 89bd db8a 3bbd ef71 963d afdc eabb
000003e0: 715f 56bb 5ac7 59bd 16b6 d7bc 693c 3ebb
000003f0: cdc2 e63c 44cb 61bc 0901 363b 20c6 10bd

res_block1.fc2.bias f4 [128]
-0.009592824 0.019779174 0.029471736 -0.021035861 -0.0011077464 0.02749056 0.019590618 -0.006612043
0.017514529 0.054980397 0.036544967 0.062112458 0.026861293 -0.04992616 -0.030465752 -0.079897776
-0.029019026 -0.08114518 -0.04802003 0.06591098 0.036395505 -0.055446584 -0.06803975 -0.016189467
0.06521897 0.013803516 -0.0478489 0.03704818 -0.06942748 0.08292553 -0.006148315 0.06937456
0.0023378085 0.061464623 -0.025186095 0.0076428927 -0.00031884405 -0.048302826 -0.012741463 0.086865194
-0.043264788 -0.051627804 -0.032612555 0.07121215 -0.0052977605 0.005488621 0.067605965 0.038351186
0.028376618 0.03726219 0.044770833 -0.046623502 -0.04713367 -0.006478376 -0.030450651 -0.037355643
0.05860924 0.08584957 0.011062886 0.004598929 -0.026541194 -0.08708086 0.037563045 0.041254953
0.03355421 0.06816532 -0.081323445 -0.028068278 0.011641012 -0.047050126 0.07379454 0.080484204
0.044969607 0.034019668 -0.0033243678 -0.024810394 -0.068572536 -0.046536166 0.06778559 -0.034420904
-0.074526675 0.0651601 -0.04295939 -0.037773665 -0.067344554 -0.026394352 0.044447295 0.062505044
0.017364183 0.041883588 -0.042226665 0.06827014 -0.06582432 0.0812981 -0.004172411 0.086057074
-0.016090695 -0.0147661 0.010953097 -0.055561848 -0.056081373 0.001126009 -0.03222544 0.016682003
0.03739671 0.029396985 -0.024461186 -0.0849275 0.0001835302 -0.087515086 0.08110269 0.055214204
0.08606457 0.034226872 -0.001719426 0.020365598 -0.066572264 -0.06062821 0.014763318 0.038234416
0.058381606 -0.034218784 0.067944594 0.024958339 0.03404484 -0.028144546 0.07991497 0.07794707
00000000: 382b 1dbc ef07 a23c b66e f13c 6653 acbc
00000010: cd31 91ba e233 e13c 817c a03c d6a9 d8bb
00000020: a17a 8f3c 2033 613d 2db0 153d a269 7e3d
00000030: 370c dc3c 607f 4cbd 5093 f9bc 72a1 a3bd
00000040: 4fb9 edbc 722f a6bd a7b0 44bd 56fc 863d
00000050: 7413 153d f51b 63bd 6d58 8bbd c69f 84bc
00000060: 8691 853d 2428 623c 35fd 43bd d5bf 173d
00000070: ff2f 8ebd dcd4 a93d ce77 c9bb 4014 8e3d
00000080: eb35 193b 54c2 7b3d 1253 cebc 3b71 fa3b
00000090: 862a a7b9 2fd9 45bd 92c1 50bc 61e6 b13d
000000a0: 6b36 31bd ad77 53bd be94 05bd add7 913d
000000b0: d698 adbb e4d9 b33b ff74 8a3d 2216 1d3d
000000c0: 1576 e83c 3da0 183d 9f61 373d 49f8 3ebd
000000d0: 3c0f 41bd 8f48 d4bb a573 f9bc 3b02 19bd
000000e0: 3e10 703d e6d1 af3d 1b41 353c 9db2 963b
000000f0: eb6c d9bc 7357 b2bd b5db 193d f4fa 283d
00000100: 2470 093d 429a 8b3d e88c a6bd 72ef e5bc
00000110: f1b9 3e3c a2b7 40bd 9721 973d e7d4 a43d
00000120: 0d32 383d 3558 0b3d a3dd 59bb 2b3f cbbc
00000130: c26f 8cbd b59c 3ebd 2cd3 8a3d effc 0cbd
00000140: 71a1 98bd a972 853d 2ff6 2fbd 8fb8 1abd
00000150: f1eb 89bd f838 d8bc 5e0e 363d a502 803d
00000160: 553f 8e3c 208e 2b3d def5 2cbd 37d1 8b3d
00000170: e7ce 86bd 9e7f a63d b8b8 88bb b13e b03d
00000180: a2d0 83bc 83ed 71bc 9e74 333c d294 63bd
00000190: 95b5 65bd 9896 933a d3fe 03bd b2a8 883c
000001a0: 4b2d 193d f2d1 f03c d362 c8bc 78ee adbd
000001b0: 0372 4039 1c3b b3bd 2b19 a63d 4a28 623d
000001c0: 9f42 b03d 7a31 0c3d 5d5e e1ba c1d5 a63c
000001d0: 0a57 88bd 4955 78bd d8e1 713c b19b 1c3d
000001e0: 8d21 6f3d ff28 0cbd 8926 8b3d 6e75 cc3c
000001f0: 9a72 0b3d 648f e6bc 76aa a33d b7a2 9f3d

res_block1.bn2.weight f4 [128]
1.0072781 1.0025749 1.0035408 1.0069095 1.0070326 0.9947081 1.008299 1.0045832
1.0133722 0.9991967 1.0026166 0.9966846 1.0036511 0.99276125 1.0091197 0.99762297
0.9973078 1.0004603 1.0029118 0.99234974 1.0009753 0.99901456 1.0009667 1.0002218
0.9964769 0.9991849 1.001812 1.0091292 1.0051118 1.0047739 1.0071532 0.9958422
0.99673784 1.006456 1.0014713 1.005089 1.0038128 0.99483925 1.0072815 1.0043011
1.0008911 0.9955905 0.9991776 0.9955442 0.99698347 0.99918234 1.0029198 0.99561936
1.003795 0.9916613 0.98993176 1.0051243 1.0104296 1.001477 0.99423313 0.99601775
0.99960685 1.0029696 0.994283 0.9971167 1.0002059 1.0016986 0.99635357 1.0020875
1.0009004 1.0007614 1.0030267 1.0005693 1.006392 0.9979354 1.0041937 0.99416006
1.0002038 0.9917671 0.99658316 0.9954672 1.0008987 1.0069971 0.99915177 1.0008765
1.0036674 1.0054159 0.999855 0.99228615 0.9982787 1.0015312 1.0055932 0.9977831
0.992582 0.99841666 1.0085558 0.98981875 1.0013028 1.0041947 0.99981445 0.99232805
1.0035064 1.0062824 0.99690765 0.99593514 0.9957369 0.9953918 1.0092859 0.9955982
1.009154 0.99674934 0.99996895 1.0028028 0.98754746 0.9949677 1.0107323 1.0057678
0.9996779 1.0063732 0.99268067 0.9990201 0.9992102 1.0052372 0.9973855 0.9949839
1.0014968 0.9989807 1.0091373 0.9896949 1.004461 1.005804 0.9962859 0.9972861
00000000: 7dee 803f 6054 803f 0674 803f 69e2 803f
00000010: 72e6 803f 31a5 7e3f f10f 813f 2f96 803f
00000020: 2eb6 813f 5bcb 7f3f be55 803f b926 7f3f
00000030: a477 803f 9a25 7e3f d62a 813f 3864 7f3f
00000040: 904f 7f3f 150f 803f 6a5f 803f a20a 7e3f
00000050: f51f 803f 6bbf 7f3f ad1f 803f 4507 803f
00000060: 1c19 7f3f 95ca 7f3f 603b 803f 252b 813f
00000070: 81a7 803f 6e9c 803f 65ea 803f 84ef 7e3f
00000080: 362a 7f3f 8dd3 803f 3630 803f c2a6 803f
00000090: f07c 803f c9ad 7e3f 9aee 803f f08c 803f
000000a0: 331d 803f 05df 7e3f 1aca 7f3f fcdb 7e3f
000000b0: 4f3a 7f3f 6aca 7f3f ad5f 803f e9e0 7e3f
000000c0: 5b7c 803f 84dd 7d3f 2b6c 7d3f eaa7 803f
000000d0: c255 813f 6630 803f 1086 7e3f 05fb 7e3f
000000e0: 3ce6 7f3f 4f61 803f 5589 7e3f 0a43 7f3f
000000f0: bf06 803f a937 803f 0711 7f3f 6744 803f
00000100: 811d 803f f318 803f 2e63 803f a812 803f
00000110: 74d1 803f b278 7f3f 6b89 803f 4681 7e3f
00000120: ae06 803f 73e4 7d3f 1320 7f3f f0d6 7e3f
00000130: 731d 803f 48e5 803f 69c8 7f3f b91c 803f
00000140: 2c78 803f 78b1 803f 7ff6 7f3f 7706 7e3f
00000150: 318f 7f3f 2d32 803f 47b7 803f b76e 7f3f
00000160: db19 7e3f 3c98 7f3f 5b18 813f c364 7d3f
00000170: b12a 803f 7489 803f d7f3 7f3f 3609 7e3f
00000180: e672 803f ddcd 803f 5735 7f3f 9bf5 7e3f
00000190: 9de8 7e3f ffd1 7e3f 4830 813f 86df 7e3f
000001a0: f52b 813f f72a 7f3f f7fd 7f3f d85b 803f
000001b0: e9cf 7c3f 34b6 7e3f ad5f 813f 00bd 803f
000001c0: e4ea 7f3f d6d0 803f 5220 7e3f c8bf 7f3f
000001d0: 3dcc 7f3f 9dab 803f a854 7f3f 44b7 7e3f
000001e0: 0c31 803f 33bd 7f3f 692b 813f a55c 7d3f
000001f0: 2e92 803f 2fbe 803f 980c 7f3f 244e 7f3f

res_block1.bn2.bias f4 [128]
-0.007508177 -0.0070435083 0.0048139286 0.0066824853 0.0015073979 -0.004965338 0.006160691 0.0017394077
0.01054012 -0.0041526817 0.007139205 -0.0065487185 0.0008516653 -0.011020461 0.0033976252 0.0015167525
0.0014921377 0.008983123 -0.0035029966 -0.0015485656 -0.004013252 -0.0022813065 -0.0034655351 -0.0015623785
-0.0035344616 0.00033288714 0.0018643506 -0.0031152605 -0.0032515978 -0.0015966772 0.004617283 -0.008318699
0.0019096455 0.0026674801 0.00284409 0.0023133608 0.00039321146 -0.0053282543 3.7804013e-05 -0.004230168
-0.005570804 -0.0015375909 -0.0052921316 -0.0033788185 0.003994784 -0.0053907144 -0.00025233024 -0.008857774
0.004651445 -0.005516932 -0.0050215856 0.0005720695 0.0054420196 0.0027300336 -0.0018454565 -0.004694705
-0.007111177 0.0052221655 -0.008008848 -0.00023445283 -0.006872171 0.006338203 0.010972237 8.249434e-05
0.004554862 -0.003803391 -0.0057085985 -0.002451348 0.0025137265 -0.00095074374 0.0080451425 -0.0005866035
-0.0022459656 -0.002700589 -0.0035900509 0.0021757304 0.0027941982 0.0027828652 -0.0020355962 -0.004252502
-0.00078129704 0.0012435099 -0.0028064093 0.0024646304 -0.0051830653 -0.0011259499 0.0010738785 0.0012810144
0.000947696 0.00095239136 0.002324767 -0.005169134 0.0011967637 0.0022010405 -0.0049111363 -0.0058493554
-0.0018809517 0.004749059 -0.0034460058 0.0051543913 -0.0047840467 0.00940782 0.006679176 -0.005933897
0.003808384 0.0027369182 -0.0038547204 -0.0053496812 -0.007864477 -0.0014440257 0.0030949803 -0.00018920473
-0.0020954541 0.005265482 -0.00038625355 -0.0002641587 -0.0026676194 0.008466434 0.0045911986 0.005485573
0.009102155 -0.0068468302 0.009258414 -0.00044845624 0.00038047184 -3.6028097e-05 -0.004897353 -0.0038544545
00000000: 2707 f6bb 3bcd e6bb 29be 9d3b c0f8 da3b
00000010: e193 c53a 46b4 a2bb 9fdf c93b d6fc e33a
00000020: 78b0 2c3c 3813 88bb feef e93b a296 d6bb
00000030: 4a42 5f3a 2a8f 34bc b1aa 5e3b c5cd c63a
00000040: d593 c33a f32d 133c 8892 65bb 3df9 caba
00000050: 9981 83bb f981 15bb 081e 63bb b9c8 ccba
00000060: 6da2 67bb 5b87 ae39 3a5d f43a 6629 4cbb
00000070: c218 55bb 9947 d1ba 944c 973b 274b 08bc
00000080: 124d fa3a e4d0 2e3b ea63 3a3b c19b 173b
00000090: f327 ce39 a398 aebb c08f 1e38 399d 8abb
000000a0: 4a8b b6bb fd88 c9ba 9e69 adbb 2b6f 5dbb
000000b0: ade6 823b 97a4 b0bb 314b 84b9 3220 11bc
000000c0: 266b 983b 61c7 b4bb 1d8c a4bb eff6 153a
000000d0: f852 b23b 5dea 323b 3fe3 f1ba 0ad6 99bb
000000e0: e004 e9bb b31e ab3b 8b37 03bc 74d7 75b9
000000f0: f32f e1bb b3b0 cf3b e6c4 333c d000 ad38
00000100: f440 953b 5042 79bb 320f bbbb cba6 20bb
00000110: 55bd 243b 553b 79ba c6cf 033c 4bc6 19ba
00000120: 0d31 13bb 5dfc 30bb 0f47 6bbb b396 0e3b
00000130: de1e 373b bb60 363b a367 05bb 9358 8bbb
00000140: f5cf 4cba 45fd a23a bceb 37bb a385 213b
00000150: b4d6 a9bb 9c94 93ba 62c1 8c3a b6e7 a73a
00000160: cd6e 783a e7a9 793a 1e5b 183b d761 a9bb
00000170: badc 9c3a 553f 103b 99ed a0bb f3ab bfbb
00000180: 448a f6ba ff9d 9b3b 62d6 61bb 2be6 a83b
00000190: 7ec3 9cbb 4223 1a3c fddc da3b 2371 c2bb
000001a0: 1596 793b de5d 333b 7a9f 7cbb 614c afbb
000001b0: 02da 00bc 7645 bdba 27d5 4a3b 4265 46b9
000001c0: e353 09bb 108a ac3b 1382 cab9 c87e 8ab9
000001d0: 3ad3 2ebb ccb6 0a3c c471 963b 52c0 b33b
000001e0: 3521 153c 605b e0bb 9ab0 173c c71e ebb9
000001f0: 117a c739 e01c 17b8 f979 a0bb 049b 7cbb

res_block1.bn2.running_mean f4 [128]
0.15214364 -0.00393165 0.09709122 0.6698562 -0.19881824 0.46565276 0.021290328 -0.06413252
0.47379076 0.05754332 0.20342672 0.24664867 0.24878845 0.065202035 0.23632492 -0.17394039
-0.16845411 0.33409777 0.029724142 -0.021153882 0.3142101 -0.32871217 -0.095447674 0.19333696
0.41151172 -0.12994696 0.043741576 0.16445765 -0.21574001 -0.11177766 0.23684576 -0.060650654
0.00015706684 -0.00012174202 0.06063207 0.09688337 -0.10640293 0.30346194 0.033981685 -0.12447332
-0.15224606 -0.35851827 -0.060484104 0.12499768 0.036666654 0.19336806 0.25072086 0.11267519
0.16482693 -0.17121835 0.060389653 -0.20741573 0.07510041 -0.10585775 0.14900291 -0.207304
0.2529863 0.3773815 -0.4604277 0.010633475 0.3347968 0.04497774 -0.10445877 0.07307845
0.11932466 -0.37499642 0.20684648 -0.08545913 0.13329215 -0.21739143 0.08874539 0.29287058
0.022342954 -0.2040833 0.03348394 0.07492266 0.14389789 -0.03083296 -0.2864294 0.13370536
-0.48267356 -0.011921836 -0.2851666 -0.10170297 -0.036225583 -0.32459348 0.26590347 0.18935646
-0.15962592 0.10339948 0.21050508 0.19353536 -0.019905832 -0.15543358 -0.120082825 -0.123003624
-0.05198828 -0.0746653 0.014448269 -0.23304132 0.032064818 0.24545339 0.05052962 0.27913314
-0.002723864 0.1914872 0.074471414 -0.0148355365 0.054974135 -0.0911843 0.04309427 -0.34444293
0.34948578 0.46288818 0.29410723 -0.2036663 -0.13827693 -0.21649118 0.08084193 0.14110214
-0.0864336 -0.42637384 -0.12070581 0.052479 0.09441832 -0.3405519 -0.21558304 -0.21335636
00000000: 8bcb 1b3e 12d5 80bb c3d7 c63d b27b 2b3f
00000010: 0297 4bbe 0a6a ee3e 0e69 ae3c e957 83bd
00000020: b494 f23e 8bb2 6b3d 184f 503e 7891 7c3e
00000030: 66c2 7e3e a588 853d 29ff 713e 6e1d 32be
00000040: 3c7f 2cbe dd0e ab3e 0b80 f33c e84a adbc
00000050: 25e0 a03e f64c a8be 127a c3bd 20fa 453e
00000060: aab1 d23e d110 05be 5e2a 333d 9667 283e
00000070: f3ea 5cbe b0eb e4bd b287 723e d26c 78bd
00000080: 4fb2 2439 c04f ffb8 5559 783d ca6a c63d
00000090: c8e9 d9bd 5d5f 9b3e 6130 0b3d deeb febd
000000a0: 64e6 1bbe b58f b7be 2ebe 77bd c9fe ff3d
000000b0: c62f 163d 4702 463e 7c5e 803e 40c2 e63d
000000c0: 64c8 283e dd53 2fbe 245b 773d ca64 54be
000000d0: 3ece 993d f3cb d8bd 3894 183e 8047 54be
000000e0: 6c87 813e 2638 c13e 2ebd ebbe 0738 2e3c
000000f0: 7c6a ab3e 943a 383d 7bee d5bd 28aa 953d
00000100: 7d60 f43d 88ff bfbe 90cf 533e 3205 afbd
00000110: bd7d 083e dc9b 5ebe 25c0 b53d 22f3 953e
00000120: 9208 b73c 36fb 50be 7526 093d 0d71 993d
00000130: f859 133e 6795 fcbc e0a6 92be 0fea 083e
00000140: fd20 f7be ce53 43bc 5b01 92be a649 d0bd
00000150: 4761 14bd 1e31 a6be 8024 883e a9e6 413e
00000160: fa74 23be 1bc3 d33d a58e 573e 222e 463e
00000170: 8e11 a3bc fb29 1fbe fced f5bd 53e9 fbbd
00000180: aaf1 54bd 1fea 98bd 6fb8 6c3c 62a2 6ebe
00000190: 6656 033d 2258 7b3e 26f8 4e3d 8aea 8e3e
000001a0: db82 32bb 3815 443e 7884 983d c010 73bc
000001b0: 8f2c 613d d6be babd 9e83 303d d35a b0be
000001c0: cdef b23e aeff ec3e 3995 963e e68d 50be
000001d0: 7898 0dbe ddaf 5dbe 7490 a53d 147d 103e
000001e0: 1904 b1bd ac4d dabe 9c34 f7bd 38f4 563d
000001f0: 645e c13d d25c aebe cdc1 5cbe 177a 5abe

res_block1.bn2.running_var f4 [128]
0.27840078 0.29871103 0.24640305 0.2855749 0.28162915 0.28333125 0.2790168 0.26657683
0.292457 0.26700285 0.24970637 0.25939202 0.26097533 0.27874935 0.2964117 0.26982975
0.28591156 0.2812823 0.27416387 0.27938563 0.25886774 0.3004857 0.25956267 0.25070572
0.25152704 0.23009469 0.266005 0.29136434 0.2885564 0.31102476 0.25594836 0.2536145
0.23725106 0.30048817 0.27177945 0.26099724 0.2760795 0.2560087 0.24837075 0.27148557
0.23858984 0.257341 0.24699177 0.27339995 0.26830503 0.2514731 0.25214383 0.2692047
0.2789098 0.27483514 0.26755658 0.272652 0.25010747 0.2593235 0.28570908 0.26429775
0.25788763 0.30415878 0.24553825 0.2811672 0.2916291 0.26499295 0.27709332 0.25833485
0.2945713 0.24852931 0.26733917 0.2614515 0.26014176 0.26645425 0.25322875 0.26906314
0.28514382 0.27990723 0.28689104 0.250286 0.22561577 0.26862177 0.27550092 0.25893342
0.27124825 0.28562346 0.27727476 0.2535624 0.2759285 0.25913697 0.2611616 0.27555716
0.24482833 0.267099 0.2725069 0.24789113 0.23893611 0.2554434 0.26617137 0.24425586
0.2955937 0.26211828 0.2481243 0.3422283 0.249199 0.2824344 0.28744736 0.27902743
0.25387132 0.26653305 0.2500131 0.25478718 0.28960076 0.251015 0.29239866 0.2709789
0.32112497 0.27583236 0.24444894 0.258854 0.29161036 0.3260688 0.2768097 0.25030956
0.31505466 0.247932 0.26717106 0.25291765 0.24727401 0.2538832 0.285579 0.25524256
00000000: 8c8a 8e3e a7f0 983e 1551 7c3e e036 923e
00000010: b231 903e cb10 913e 4adb 8e3e c27c 883e
00000020: edbc 953e 99b4 883e 07b3 7f3e 08cf 843e
00000030: 8f9e 853e 3cb8 8e3e 46c3 973e 2027 8a3e
00000040: 0063 923e 3c04 903e 355f 8c3e a20b 8f3e
00000050: 508a 843e 43d9 993e 66e5 843e 805c 803e
00000060: 27c8 803e f19d 6b3e cf31 883e b52d 953e
00000070: aabd 933e a33e 9f3e aa0b 833e c2d9 813e
00000080: f1f1 723e 96d9 993e ad26 8b3e 6ea1 853e
00000090: 4b5a 8d3e 9313 833e e754 7e3e 2800 8b3e
000000a0: e550 743e 33c2 833e 69eb 7c3e 14fb 8b3e
000000b0: 475f 893e 15c1 803e ff18 813e 33d5 893e
000000c0: 44cd 8e3e 31b7 8c3e 2dfd 883e 0b99 8b3e
000000d0: 160e 803e 0dc6 843e 7648 923e 0952 873e
000000e0: d909 843e b3ba 9b3e 616e 7b3e 26f5 8f3e
000000f0: 6950 953e 28ad 873e 2ddf 8d3e 7744 843e
00000100: 0dd2 963e 787e 7e3e aee0 883e f9dc 853e
00000110: 4d31 853e b16c 883e 33a7 813e a5c2 893e
00000120: 5ffe 913e 0050 8f3e 62e3 923e 7d25 803e
00000130: d207 673e cb88 893e 750e 8d3e ec92 843e
00000140: 0de1 8a3e 3d3d 923e f5f6 8d3e eed2 813e
00000150: 8046 8d3e 9aad 843e f9b6 853e d415 8d3e
00000160: 47b4 7a3e 33c1 883e 0686 8b3e 2cd7 7d3e
00000170: abab 743e 7ac9 823e 9d47 883e 351e 7a3e
00000180: 0f58 973e 5e34 863e 4c14 7e3e 8c38 af3e
00000190: 062e 7f3e 3e9b 903e 4d2c 933e afdc 8e3e
000001a0: 6cfb 813e 0577 883e b801 803e 7773 823e
000001b0: 8d46 943e 0a85 803e 47b5 953e bfbd 8a3e
000001c0: 7e6a a43e e639 8d3e d350 7a3e 8388 843e
000001d0: f44d 953e 7df2 a63e 00ba 8d3e 9328 803e
000001e0: d84e a13e e3e1 7d3e a5ca 883e 6c7e 813e
000001f0: 6635 7d3e fbfc 813e 6937 923e 27af 823e

res_block2.fc1.weight f4 [64, 128]
0.06794859 0.004409919 0.023262396 -0.017406445 -0.018449299 -0.02598549 -0.040071297 0.018919487
-0.066436656 -0.04775126 0.072407365 -0.040091496 0.003993221 -0.02788922 0.066254824 0.08336948
-0.003565582 0.07411372 0.0047745537 0.023390742 0.06687928 -0.08067958 -0.01914996 0.06899809
-0.025466636 0.051943425 0.054397207 -0.024730956 -0.0839647 0.0017930947 -0.061509434 -0.00081932155
0.059529174 0.04268183 -0.00183858 -0.054511506 0.05031871 -0.05741009 -0.0427108 -0.0012655573
-0.074340865 0.074394956 0.022565363 0.042778235 0.026736336 0.082963616 -0.010634688 -0.029022278
0.06263847 0.06556388 0.0390396 -0.067636624 0.04843024 -0.0792458 0.010428562 0.038411718
-0.00013587903 0.056143507 -0.042600513 0.082748175 -0.02804164 -0.031023223 -0.07430346 -0.040450297
0.029731276 -0.019861434 0.045569394 -0.00094186194 0.013775712 0.047522526 0.0404992 -0.07889316
-0.038227785 0.0069818716 0.07531793 0.048136294 0.031243114 -0.046802543 -0.011938887 -0.0116470205
-0.02716448 0.029311271 -0.037752975 -0.00022941179 -0.041820265 0.04176061 -0.017182626 -0.009570566
0.054644745 0.04733136 0.039963342 0.039282672 0.048173916 0.025618829 -0.08544814 0.045256667
-0.08798427 -0.03476769 -0.029436506 -0.018523877 0.0010502134 0.06926197 -0.0668884 -0.0902586
0.04038053 0.065083064 0.077241436 0.022569627 -0.009577303 0.022665616 0.092032656 -0.06496848
-0.00917452 -0.032864884 -0.0037155226 0.08099131 0.060053915 0.041417822 -0.048681036 0.09025437
-0.076413415 0.07004528 -0.07743873 -0.04006466 0.08241471 -0.048047695 -0.06595033 -0.06682044
-0.021137195 0.027834848 0.039710242 0.08477562 0.065578304 0.07232031 0.05791447 0.06984232
0.06129576 0.03447498 0.017429808 -0.0023108618 -0.00975185 -0.07176895 0.06621792 0.079020515
0.0073137362 -0.050138135 0.05131645 0.0059276777 -0.06964353 -0.030783255 -0.076416165 -0.00010641143
-0.035990603 0.07060792 -0.05050913 0.056569487 -0.010745514 0.04804041 0.017024716 -0.057616264
0.022824246 0.045208935 -0.032226842 -0.009339436 -0.04813121 0.04507956 0.063266955 -0.03604635
-0.035639554 0.015591417 0.05002723 0.039000228 0.041281708 0.004254347 0.020298082 -0.0007663124
0.068237364 -0.040928263 -0.05046522 0.080315724 -0.073121674 -0.050220083 0.01888299 -0.01313011
0.064306304 -0.069363005 -0.04200395 -0.041853726 0.028074056 0.029774757 0.01751432 0.023015492
-0.036228884 0.026532603 0.041589733 0.08093687 -0.061051726 -0.06804594 0.026387231 0.004195021
0.004768123 0.016485108 -0.062543325 0.08788592 -0.021374414 -0.075159304 0.043457326 0.087175906
0.04621838 0.028130474 -0.062124673 -0.021121388 -0.06537454 0.045731474 -0.0034041663 0.08832503
0.038774673 0.020711247 -0.0011020969 0.075773425 -0.072871074 -0.01274781 -0.08982598 -0.018792333
-0.07885353 -0.064979844 -0.0083005 -0.018033713 0.066978805 -0.023155008 0.08477741 0.013506663
-0.04766613 0.08779518 -0.03128451 0.06035504 -0.054539405 -0.025322894 0.033995003 0.048044823
0.06366237 0.02892767 -0.06074741 -0.014811618 0.042952448 -0.06866491 0.0064699086 -0.089688905
-0.07168384 -0.040831897 0.07683835 -0.024043377 0.008846753 0.080608524 0.013752999 0.010785084
00000000: a128 8b3d 1581 903b c890 be3c f697 8ebc
00000010: fc22 97bc 86df d4bc cd21 24bd 0afd 9a3c
00000020: f10f 88bd d396 43bd 504a 943d fb36 24bd
00000030: 91d9 823b ef77 e4bc 9cb0 873d 9ebd aa3d
00000040: 8aac 69bb efc8 973d dc73 9c3b f19d bf3c
00000050: 01f8 883d 563b a5bd 60e0 9cbc df4e 8d3d
00000060: 689f d0bc a1c2 543d 9bcf 5e3d 9398 cabc
00000070: aff5 abbd 4606 eb3a 51f1 7bbd bdc7 56ba
00000080: ddd4 733d 24d3 2e3d 82fc f0ba 7547 5fbd
00000090: fe1a 4e3d d826 6bbd 85f1 2ebd 0ee1 a5ba
000000a0: 0640 98bd 625c 983d ffda b83c 3b38 2f3d
000000b0: 2906 db3c d4e8 a93d 1d3d 2ebc 21c0 edbc
000000c0: 9948 803d 5b46 863d fde7 1f3d 1285 8abd
000000d0: ca5e 463d 9f4b a2bd 8fdc 2a3c 9b55 1d3d
000000e0: c07a 0eb9 bcf6 653d e07d 2ebd e077 a93d
000000f0: 95b7 e5bc 6a24 febc 6a2c 98bd 36af 25bd
00000100: 018f f33c 72b4 a2bc f9a6 3a3d 49e7 76ba
00000110: 86b3 613c fba6 423d 7de2 253d bd92 a1bd
00000120: bd94 1cbd 2fc8 e43b 4940 9a3d 902a 453d
00000130: 8ff1 ff3c 06b4 3fbd 529b 43bc 25d3 3ebc
00000140: 0b88 debc 311e f03c dda2 1abd 428e 70b9
00000150: ba4b 2bbd 2c0d 2b3d 94c2 8cbc ddcd 1cbc
00000160: 2bd3 5f3d 87de 413d 9ab0 233d dee6 203d
00000170: 0352 453d 94de d13c 6fff aebd 0e5f 393d
00000180: 1931 b4bd 9168 0ebd d424 f1bc 63bf 97bc
00000190: 50a7 893a 38d9 8d3d c9fc 88bd 80d9 b8bd
000001a0: 0e66 253d 454a 853d c230 9e3d f0e3 b83c
000001b0: 1fea 1cbc 3ead b93c 9e7b bc3d 320e 85bd
000001c0: ba50 16bc 549d 06bd 2080 73bb c6de a53d
000001d0: 18fb 753d bca5 293d c465 47bd 48d7 b83d
000001e0: a37e 9cbd e673 8f3d 3298 9ebd d71a 24bd
000001f0: 0bc9 a83d a9cd 44bd f710 87bd 28d9 88bd
00000200: e927 adbc e805 e43c 35a7 223d d79e ad3d
00000210: eb4d 863d ac1c 943d b937 6d3d 7e09 8f3d
00000220: 4311 7b3d a335 0d3d f5c8 8e3c d471 17bb
00000230: 39c6 1fbc 99fb 92bd 439d 873d 82d5 a13d
00000240: 11a8 ef3b a55d 4dbd 3331 523d f73c c23b
00000250: 44a1 8ebd 2a2d fcbc 1480 9cbd 3429 dfb8
00000260: e26a 13bd e39a 903d a9e2 4ebd 68b5 673d
00000270: f40d 30bc 05c6 443d 6b77 8b3c 08ff 6bbd
00000280: eaf9 ba3c 012d 393d 4b00 04bd 6f04 19bc
00000290: 3b25 45bd 58a5 383d 1b92 813d 56a5 13bd
000002a0: c8fa 11bd 2573 7f3c 5ae9 4c3d b4be 1f3d
000002b0: 0217 293d 0d68 8b3b 2a48 a63c 5be2 48ba
000002c0: 08c0 8b3d 65a4 27bd 9eb4 4ebd 927c a43d
000002d0: d1c0 95bd 93b3 4dbd 80b0 9a3c ac1f 57bc
000002e0: 06b3 833d 310e 8ebd 550c 2cbd d06e 2bbd
000002f0: 90fb e53c 31ea f33c 317a 8f3c fc8a bc3c
00000300: bd64 14bd e75a d93c ff59 2a3d 3bc2 a53d
00000310: 6011 7abd ab5b 8bbd 092a d83c 6376 893b
00000320: ea3d 9c3b c70b 873c b716 80bd 89fd b33d
00000330: 6519 afbc 1fed 99bd 4f00 323d 4889 b23d
00000340: 7c4f 3d3d e171 e63c 7176 7ebd c306 adbc
00000350: 16e3 85bd ed50 3b3d 6f18 5fbb c1e3 b43d
00000360: 31d2 1e3d a2aa a93c 3c74 90ba 192f 9b3d
00000370: 6e3d 95bd 31dc 50bc aff6 b7bd 61f2 99bc
00000380: f67d a1bd 2714 85bd d2fe 07bc 70bb 93bc
00000390: 2f2c 893d 92af bdbc c79f ad3d 0d4b 5d3c
000003a0: 8f3d 43bd f6cd b33d 3024 00bd d936 773d
000003b0: b664 5fbd f571 cfbc 583e 0b3d a6ca 443d
000003c0: 6b61 823d b9f9 ec3c 47d2 78bd 6eac 72bc
000003d0: e8ee 2f3d 30a0 8cbd 8701 d43b d1ae b7bd
000003e0: face 92bd 593f 27bd 6d5d 9d3d 9ef6 c4bc
000003f0: f9f1 103c 1516 a53d 4254 613c ecb3 303c
