advanced_improved_face_cnn_model.pth (torch, 980110 bytes, 26 tensors)

fc1.weight f4 [512, 128]
0	0xbd2f71f9	-0.042833302
1	0x3dafb340	0.08579111
2	0xbc5330ae	-0.012890024
3	0x3da48a43	0.08034184
4	0x3c2143f7	0.009842864
5	0xbd399b64	-0.045314208
6	0x3db2b240	0.08725405
7	0xbd89a933	-0.06721725
8	0xbdbc6afd	-0.09200094
9	0xbd0e4e0e	-0.034742408
10	0xbda14d6a	-0.07876094
11	0xbd8b5f52	-0.0680529
12	0xbdaf66cf	-0.08564531
13	0x3da6aacb	0.08138045
14	0xbd43e568	-0.0478262
15	0xbd0f03e6	-0.034915827
16	0xbcbc4bc8	-0.022985354
17	0xbd690268	-0.05688706
18	0x3b978a33	0.004624629
19	0xbd1a4c26	-0.037670277
20	0xbca45313	-0.020059144
21	0xbd037632	-0.03209514
22	0xbc9a43a2	-0.018831078
23	0x3cd38ce8	0.025824025
24	0xbda13341	-0.07871104
25	0x3d49684c	0.04917173
26	0xbca74399	-0.020417975
27	0xbd6cc821	-0.057808045
28	0x3d35a012	0.044342108
29	0x3c0b13ca	0.008488605
30	0xbd46e3a9	-0.048556957
31	0x3daafbb9	0.083487935
32	0xbdac2872	-0.08406152
33	0x3c882a00	0.01662159
34	0xbc714130	-0.014725015
35	0xbd2ccd9d	-0.042188276
36	0x3c8bd755	0.017070452
37	0x3d5f6384	0.054538265
38	0xbce345c6	-0.027743232
39	0x3d8c0a92	0.068379536
40	0xbd68ac61	-0.05680502
41	0xbc95c1b1	-0.018280836
42	0x3c54f7aa	0.012998501
43	0x3d10a61f	0.035314675
44	0x3ca5a613	0.020220792
45	0xbd8ebabd	-0.06969211
46	0xbc3380ff	-0.010956048
47	0xbb061434	-0.002045882
48	0xbd438f57	-0.04774412
49	0xbdacde57	-0.084408455
50	0x3cf63f9d	0.03005963
51	0x3dbe6a91	0.0929767
52	0x3d3446bf	0.04401278
53	0x3d64e647	0.055883672
54	0xbcc8c90b	-0.024509927
55	0x3c9eb68a	0.01937415
56	0xbdc24de8	-0.09487516
57	0xbd865832	-0.06559791
58	0x3cd2735e	0.025689777
59	0x3d8a1cfc	0.067438096
60	0x3d6df056	0.05809053
61	0xbd318957	-0.043343868
62	0x3d5d0013	0.05395515
63	0xbd802db1	-0.06258715
64	0x3b915c5d	0.0044360594
65	0x3d55b72a	0.052176632
66	0xbd673f3a	-0.056456782
67	0x3d940f58	0.07229489
68	0xbb680944	-0.0035405913
69	0x3cfe7218	0.031060264
70	0xbb96f21a	-0.0046064975
71	0xbd7b0401	-0.061283115
72	0xbd8e40b6	-0.069459364
73	0xbd9eb1ab	-0.07748731
74	0xbd0b5ad0	-0.034022152
75	0xbda3ce25	-0.07998303
76	0x3d7a7100	0.06114292
77	0xbd85b5bf	-0.06528806
78	0x3b92abf6	0.0044760657
79	0x3c92ea11	0.017933877
80	0x3d8afb8a	0.067862585
81	0x3bb7a25d	0.005604072
82	0xbd0a14cc	-0.03371124
83	0x3d8df8c0	0.06932211
84	0x3cec5b3b	0.028852096
85	0xbc7c1c35	-0.015387584
86	0xbcbdb43a	-0.023157228
87	0x3d45e8aa	0.04831759
88	0xbcf8903a	-0.03034221
89	0x3b354db6	0.0027664728
90	0x3d2938fd	0.041314114
91	0xbcbe9ab9	-0.023267137
92	0xbd9ea7f0	-0.07746875
93	0xbcb856d4	-0.02250234
94	0xbd7ce977	-0.061746087
95	0x3d197305	0.037463207
96	0x3d160831	0.036628906
97	0x3ce05846	0.027385842
98	0xbca243a3	-0.019807642
99	0xbd3a4f0e	-0.04548555
100	0xbca640d9	-0.020294594
101	0xbd8d95eb	-0.0691336
102	0x3c765c27	0.015036619
103	0xbd7ad45c	-0.061237678
104	0xbd82086c	-0.063492626
105	0xbd8904a1	-0.06690336
106	0x3da13315	0.07871071
107	0xbd820385	-0.063483275
108	0xbd954199	-0.072879024
109	0x3bf2b021	0.00740625
110	0x3be87a20	0.0070946366
111	0xbd2aa521	-0.041661385
112	0x3d7c8b0d	0.061656047
113	0xbcfc1d9c	-0.030775838
114	0x3dadc5eb	0.084850155
115	0xbd9ca8b5	-0.07649366
116	0x3d9f5ae3	0.07781007
117	0xbd91a8c7	-0.0711227
118	0x3dbbfdf9	0.09179301
119	0xbd5db243	-0.05412508
120	0x3d6442f8	0.05572793
121	0xbd3605a8	-0.044438988
122	0x3c5e62bb	0.013573344
123	0x3d5e773c	0.05431293
124	0x3cef03dd	0.029176647
125	0x3cb44d3f	0.02200949
126	0x3d215ac7	0.039393213
127	0x3d1f5e95	0.03890856
128	0xbc5f5b6d	-0.013632637
129	0xbdb92c7a	-0.09041686
130	0x3cabf6b4	0.02099166
131	0xbd67db41	-0.05660558
132	0x3d22654d	0.03964739
133	0x3c492bfd	0.012278554
134	0x3d8f48d5	0.069963135
135	0x3d57226d	0.052523065
136	0xbd9bdee3	-0.07610872
137	0xbdb7a276	-0.08966534
138	0xbd155e70	-0.036467016
139	0x3d284dbf	0.04108977
140	0x3cbc05f5	0.02295206
141	0xbd88564f	-0.06657087
142	0x3a73d932	0.0009302079
143	0x3d70ddc7	0.058805253
144	0x3c140b61	0.009035916
145	0xbda6fb62	-0.08153416
146	0x3d81aa26	0.06331281
147	0x3cdfd1f1	0.027321788
148	0x3b7c526c	0.0038501276
149	0xbb3d4b5e	-0.0028884034
150	0x3d04db2b	0.032435577
151	0xbd40af03	-0.047041904
152	0xbb9013c7	-0.004396889
153	0x3d6b679d	0.05747186
154	0xbd5ef7c6	-0.054435514
155	0xbbba4bde	-0.0056853136
156	0xbd94972f	-0.072553985
157	0xbdb18ec7	-0.08669811
158	0xbd9d9340	-0.07694101
159	0x3d84a384	0.06476501
160	0x3d962981	0.07332135
161	0x3b47d5fd	0.0030492537
162	0x3d25b877	0.040459123
163	0x3d912724	0.070875436
164	0xbc45394c	-0.012037586
165	0x3d70b281	0.058763985
166	0x3d72a7a0	0.05924189
167	0x3d3bedd9	0.045881126
168	0xbd09713b	-0.03355525
169	0xbd9e583f	-0.07731675
170	0x3d8d84d0	0.069100976
171	0xbca3cdd6	-0.019995611
172	0x3d3cfd9e	0.046140306
173	0x3d5af4ac	0.053455994
174	0x3d737f93	0.059447836
175	0xbdacb7b3	-0.08433475
176	0x3daea7cd	0.08528099
177	0xbd6d8a7d	-0.0579934
178	0x3d1a535a	0.037677146
179	0xbdb37521	-0.08762575
180	0x399381fe	0.00028134877
181	0x3d853117	0.06503504
182	0xbd63a686	-0.05557873
183	0x3da1579a	0.07878037
184	0x3c968985	0.018376121
185	0x3d899904	0.067186385
186	0xbd53bdb5	-0.05169459
187	0xbd439a6e	-0.047754698
188	0x3d7fbfb0	0.062438667
189	0x3dae1fe2	0.08502175
190	0x3c5dc0eb	0.013534765
191	0x3d2b8275	0.04187246
192	0x3db0a63c	0.08625457
193	0xbd781cf7	-0.060574498
194	0x3d1fd6c8	0.03902319
195	0xbd9f1173	-0.07767
196	0xbd534755	-0.0515817
197	0xbd9c2bbd	-0.0762553
198	0x3b830bf9	0.00399923
199	0x3d98d32d	0.074621536
200	0xba2b185b	-0.00065267616
201	0x3bdf3a3f	0.0068123634
202	0x3cac58a2	0.021038357
203	0x3cdf0258	0.027222797
204	0xbc9e195f	-0.019299207
205	0xbd3f1207	-0.04664805
206	0x3c2ce1a7	0.010551847
207	0x3db48a9c	0.088155
208	0xbd03b25c	-0.03215252
209	0x3da13903	0.07872202
210	0xbd4a3fb8	-0.049377173
211	0xbc309f76	-0.010780206
212	0xbd632f01	-0.05546475
213	0x3daf7787	0.0856772
214	0x3d1e698c	0.038674876
215	0x3d51518f	0.05110317
216	0x3d31d409	0.043415103
217	0x3c641458	0.013920866
218	0x3d97ec1a	0.0741808
219	0x3c82e9f1	0.015980693
220	0xbd328df9	-0.043592427
221	0x3bc439c8	0.0059883334
222	0xbd895d72	-0.067072764
223	0x3ccae651	0.024768027
224	0xbcf89515	-0.030344525
225	0x3d2244ed	0.039616514
226	0xbcc7a71b	-0.024371674
227	0xbcf737ef	-0.030178038
228	0xbd25e479	-0.04050109
229	0xbcf46d0d	-0.029837156
230	0x3d73d8e2	0.059533007
231	0x3c13a282	0.009010913
232	0x3c5a593c	0.013326939
233	0x3d702d6a	0.05863706
234	0xbd37ab6b	-0.04484121
235	0x3d8798ac	0.06620917
236	0xbd681adc	-0.05666624
237	0x3d29c01f	0.041442987
238	0xbd3a0c2f	-0.045421775
239	0x3d61717e	0.055039875
240	0xbd7b42af	-0.06134289
241	0xbd201509	-0.03908256
242	0xbd42ef1d	-0.047591317
243	0xbd124f3b	-0.03572009
244	0x3d1bd51c	0.038045034
245	0xbd8b0c9b	-0.06789514
246	0xbcb11eff	-0.021621225
247	0xbd96b3cb	-0.073585115
248	0x3bec0ede	0.0072039207
249	0xbd4c14cf	-0.049824532
250	0xbd9b2aa8	-0.075764954
251	0xbd165519	-0.03670225
252	0xbd959c0d	-0.07305155
253	0x3dad4b54	0.08461633
254	0xbd62d64e	-0.055380158
255	0xbdb76c5b	-0.08956214

fc1.bias f4 [512]
0	0xbc93c9ae	-0.018040504
1	0xbd318091	-0.0433355
2	0x3d06e492	0.032932825
3	0xbb957928	-0.004561562
4	0x3d445225	0.0479299
5	0x3c9b80da	0.01898234
6	0x3c0e054d	0.008668256
7	0xbcefc19d	-0.029267127
8	0x3caab2f6	0.020837288
9	0x3da3f487	0.08005624
10	0x3d0f3bfa	0.034969307
11	0x3da7524f	0.08169996
12	0xbd4d101f	-0.050064202
13	0x3d35c511	0.04437739
14	0x3b9f1c21	0.004855648
15	0xbd5aeb9c	-0.05344735
16	0xbd8476ae	-0.06467949
17	0x3c66fb58	0.014098011
18	0x3d8857ba	0.066573575
19	0xbb71249e	-0.0036795507
20	0xbd9368d7	-0.07197731
21	0x3d91b546	0.07114653
22	0x3daf9dbf	0.085750096
23	0x3d7e7295	0.062120993
24	0x3da70578	0.0815534
25	0x3db5d113	0.08877768
26	0xbdaf2bd8	-0.085532844
27	0x3b1600b5	0.0022888605
28	0xbd8d3751	-0.068953164
29	0xbca7ece7	-0.020498706
30	0x3d3a0630	0.045416057
31	0xbd172870	-0.0369038
32	0xbd3c08c7	-0.04590681
33	0x3d728a13	0.05921371
34	0xbd4054fe	-0.046956055
35	0x3cbeac37	0.023275478
36	0xbb32a6e6	-0.0027260124
37	0x3ca4c791	0.020114692
38	0xbccf7130	-0.025322527
39	0xbcf46265	-0.029832074
40	0xbdad81bf	-0.08472013
41	0xbcc91ca3	-0.024549788
42	0x3c95bff6	0.01828001
43	0xbc2638a2	-0.010145338
44	0x3da406ce	0.080091104
45	0x3d22c3cd	0.03973751
46	0x3d3f013f	0.046632048
47	0x3d72114c	0.059098527
48	0xbb5f2765	-0.003405058
49	0x3d82421d	0.06360266
50	0x3d89fbfa	0.06737514
51	0x3da623a5	0.081122674
52	0x3c7a85c4	0.015290681
53	0xbc73455e	-0.014848081
54	0xbcc75f6f	-0.024337498
55	0x3c0acf9b	0.008472349
56	0x3d2a76b6	0.041617118
57	0x3da6e971	0.08149994
58	0xbdb29ee0	-0.08721709
59	0x3c3bd506	0.011464363
60	0x3cbcf06c	0.02306386
61	0xbd9fc8ef	-0.07801997
62	0xbd0bdc28	-0.034145504
63	0x3d64ed2c	0.055890247
64	0x3cca0c74	0.024664141
65	0x3ca7b30c	0.020471118
66	0xbbf9723d	-0.007612495
67	0x3c9efba7	0.019407107
68	0x3d9b3f10	0.075803876
69	0xbcaa09e5	-0.020756671
70	0xbcf847ca	-0.03030767
71	0x3d0e65a6	0.03476491
72	0x3cba2f27	0.022727562
73	0x3d89b7de	0.06724523
74	0xbd70be7c	-0.05877541
75	0xbd262d0d	-0.040570308
76	0xbd95280b	-0.07283028
77	0xbd8f7309	-0.07004363
78	0xbcd9f779	-0.026607262
79	0xbb2949d4	-0.0025831359
80	0xbd7564e0	-0.059910655
81	0xbd6c80a1	-0.057739858
82	0x3c941fe1	0.018081607
83	0xba8950c3	-0.0010476339
84	0xbd33261b	-0.043737512
85	0xbd576ba8	-0.052592903
86	0xbd978501	-0.07398415
87	0x3c9a663f	0.018847583
88	0x3d53a09b	0.051666837
89	0xbd88559c	-0.06656954
90	0xbd43c7ee	-0.04779809
91	0xbc7a65e3	-0.015283081
92	0xbbe82fa7	-0.0070857587
93	0x3c38abfc	0.011271473
94	0xbcde0e3c	-0.027106397
95	0xbda65a75	-0.08122722
96	0x3d968775	0.07350055
97	0xbd053e8a	-0.032530345
98	0xbda71f7d	-0.08160303
99	0xbcb73c9d	-0.02236777
100	0xbd40918f	-0.047013815
101	0x3d3b747f	0.045765396
102	0x3d3dc6e2	0.046332248
103	0xbd27f704	-0.041007057
104	0xbd99372b	-0.074812256
105	0x3d9b6b5e	0.07588838
106	0x3d7328ee	0.059365205
107	0xbcfda56d	-0.03096267
108	0x3d8ad509	0.067789145
109	0x3d659f1d	0.056059945
110	0xbd90a35e	-0.0706241
111	0xbd4c8295	-0.04992922
112	0xbd35a6b9	-0.044348452
113	0x3d84fe0f	0.0649377
114	0x3d91530e	0.070959195
115	0x3d0419b8	0.03225109
116	0x3c920830	0.01782617
117	0x3c727bd1	0.014800028
118	0x39a1fb82	0.000308957
119	0x3da0868c	0.07838163
120	0x3d06d64c	0.032919213
121	0xbd802b9a	-0.06258316
122	0xbc8fa291	-0.017533572
123	0x3cab0a68	0.020878986
124	0x3da89628	0.08231765
125	0x3cbfafd3	0.02339927
126	0xbd11e870	-0.03562206
127	0xbbb0fd76	-0.0054013086
128	0xbd011736	-0.031516276
129	0xbdab4563	-0.08362844
130	0xbcf909ec	-0.030400239
131	0xbd355a2d	-0.04427545
132	0xbcc06111	-0.023483785
133	0xbcba7b30	-0.022763819
134	0xbd638a87	-0.05555203
135	0xbd9a149d	-0.07523463
136	0xbc2d3db9	-0.010573798
137	0xbdaebe0a	-0.08532341
138	0xbd519a46	-0.051172517
139	0xbd297204	-0.0413685
140	0x3d4e807c	0.0504155
141	0x3d9c52ba	0.07632966
142	0xbd8cc5fc	-0.068737
143	0x3d81c7be	0.06336926
144	0xbda44f82	-0.080229774
145	0x3d327675	0.04357
146	0x3d875237	0.06607478
147	0x3c9adfd2	0.018905554
148	0xbd9baf27	-0.07601767
149	0xbda4c7a7	-0.08045893
150	0xbd2032ad	-0.03911083
151	0xbd121cb4	-0.035671905
152	0x3da048ef	0.07826411
153	0x3da46d18	0.080286205
154	0xbc26ae13	-0.010173338
155	0xbd1ec9f6	-0.038766824
156	0x3d0e4ec4	0.034743086
157	0x3d394f91	0.045241896
158	0x3d497c21	0.049190644
159	0x3d51b3a4	0.05119671
160	0x3d315797	0.043296423
161	0x3da95a7b	0.08269211
162	0xbccbab7f	-0.02486205
163	0x3d614fa0	0.055007577
164	0x3d9c3487	0.07627206
165	0x3d9617ea	0.0732878
166	0x3db0d4c7	0.08634334
167	0xbd8214ce	-0.063516244
168	0x3d18897f	0.0372405
169	0x3da0b9df	0.07847952
170	0xbd30954e	-0.043111138
171	0xbd19b3f2	-0.037525125
172	0xbc37e140	-0.011223137
173	0xbd85ab05	-0.0652676
174	0x3d8341d8	0.06409043
175	0xbced1013	-0.028938329
176	0x3c8fc4df	0.01754993
177	0xbcdd13cd	-0.02698698
178	0x3d9fbc5e	0.077996
179	0x3d177131	0.036973182
180	0x3cdc9442	0.026926164
181	0xbdaee12d	-0.085390426
182	0xbc1369a7	-0.008997357
183	0xbce3a490	-0.02778843
184	0x3d74a38c	0.059726283
185	0x3ccad337	0.024758918
186	0xbd423663	-0.04741515
187	0x3d67e5f2	0.056615777
188	0x3d84c1d2	0.06482281
189	0x3d0ff15d	0.03514229
190	0x3cd3f7b4	0.02587495
191	0x3c30ee62	0.010799022
192	0xbd6b1b06	-0.05739882
193	0xbcc58c94	-0.024114884
194	0xbd25a2c6	-0.040438436
195	0x3cfde3c0	0.030992389
196	0xbc86b26e	-0.016442504
197	0x3d4f0db8	0.050550193
198	0xbd49d9e4	-0.049280062
199	0xbceb50d0	-0.028725058
200	0xbd39276f	-0.045203622
201	0xbccb6ed5	-0.024833122
202	0x3ca14343	0.019685393
203	0x3d93cf2b	0.072172485
204	0xbdabfbe2	-0.08397652
205	0xbd96d48b	-0.07364758
206	0x3d7c7db6	0.061643325
207	0x3d7f97e5	0.062400717
208	0x3c1fc6dd	0.009752003
209	0x3d0a8369	0.03381673
210	0x3d9a142a	0.07523377
211	0x3b9d5fd5	0.004802684
212	0x3d9f0482	0.07764532
213	0x3d24062e	0.040044956
214	0x3d330c54	0.04371293
215	0xbc1aa496	-0.009438654
216	0xbd8da32d	-0.06915889
217	0x3d972e8a	0.073819235
218	0xbd3c40ad	-0.045960117
219	0xbbe42a67	-0.0069630626
220	0x3d99a54c	0.07502231
221	0x3d88a062	0.066712156
222	0x3d90be21	0.07067514
223	0xbd8322f9	-0.06403155
224	0x3d326040	0.043548822
225	0xbcff7569	-0.031183915
226	0xbd4b2068	-0.049591452
227	0xbc3b7fbe	-0.01144403
228	0x3cf205de	0.029543813
229	0xbd958c80	-0.07302189
230	0xbd7c567b	-0.06160591
231	0xbb032055	-0.0020008285
232	0x3d9145cd	0.070933916
233	0x3c0c38e5	0.008558487
234	0xbd0eb9d7	-0.0348452
235	0x3d8c23a1	0.06842733
236	0xbc4fdc84	-0.012686852
237	0xbd2733a2	-0.040820725
238	0xbd8a3039	-0.06747479
239	0xbd74fb20	-0.059809804
240	0x3c694b7f	0.014239191
241	0xbbc29d6b	-0.005939176
242	0xbca19d3c	-0.019728296
243	0xbc4b58d9	-0.01241132
244	0xbd0489ca	-0.03235797
245	0x3d18f9f6	0.037347756
246	0xbc710ae7	-0.014712072
247	0x3c61ed9b	0.01378956
248	0x3d7be5c4	0.06149842
249	0x3d49dc50	0.049282372
250	0x3d746c47	0.059673574
251	0xbd035104	-0.032059684
252	0xbda933ec	-0.082618564
253	0xbda3a6dc	-0.0799081
254	0x3d835200	0.06412125
255	0x3d827aba	0.063710645

bn1.weight f4 [512]
0	0x3f80263f	1.0011672
1	0x3f80c9b3	1.0061554
2	0x3f804a20	1.0022621
3	0x3f7e0875	0.99231654
4	0x3f80c084	1.0058751
5	0x3f80d3f3	1.0064682
6	0x3f7ffbef	0.99993795
7	0x3f80ac5d	1.0052601
8	0x3f80027e	1.000076
9	0x3f800b15	1.0003382
10	0x3f80f738	1.0075445
11	0x3f805ef2	1.0028975
12	0x3f7fe598	0.9995971
13	0x3f805690	1.0026417
14	0x3f80265b	1.0011705
15	0x3f804722	1.0021708
16	0x3f7fcaa8	0.99918604
17	0x3f7fcec2	0.9992486
18	0x3f80c0a7	1.0058793
19	0x3f801ed1	1.0009404
20	0x3f805797	1.002673
21	0x3f7e4366	0.9932159
22	0x3f7f36cd	0.99692994
23	0x3f806364	1.0030332
24	0x3f802413	1.0011009
25	0x3f7f1769	0.99645096
26	0x3f807642	1.003609
27	0x3f7fea61	0.9996701
28	0x3f809f79	1.0048667
29	0x3f8134bc	1.0094218
30	0x3f803a12	1.0017722
31	0x3f7db906	0.9911045
32	0x3f8076c5	1.0036246
33	0x3f7e1b5a	0.99260485
34	0x3f7e838e	0.99419487
35	0x3f80afad	1.0053612
36	0x3f7d9076	0.99048555
37	0x3f7e43ef	0.9932241
38	0x3f7f5d8c	0.99752116
39	0x3f7f5ead	0.9975384
40	0x3f7f1d38	0.9965396
41	0x3f7f4f6f	0.9973058
42	0x3f812c1d	1.0091587
43	0x3f810440	1.0079422
44	0x3f809288	1.0044718
45	0x3f805abc	1.002769
46	0x3f7f0304	0.99613976
47	0x3f7d9495	0.99054843
48	0x3f819405	1.0123297
49	0x3f7cfd95	0.98824435
50	0x3f7f3ea2	0.99704945
51	0x3f7f477e	0.99718463
52	0x3f812556	1.0089519
53	0x3f804560	1.0021172
54	0x3f7e04db	0.9922616
55	0x3f800503	1.000153
56	0x3f80f791	1.0075551
57	0x3f80f4e5	1.0074736
58	0x3f804dc9	1.0023738
59	0x3f7ff8da	0.9998909
60	0x3f8161e3	1.0107998
61	0x3f7e29c5	0.99282485
62	0x3f802a4e	1.001291
63	0x3f8034c2	1.00161
64	0x3f80f856	1.0075786
65	0x3f7f44a9	0.9971414
66	0x3f7cfe44	0.9882548
67	0x3f7ff8a0	0.99988747
68	0x3f7fff78	0.9999919
69	0x3f7e85f7	0.99423164
70	0x3f807ea8	1.0038652
71	0x3f7ef756	0.99596155
72	0x3f7eb502	0.99494946
73	0x3f7f6f57	0.99779266
74	0x3f7cebc8	0.98797274
75	0x3f807edd	1.0038716
76	0x3f813f0f	1.0097369
77	0x3f7f0c53	0.9962818
78	0x3f804ef0	1.002409
79	0x3f829154	1.0200601
80	0x3f7f1ada	0.9965035
81	0x3f7e0cd5	0.9923833
82	0x3f7d5528	0.98958063
83	0x3f7fb1ff	0.99880975
84	0x3f7fcebf	0.99924845
85	0x3f80d50c	1.0065017
86	0x3f7e5b54	0.99358106
87	0x3f7eae6d	0.994849
88	0x3f80ef05	1.0072943
89	0x3f804c62	1.002331
90	0x3f811d92	1.0087149
91	0x3f806d3f	1.0033339
92	0x3f801f33	1.0009521
93	0x3f80b84e	1.0056245
94	0x3f7f0ba5	0.99627143
95	0x3f80ecfe	1.0072324
96	0x3f805058	1.0024519
97	0x3f809996	1.0046871
98	0x3f80dd1e	1.006748
99	0x3f7ef819	0.99597317
100	0x3f7ffeda	0.9999825
101	0x3f80a5ce	1.00506
102	0x3f80156c	1.0006537
103	0x3f7cfffa	0.9882809
104	0x3f7f1308	0.99638414
105	0x3f80179c	1.0007205
106	0x3f7f44ac	0.9971416
107	0x3f802668	1.0011721
108	0x3f7eacd1	0.99482447
109	0x3f7d8c9a	0.99042666
110	0x3f807115	1.003451
111	0x3f80bb10	1.0057087
112	0x3f7d6f7b	0.9899823
113	0x3f7ffd2c	0.99995685
114	0x3f7d518a	0.98952544
115	0x3f7f4e1e	0.9972857
116	0x3f80b04c	1.0053802
117	0x3f7e2d78	0.9928813
118	0x3f8042ea	1.002042
119	0x3f80c78f	1.00609
120	0x3f7f28bd	0.99671537
121	0x3f7fa35f	0.9985866
122	0x3f7e8127	0.9941582
123	0x3f80e33e	1.0069349
124	0x3f7ed6f8	0.99546766
125	0x3f7e2eb3	0.9929001
126	0x3f7e7e61	0.9941159
127	0x3f7d0aa5	0.9884437
128	0x3f7fc45b	0.9990899
129	0x3f7e1723	0.99254054
130	0x3f7d8272	0.9902717
131	0x3f7fedbe	0.9997214
132	0x3f7f87e5	0.99816734
133	0x3f801987	1.000779
134	0x3f803bbe	1.0018232
135	0x3f7f5b6d	0.9974888
136	0x3f7e8397	0.9941954
137	0x3f7fb0cd	0.9987915
138	0x3f815ab9	1.0105811
139	0x3f7eb364	0.9949248
140	0x3f7e876d	0.99425393
141	0x3f7edb38	0.9955325
142	0x3f8023d4	1.0010934
143	0x3f809b91	1.0047475
144	0x3f7f4d1a	0.9972702
145	0x3f80c2a5	1.0059401
146	0x3f81e1cd	1.0147034
147	0x3f7fa01f	0.998537
148	0x3f7eb5b3	0.99496
149	0x3f8012e2	1.0005763
150	0x3f806e40	1.0033646
151	0x3f7f66f4	0.9976647
152	0x3f7fa843	0.9986612
153	0x3f804a79	1.0022727
154	0x3f7ec5d4	0.9952061
155	0x3f7e0167	0.9922089
156	0x3f80d13a	1.0063851
157	0x3f80988e	1.0046556
158	0x3f80aae5	1.0052153
159	0x3f7f29f3	0.99673384
160	0x3f7e0bfa	0.99237025
161	0x3f7efdd8	0.99606085
162	0x3f7f555d	0.9973963
163	0x3f812a7d	1.0091091
164	0x3f8059cc	1.0027404
165	0x3f800f2d	1.0004631
166	0x3f8018d9	1.0007583
167	0x3f7e3d38	0.9931216
168	0x3f7e8d92	0.9943477
169	0x3f7fbb09	0.9989477
170	0x3f8077f4	1.0036607
171	0x3f800b7f	1.0003508
172	0x3f804d44	1.002358
173	0x3f800e52	1.000437
174	0x3f7f1eba	0.9965626
175	0x3f80d7ae	1.006582
176	0x3f7f181c	0.99646163
177	0x3f80edd1	1.0072576
178	0x3f80cbad	1.0062157
179	0x3f7ddd51	0.9916583
180	0x3f7ea98c	0.9947746
181	0x3f81162d	1.0084893
182	0x3f7faf21	0.998766
183	0x3f806a74	1.0032487
184	0x3f7fd4d4	0.99934125
185	0x3f8026df	1.0011863
186	0x3f80092d	1.00028
187	0x3f802d55	1.0013834
188	0x3f803cc3	1.0018543
189	0x3f7f42e1	0.99711424
190	0x3f802709	1.0011913
191	0x3f7fc493	0.99909323
192	0x3f803234	1.0015321
193	0x3f80df9a	1.0068238
194	0x3f7e686b	0.9937808
195	0x3f7ff29c	0.9997957
196	0x3f7ea870	0.99475765
197	0x3f7dfcf7	0.9921412
198	0x3f7f6750	0.9976702
199	0x3f80dd0e	1.006746
200	0x3f801029	1.0004932
201	0x3f7fdbcc	0.9994476
202	0x3f80bf2c	1.0058341
203	0x3f7fbf22	0.9990102
204	0x3f7da86f	0.99085134
205	0x3f805b03	1.0027775
206	0x3f7ebebf	0.99509805
207	0x3f7dc453	0.9912769
208	0x3f7ed0fd	0.9953764
209	0x3f80878f	1.0041369
210	0x3f8005ae	1.0001733
211	0x3f814c03	1.0101322
212	0x3f8003c9	1.0001155
213	0x3f7f6f8a	0.9977957
214	0x3f7fba7e	0.9989394
215	0x3f7ef5ad	0.9959362
216	0x3f806318	1.0030241
217	0x3f801d9a	1.0009034
218	0x3f8055f2	1.0026228
219	0x3f8067d0	1.0031681
220	0x3f7e5ae0	0.99357414
221	0x3f7e2d45	0.99287826
222	0x3f7fc5f0	0.99911404
223	0x3f803616	1.0016506
224	0x3f816037	1.0107487
225	0x3f7ffc7b	0.9999463
226	0x3f7f1699	0.99643856
227	0x3f7e1615	0.99252445
228	0x3f803e7f	1.0019072
229	0x3f812907	1.0090646
230	0x3f804086	1.0019691
231	0x3f7e183c	0.9925573
232	0x3f7f3a93	0.9969875
233	0x3f809509	1.0045482
234	0x3f7f1d50	0.996541
235	0x3f7e55d5	0.9934972
236	0x3f80a3e6	1.0050018
237	0x3f807c49	1.0037929
238	0x3f7e728c	0.99393535
239	0x3f8172b9	1.0113136
240	0x3f7e0478	0.9922557
241	0x3f7f305d	0.9968317
242	0x3f80f870	1.0075817
243	0x3f80253e	1.0011365
244	0x3f7f3166	0.9968475
245	0x3f7e4993	0.99331015
246	0x3f7f7473	0.9978706
247	0x3f7de11f	0.9917163
248	0x3f7ea745	0.99473983
249	0x3f802e5a	1.0014145
250	0x3f80778a	1.003648
251	0x3f802a55	1.0012919
252	0x3f808c4d	1.0042816
253	0x3f7df1d4	0.99197125
254	0x3f801bc2	1.0008471
255	0x3f802ef9	1.0014335

bn1.bias f4 [512]
0	0x3ab18380	0.0013543218
1	0x3b930b77	0.0044874507
2	0xbb990388	-0.0046696104
3	0xbc248f1b	-0.010043885
4	0x3b803675	0.003912742
5	0xbbad7425	-0.0052933865
6	0xbb095f6b	-0.0020961415
7	0x3bdc8432	0.006729626
8	0xbaef57b9	-0.0018260396
9	0xba5e1d6a	-0.0008473011
10	0x3bc85f8e	0.0061149066
11	0x3a65143f	0.00087386736
12	0xbb56e7ef	-0.0032792052
13	0x3aa92dbc	0.0012907307
14	0xba0958c3	-0.0005239362
15	0x3a8e0963	0.0010836538
16	0xbb95b510	-0.0045687035
17	0xbacfc6c9	-0.0015852089
18	0xbb7ed956	-0.0038886867
19	0xbb823ece	-0.003974772
20	0x3a50c7a9	0.0007964322
21	0xbb7dcace	-0.0038725617
22	0xbba15278	-0.004923161
23	0x39ee0bab	0.0004540359
24	0x3bd9f913	0.0066520064
25	0xbbafd445	-0.0053658807
26	0x3a097679	0.0005243789
27	0xbbf86bd0	-0.0075812116
28	0xbbc65f68	-0.006053854
29	0x3c0be2b6	0.008537939
30	0xbbc3d4e7	-0.0059763077
31	0xbc58191f	-0.013189583
32	0x3b92feb5	0.00448593
33	0xbbf29713	-0.0074032634
34	0xbc0f21c0	-0.008736074
35	0x3b42a83f	0.0029702333
36	0xbc1a836b	-0.009430747
37	0xbb964849	-0.004586254
38	0xbb85b54d	-0.0040804506
39	0x3a5f972e	0.00085293024
40	0xbbb4233b	-0.005497364
41	0xbb136894	-0.0022492753
42	0x3bbec4a7	0.0058217826
43	0x3c41b284	0.011822347
44	0x3c03dd58	0.008048378
45	0xbb0df926	-0.0021663397
46	0x3911d6b4	0.00013908261
47	0xbbdda68d	-0.006764239
48	0x3c13e735	0.009027292
49	0xbbc6b3bb	-0.006063906
50	0x3aa6caf2	0.0012725277
51	0xbb6997ec	-0.003564353
52	0x3be56707	0.007000807
53	0xb9ec7c83	-0.00045106196
54	0xbc27bf04	-0.010238413
55	0xbbe9ffc2	-0.0071410844
56	0x3c1b3a04	0.009474281
57	0x3b30c1f1	0.0026971067
58	0x3b7d97cf	0.0038695221
59	0x3b36b225	0.0027877179
60	0x3c2043bd	0.009781775
61	0xbc6986e3	-0.014253351
62	0x3ac2f002	0.0014872553
63	0x3a0bc800	0.00053322315
64	0x3b88857b	0.0041663027
65	0xbb621830	-0.003449928
66	0xbc59b0de	-0.013286797
67	0x3a4f6d3a	0.00079126994
68	0xbbd4f9f9	-0.0064995256
69	0xb8f195c4	-0.000115196715
70	0x3bac1200	0.005251169
71	0xbbb6fcd2	-0.0055843377
72	0xbbeeb5ee	-0.0072848713
73	0x39e905f7	0.00044445667
74	0xbc13c62a	-0.009019414
75	0x3b91e68f	0.0044525336
76	0x3b4c0ce8	0.0031135622
77	0xbb61dba5	-0.0034463194
78	0xbc25b92e	-0.010114951
79	0x3c8d1ab3	0.017224645
80	0xbb6ac5d4	-0.003582348
81	0xbc00fcd7	-0.007872782
82	0xbc16d952	-0.009207087
83	0xbb772f77	-0.00377175
84	0xbb29d171	-0.002591219
85	0x3beae8e8	0.007168878
86	0xbb639d68	-0.0034731273
87	0xbb328b6b	-0.0027243744
88	0x3bd40b79	0.006471094
89	0xbb29e414	-0.0025923299
90	0x3bc47779	0.0059956876
91	0x3c1b7f40	0.009490788
92	0x3b1b722d	0.0023719177
93	0x3b59306b	0.0033140432
94	0x3b4a939e	0.003091074
95	0x3bc34099	0.0059586284
96	0x3a814259	0.0009861692
97	0x3b289c3f	0.0025727896
98	0x3b919525	0.0044428282
99	0x3b44352f	0.0029938926
100	0xbb8649c5	-0.0040981495
101	0x3bec2df2	0.0072076255
102	0xbb54c31b	-0.0032464925
103	0xbc072003	-0.008247378
104	0x3a4101a0	0.0007362608
105	0x39750b9e	0.00023369348
106	0xbb6dfb83	-0.0036313243
107	0x3c2fe289	0.0107351625
108	0xbb9ee3fb	-0.0048489547
109	0xbb00363e	-0.001956358
110	0xbaca4ada	-0.0015433684
111	0x3a025f0f	0.0004973271
112	0xbbd583d0	-0.0065159574
113	0xbac88679	-0.0015298865
114	0xbc173ffe	-0.0092315655
115	0xbab61f76	-0.0013894874
116	0x3ab576ec	0.0013844646
117	0xbbae5d51	-0.005321183
118	0x3b259651	0.0025266598
119	0x3ba72042	0.005100281
120	0xbbfbe2c4	-0.0076869447
121	0x3bd9b3af	0.0066437344
122	0xbb8de937	-0.00433078
123	0x3bf30868	0.0074167736
124	0xbbd66849	-0.0065431935
125	0x3af71766	0.0018851578
126	0xbbfa790d	-0.007643825
127	0xbad2d6f7	-0.0016085793
128	0xbb912590	-0.0044295266
129	0xbb9f02c1	-0.004852623
130	0xbb473793	-0.0030398115
131	0xbb2d2937	-0.002642227
132	0xbaed7dcb	-0.0018119154
133	0xb96af788	-0.00022408192
134	0xbb9b5ffd	-0.0047416673
135	0xb9171921	-0.00014409843
136	0xbaebd1f5	-0.0017991649
137	0x395d008a	0.00021076403
138	0x3c1176ef	0.008878454
139	0xbc455a22	-0.012045415
140	0xbb63b827	-0.0034747215
141	0xbb93e8f7	-0.0045138556
142	0x3b847ffc	0.0040435772
143	0x3b7b4e9a	0.003834641
144	0xbc0ee5c1	-0.00872177
145	0x3acaddb8	0.0015477454
146	0x3c6a9bf7	0.0143194115
147	0xba754f8c	-0.00093578617
148	0xbb6ec4ef	-0.00364333
149	0xbbf79132	-0.0075551504
150	0x3ad878c8	0.0016515488
151	0x3ba76948	0.005108986
152	0xbaf8d349	-0.0018983866
153	0x3b0bc4a6	0.0021326928
154	0xbb877829	-0.0041341973
155	0xbbda3e22	-0.006660239
156	0x3b90f75e	0.0044240197
157	0xbad10a56	-0.0015948515
158	0x3ba5b56f	0.005057029
159	0xba69e459	-0.0008922271
160	0xbb53e237	-0.003233088
161	0xbb036891	-0.002005134
162	0xbabf82e6	-0.0014611154
163	0x3c11c54e	0.008897139
164	0x3aee2c14	0.0018171095
165	0xbbcfbcb5	-0.0063396343
166	0x3b93ab3c	0.0045064967
167	0xbbc111ac	-0.005891999
168	0xbc317c33	-0.010832834
169	0xbb3396c3	-0.0027403093
170	0x3ad8cff1	0.0016541464
171	0xba081468	-0.0005191029
172	0x39d03838	0.00039714738
173	0x395a0ca0	0.00020794803
174	0xbb415bad	-0.0029504106
175	0x3c4d6557	0.012536368
176	0xba864994	-0.0010245317
177	0x3b1d1273	0.0023967295
178	0x3bc03544	0.0058657248
179	0xbc3964ff	-0.011315583
180	0xbbea32ff	-0.0071471925
181	0x3c18575d	0.009298173
182	0x3b853b94	0.00406594
183	0x3bf24922	0.007393972
184	0xbbbfe3ff	-0.0058560367
185	0xbae22a61	-0.0017255062
186	0x39a1b2da	0.00030841568
187	0x3b4de51c	0.0031417077
188	0x39a9efe6	0.0003241293
189	0x3b29c83f	0.002590671
190	0xbb8c1683	-0.0042751445
191	0x3947841a	0.0001902733
192	0x3bede22e	0.0072596287
193	0x3b3b5f6c	0.0028590811
194	0xbc0bc0ae	-0.008529825
195	0x3ade2d24	0.0016950709
196	0xbb276d1c	-0.0025547212
197	0xbbab1558	-0.00522105
198	0xbb9f30d6	-0.0048581166
199	0x3b8fcdea	0.0043885605
200	0xbaed1486	-0.0018087782
201	0xbaa91c54	-0.0012902119
202	0x3c01821c	0.007904556
203	0xbb8fcde8	-0.0043885596
204	0xbbf60438	-0.007507827
205	0x39900489	0.000274692
206	0xbbdf65ec	-0.00681757
207	0xbba0dae2	-0.0049089054
208	0xbb684e77	-0.003544716
209	0x3bb9eb76	0.005673821
210	0x3b150c0a	0.0022742772
211	0x3bcd75cd	0.0062701465
212	0xb95befba	-0.00020974773
213	0xbb449e9e	-0.003000177
214	0x39fb1fb0	0.0004789806
215	0xbbf8e604	-0.0075957794
216	0x3b4628e7	0.0030236782
217	0x3b87da12	0.004145869
218	0x3b128978	0.002235977
219	0x3b3622e1	0.0027791786
220	0xbc015eaf	-0.0078961095
221	0xbbc0291c	-0.0058642756
222	0x3a6ca342	0.0009027013
223	0xbb58f4a3	-0.00331048
224	0x3c400feb	0.011722545
225	0xb9b62463	-0.00034740855
226	0xbbdebf96	-0.006797741
227	0xbbe73a67	-0.0070565226
228	0xbc111d8e	-0.008857144
229	0x3c31476f	0.010820254
230	0x3a3884c5	0.0007038827
231	0xbc0e19c3	-0.008673134
232	0xb9fe331c	-0.00048484735
233	0x3a959425	0.0011411948
234	0xbb9caad5	-0.004781107
235	0xbb31cd5c	-0.002713046
236	0x3b9d28be	0.0047961166
237	0xba60ef02	-0.0008580537
238	0xbbf5dba4	-0.00750299
239	0x3c78b4b6	0.015179804
240	0xbc0ba131	-0.008522318
241	0xbb61fa41	-0.0034481438
242	0xba0a4e1c	-0.00052759214
243	0xb9fbb56f	-0.0004800963
244	0xbbb580dd	-0.0055390433
245	0xbc184eba	-0.009296114
246	0xbac057e8	-0.0014674636
247	0xba9c6246	-0.0011931143
248	0xbb4eebb0	-0.0031573586
249	0x3c03485f	0.00801286
250	0x3a6d222f	0.0009045926
251	0x3b57548a	0.0032856786
252	0x3b8ab5f4	0.0042331163
253	0xbc14f198	-0.009090804
254	0x3afad48d	0.0019136831
255	0xbb900a09	-0.0043957275

bn1.running_mean f4 [512]
0	0xbecef62e	-0.40422195
1	0xbd41190d	-0.04714303
2	0x3eaa18ba	0.3322199
3	0xbd8bd2d5	-0.068273224
4	0x3f09bdc7	0.538052
5	0xbf2c1f22	-0.67235005
6	0x3e8d8f68	0.27648473
7	0xbda5caa4	-0.08095291
8	0x3c7ff166	0.015621519
9	0x3de62fbb	0.112395726
10	0x3ce81388	0.028329626
11	0x3cce1ee4	0.025161214
12	0x3d2f3839	0.042778227
13	0x3c35ac78	0.011088483
14	0x3e4ae947	0.1981555
15	0x3e18f337	0.14936529
16	0xbe1823f0	-0.14857459
17	0xbda18941	-0.07887507
18	0xbed3b1e0	-0.41346645
19	0x3dde7d3a	0.10863729
20	0xbe851eec	-0.26000154
21	0xbe81910e	-0.2530598
22	0x3e4b30d5	0.19842847
23	0x3e034dcf	0.1282265
24	0x3ec65b10	0.3874135
25	0x3e69def0	0.2283895
26	0xbe6d77ee	-0.23190281
27	0xbe9d5d6b	-0.30735335
28	0xbf03a1dc	-0.5141885
29	0x3d44efc7	0.048080232
30	0x3d33bd29	0.04388157
31	0xbd7292d7	-0.05922207
32	0x3e519312	0.20466259
33	0x3e534958	0.20633447
34	0x3da72e0d	0.0816308
35	0x3e967f9e	0.2939424
36	0xbd430a25	-0.047617096
37	0xbf09e98f	-0.5387201
38	0xbeb2800a	-0.3486331
39	0xbcd21162	-0.025643054
40	0xbe6d6162	-0.2318168
41	0x3eb82be3	0.35970983
42	0x3c9cf348	0.019158974
43	0xbe5eec41	-0.21769811
44	0xbe5f414e	-0.21802256
45	0x3d61fb25	0.05517115
46	0xbdf66865	-0.120316304
47	0xbe9e0661	-0.30864242
48	0xbd3b72c8	-0.04576376
49	0xbe0e7a44	-0.13913828
50	0xbe81bedc	-0.25340927
51	0x3d85f59f	0.06540989
52	0xbf02df71	-0.51122195
53	0xbe280d10	-0.16411233
54	0xbd8f788d	-0.07005415
55	0x3d1f72aa	0.03892771
56	0xbe0040a0	-0.12524652
57	0x3f4469fa	0.7672421
58	0x3f017f3c	0.5058477
59	0xbf3eed2e	-0.7458066
60	0xbdcfe987	-0.10151964
61	0xbe2b5a13	-0.1673358
62	0x3e89faa8	0.26949048
63	0x3e4764da	0.19472066
64	0x3d8609a7	0.0654481
65	0x3e040c18	0.12895238
66	0x3db3ca6c	0.08778843
67	0xbe9c8f53	-0.30578098
68	0x3cede4e8	0.029039815
69	0xbe8a9fce	-0.27075046
70	0xbd2b6c5c	-0.041851386
71	0x3c334ebd	0.010944066
72	0x3c7c759f	0.015408902
73	0x3e1a49ec	0.15067261
74	0xbd91c037	-0.0711674
75	0xbe038a27	-0.1284567
76	0x3b65cee3	0.003506594
77	0x3bee830a	0.0072788047
78	0xbe1391b2	-0.14411047
79	0x3c3832e7	0.011242605
80	0xbea070ff	-0.3133621
81	0x3ec1fbd2	0.37887436
82	0x3dba0642	0.09083225
83	0xbe5abf72	-0.21362093
84	0xbdb1a0f9	-0.08673281
85	0xbee7f8d0	-0.45307016
86	0xbd853be3	-0.06505563
87	0x3e39ffc6	0.18163976
88	0xbca7afa4	-0.020469494
89	0x3e94ba79	0.29048517
90	0xbdb6013a	-0.08886953
91	0x3e9e68c2	0.309393
92	0x3de0b49c	0.109719485
93	0xbe6e72bc	-0.23285955
94	0x3ce89f99	0.028396415
95	0xbef7241f	-0.48269746
96	0x3cfe1128	0.03101404
97	0xbe9f7956	-0.3114726
98	0xbeaa6cc2	-0.332861
99	0x3eddaa9e	0.43294233
100	0x3e0f9996	0.14023432
101	0x3ec94493	0.3931013
102	0x3e4a5cbe	0.19761941
103	0x3ee092ff	0.4386215
104	0x3dd12a48	0.10213143
105	0xbe2289b2	-0.15872839
106	0xbe3165b4	-0.17323953
107	0x3d3d2efe	0.046187393
108	0x3e267ddd	0.1625895
109	0x3e3bed3e	0.1835222
110	0xbd690b68	-0.056895643
111	0x3d5e9651	0.05434257
112	0xbe994719	-0.29937056
113	0xbe930733	-0.2871643
114	0x3eeab221	0.45839027
115	0xbe9d3ef2	-0.30712086
116	0x3e192c5d	0.1495833
117	0xbeae29aa	-0.34016162
118	0x3e4ca51e	0.19984862
119	0x3ad40718	0.001617643
120	0x3f18ba4b	0.5965926
121	0xbe53c1f0	-0.2067945
122	0xbead9e95	-0.3391005
123	0xbdb8d46a	-0.0902489
124	0x3c67b7d9	0.014142954
125	0x3e755bdc	0.23960823
126	0x3edd8317	0.43264076
127	0x3e04ed5b	0.12981169
128	0xbeb2f731	-0.34954217
129	0xbe1495d8	-0.14510286
130	0xbea7f79c	-0.32806098
131	0x3e39fade	0.18162104
132	0xbd3a4f84	-0.04548599
133	0x3d87ecfa	0.066369966
134	0xbe8fc60e	-0.2808079
135	0x3e9f9d0f	0.31174514
136	0x3f3c419a	0.735376
137	0xbd30c4bd	-0.043156374
138	0xbe652843	-0.2237864
139	0x3e942d17	0.2894065
140	0xbe9f9a71	-0.31172517
141	0xbef5e0dc	-0.48023117
142	0xbdb8d45c	-0.09024879
143	0xbd74ee1b	-0.059797388
144	0x3ea7629d	0.32692423
145	0xbee66bea	-0.45004207
146	0x3dd311e4	0.10306147
147	0x3e72cc8a	0.23710838
148	0x3e785ec4	0.242549
149	0xbd65cf2c	-0.056105778
150	0x3e64fbc7	0.2236167
151	0xbeb97447	-0.36221525
152	0xbc30a2f3	-0.010781038
153	0x3f336c28	0.7008691
154	0xbe1506bb	-0.14553349
155	0x3e69cbda	0.2283167
156	0xbda27ed6	-0.07934348
157	0xbe4a9587	-0.19783603
158	0xbdfc3b47	-0.12315994
159	0xbea7e22c	-0.32789743
160	0x3e9d1a81	0.30684283
161	0x3ebd9f1d	0.37035456
162	0xbe5e1bdf	-0.2169032
163	0xbc0f96fe	-0.008764027
164	0x3e9c0d1b	0.3047875
165	0x3e1e09d6	0.1543344
166	0x3e02b2d5	0.12763532
167	0xbe4b24ed	-0.19838305
168	0x3e8f376d	0.27971974
169	0xbd2e3b58	-0.042537063
170	0xbe2a50b7	-0.16632353
171	0x3cd24320	0.025666773
172	0xbe908e44	-0.2823354
173	0x3eb533be	0.3539104
174	0x3e9f4f2f	0.311151
175	0xbdaaafb1	-0.08334292
176	0x3ed9a994	0.4251219
177	0xbe598dae	-0.21245453
178	0xbde61046	-0.11233573
179	0x3ec77b01	0.38961032
180	0xbe256b91	-0.16154315
181	0xbe3156b7	-0.17318235
182	0xbe86552b	-0.26236853
183	0x3e783804	0.24240118
184	0x3d00ada1	0.031415585
185	0x3f1bdb54	0.60881543
186	0xbf331f61	-0.69969755
187	0xbe885548	-0.26627564
188	0xbe053644	-0.13008982
189	0x3d541e7d	0.05178689
190	0x3f62097d	0.8829573
191	0x3ec829a2	0.39094263
192	0xbdbe304c	-0.09286556
193	0xbd886a61	-0.06660915
194	0xbe800fa7	-0.25011942
195	0x3d98c007	0.07458501
196	0xbf09baa5	-0.5380042
197	0x3e3c2467	0.18373261
198	0xbd31a1bc	-0.043367133
199	0xbdf357eb	-0.118820034
200	0x3ef5425f	0.479022
201	0x3e685c21	0.22691394
202	0x3ecafe9e	0.39647382
203	0x3efdc6eb	0.49565825
204	0xbe22531e	-0.15852019
205	0xbf2d9ed1	-0.6782046
206	0xbe55333e	-0.20820329
207	0x3f3929b1	0.7232924
208	0x3ebd4b6f	0.36971614
209	0x3ec96f15	0.3934256
210	0x3b621bc6	0.0034501418
211	0x3f0e762e	0.5564908
212	0x3f224a44	0.6339457
213	0xbe40bb52	-0.18821457
214	0xbe5e1558	-0.2168783
215	0x3ea0f7fc	0.31439197
216	0xbcc43ac4	-0.023953803
217	0x3dd2459f	0.102671854
218	0xbd5024c4	-0.050816312
219	0xbb5bc1e6	-0.003353232
220	0x3eabefbc	0.3358134
221	0x3e3073fe	0.17231748
222	0x3d593b98	0.05303535
223	0xbdec24c7	-0.11530452
224	0x3eb5ebf9	0.35531595
225	0xbe637412	-0.22212246
226	0xbe743159	-0.2384695
227	0xbed1fe2e	-0.41014236
228	0x3d523b84	0.05132629
229	0x3dfde180	0.12396526
230	0x3e1ac7cb	0.15115277
231	0x3ec89bee	0.39181465
232	0x3e199025	0.14996393
233	0xbe7294da	-0.23689595
234	0x3d43c8ef	0.047799047
235	0x3dc5d74a	0.09660204
236	0x3e55c46c	0.2087571
237	0xbef1fae5	-0.4726173
238	0xbd6d14c1	-0.05788112
239	0xbee699c9	-0.45039204
240	0xbea1b394	-0.3158232
241	0x3e267cfc	0.16258615
242	0xbe13a228	-0.14417326
243	0xbf081e56	-0.5317129
244	0xbd93ec26	-0.07222776
245	0x3dd51ae2	0.10405518
246	0xbe7086fa	-0.2348899
247	0xbeef0428	-0.46682858
248	0x3e217baa	0.1576983
249	0x3e0fb504	0.14033896
250	0xbde3babf	-0.11119603
251	0xbf00e7b3	-0.50353545
252	0x3d988aab	0.07448324
253	0xbefb35b3	-0.49064407
254	0x3f233e77	0.6376719
255	0x3cd3846e	0.025819983

bn1.running_var f4 [512]
0	0x3c0de7e0	0.00866124
1	0x3c2af4e8	0.010434367
2	0x3c3e595d	0.011617986
3	0x3c060ef7	0.008182279
4	0x3c02702d	0.007961315
5	0x3bc44852	0.0059900666
6	0x3c01bf32	0.00791912
7	0x3c060081	0.008178831
8	0x3c224e61	0.009906382
9	0x3c057657	0.00814589
10	0x3c3e9793	0.011632818
11	0x3c0ab79d	0.008466628
12	0x3c1142eb	0.008866052
13	0x3c1fb74a	0.009748289
14	0x3bda221e	0.006656899
15	0x3c2aa80f	0.010416045
16	0x3c01cfdc	0.007923093
17	0x3bebe807	0.0071992907
18	0x3c01b886	0.007917529
19	0x3c1a8785	0.009431724
20	0x3c17c485	0.0092631625
21	0x3c3ecc2d	0.011645359
22	0x3c0fe24a	0.008781979
23	0x3c3bce2f	0.011462732
24	0x3c086f00	0.008327246
25	0x3c0f41b4	0.008743692
26	0x3c2aabc4	0.010416929
27	0x3bf4de0b	0.0074727586
28	0x3c3a965e	0.011388389
29	0x3c01e9c0	0.0079292655
30	0x3c70388a	0.014661917
31	0x3c35850f	0.011079087
32	0x3c1d0989	0.009584793
33	0x3bee0469	0.0072637093
34	0x3c45a4f5	0.012063255
35	0x3c303884	0.010755662
36	0x3c137ff9	0.009002679
37	0x3c02c2f9	0.007981055
38	0x3c228e6e	0.009921653
39	0x3c486187	0.012230284
40	0x3c8b7313	0.017022645
41	0x3c1b2d5b	0.009471263
42	0x3c19c70e	0.009385837
43	0x3c38a846	0.011270588
44	0x3c2f922b	0.0107160015
45	0x3bfce8a9	0.007718165
46	0x3c08760c	0.008328926
47	0x3c312990	0.010813132
48	0x3c72a79b	0.014810468
49	0x3c2cfcb7	0.010558299
50	0x3c0d52ec	0.008625727
51	0x3c0abd40	0.008467972
52	0x3bc6f946	0.006072196
53	0x3c0daa01	0.008646489
54	0x3c4d7e61	0.012542338
55	0x3be4a257	0.00697736
56	0x3c211557	0.009831748
57	0x3c7bdfd8	0.015373193
58	0x3c2ad9f8	0.010427944
59	0x3bf7eba9	0.0075659347
60	0x3c2f11b6	0.010685375
61	0x3c48bb46	0.012251681
62	0x3c7ad479	0.0153094465
63	0x3c46e007	0.012138373
64	0x3c14fd07	0.00909353
65	0x3c1fb818	0.009748481
66	0x3c4e2afd	0.012583491
67	0x3c807f7b	0.015685787
68	0x3c22e71c	0.009942796
69	0x3bfed9db	0.0077774352
70	0x3c011071	0.007877455
71	0x3c840321	0.016114773
72	0x3c2ae360	0.010430187
73	0x3c213a67	0.009840584
74	0x3c67c37f	0.014145731
75	0x3c85295f	0.016255079
76	0x3bf8ac42	0.007588894
77	0x3c1aa6f0	0.009439215
78	0x3c00c0cd	0.007858467
79	0x3c2a2eda	0.010387147
80	0x3c26504b	0.010150979
81	0x3c05970f	0.008153691
82	0x3c194418	0.009354614
83	0x3c438496	0.011933466
84	0x3c0f14e7	0.008733011
85	0x3c0db2a6	0.00864855
86	0x3c22ba96	0.009932181
87	0x3c62a192	0.013832467
88	0x3c4429a0	0.011972815
89	0x3c5d46a9	0.013505616
90	0x3c6bd45c	0.014393892
91	0x3c171b63	0.009222838
92	0x3bc3334e	0.0059570437
93	0x3c2bdcef	0.010489686
94	0x3c4dd554	0.012563068
95	0x3c5d430c	0.013504755
96	0x3c2fdd21	0.010733874
97	0x3c45c8db	0.012071813
98	0x3c408b73	0.011751997
99	0x3bdf6f45	0.0068186843
100	0x3bdf4eda	0.0068148198
101	0x3c8ab356	0.016931217
102	0x3c0c115a	0.008549059
103	0x3c15f2a3	0.009152087
104	0x3c214ddf	0.009845226
105	0x3c5fbb3a	0.013655478
106	0x3c2cd7c9	0.010549494
107	0x3c4e8f93	0.012607473
108	0x3c3f9b0d	0.011694682
109	0x3c188317	0.009308598
110	0x3bf85876	0.0075789047
111	0x3c4d614d	0.012535405
112	0x3c00a78c	0.007852446
113	0x3c0fcf1b	0.008777405
114	0x3c71bf00	0.014755011
115	0x3bf843b2	0.0075764293
116	0x3c4a321e	0.01234105
117	0x3c1d3a8d	0.009596479
118	0x3c1eada2	0.009684952
119	0x3c3b9271	0.011448489
120	0x3c176e79	0.009242647
121	0x3c3063a8	0.010765947
122	0x3bdd6298	0.006756138
123	0x3c131741	0.008977712
124	0x3c474436	0.012162259
125	0x3c07d7de	0.008291213
126	0x3c1d3d69	0.009597161
127	0x3c2f3fea	0.010696391
128	0x3c50f247	0.012753076
129	0x3c408b56	0.01175197
130	0x3bf252a1	0.007395104
131	0x3c178eb7	0.009250334
132	0x3c00ff00	0.007873297
133	0x3c6dd3a4	0.014515791
134	0x3c112ee4	0.008861277
135	0x3c021892	0.007940428
136	0x3c54324d	0.012951446
137	0x3bf8e6bf	0.0075958665
138	0x3c455b24	0.012045655
139	0x3c0d7e10	0.008636013
140	0x3c7911d1	0.015202002
141	0x3c62dac1	0.0138461
142	0x3c30a166	0.010780668
143	0x3c49dfab	0.012321393
144	0x3c2b7bb1	0.010466502
145	0x3c3f2630	0.011666819
146	0x3c0fb154	0.008770306
147	0x3c24edfb	0.010066505
148	0x3c2c5e7d	0.010520575
149	0x3c4a5035	0.012348224
150	0x3c09fb16	0.00842168
151	0x3c30187c	0.010748025
152	0x3c6e8850	0.014558867
153	0x3c0fd9e2	0.008779975
154	0x3c04f875	0.008115877
155	0x3bdb6728	0.006695647
156	0x3c523ec9	0.012832352
157	0x3c3d139f	0.011540323
158	0x3bdf5112	0.0068150843
159	0x3c387abb	0.01125973
160	0x3bfbec0e	0.007688052
161	0x3c7cbe04	0.015426163
162	0x3c35132c	0.011051934
163	0x3c5a34b6	0.013318231
164	0x3c0ab362	0.00846562
165	0x3c20c388	0.009812243
166	0x3bf5273d	0.007481484
167	0x3c28515f	0.010273307
168	0x3bd317ca	0.006442045
169	0x3c06c9f0	0.008226857
170	0x3c172293	0.009224552
171	0x3c162123	0.009163174
172	0x3bed9a29	0.0072510433
173	0x3c1573df	0.009121864
174	0x3bf4328c	0.0074523147
175	0x3c7c5b1e	0.015402583
176	0x3c1405d3	0.009034592
177	0x3c29d685	0.010366087
178	0x3c2e923e	0.010654984
179	0x3c7692db	0.0150496615
180	0x3c007b9a	0.007841969
181	0x3c17986e	0.009252651
182	0x3c0f7bd4	0.00875755
183	0x3c41dc3f	0.011832296
184	0x3bf7ada9	0.0075585437
185	0x3bf94a63	0.0076077445
186	0x3bcb246e	0.006199411
187	0x3c29f560	0.010373443
188	0x3c172f07	0.009227521
189	0x3bd375cc	0.0064532515
190	0x3c1e49b3	0.009661126
191	0x3c2ead3a	0.010661418
192	0x3c16d62e	0.009206338
193	0x3c187bbe	0.009306846
194	0x3c3e41f7	0.011612407
195	0x3c4d23d3	0.012520748
196	0x3bfaa24b	0.0076487414
197	0x3bbf6cbf	0.005841821
198	0x3c03845b	0.0080271615
199	0x3c6ddee7	0.014518476
200	0x3c397d1e	0.011321334
201	0x3c08ab76	0.008341661
202	0x3c2fd30e	0.010731472
203	0x3c43a2bd	0.011940655
204	0x3be5f1a7	0.0070173326
205	0x3cd47733	0.025935745
206	0x3bddb09a	0.0067654373
207	0x3c3ab749	0.011396238
208	0x3c1246c8	0.008928008
209	0x3c067e8e	0.008208884
210	0x3c2ff29f	0.010738998
211	0x3c01e8a2	0.007928999
212	0x3c01d9ee	0.007925494
213	0x3c071282	0.008244159
214	0x3c4fd906	0.01268602
215	0x3c526c38	0.012843184
216	0x3bdb2e63	0.0066888793
217	0x3be50b3a	0.0069898637
218	0x3c040e18	0.008060001
219	0x3c3ec740	0.011644185
220	0x3c621b8b	0.013800512
221	0x3c290e04	0.010318283
222	0x3c1ba17a	0.009498948
223	0x3c3da66b	0.011575322
224	0x3be3cfad	0.006952247
225	0x3cbe9782	0.023265604
226	0x3c18adab	0.009318749
227	0x3c0e36fb	0.008680101
228	0x3c43470d	0.011918795
229	0x3c2879b6	0.010282924
230	0x3ca16592	0.019701753
231	0x3c04c495	0.008103509
232	0x3c0ef1f9	0.008724683
233	0x3c3f40cf	0.011673166
234	0x3c17acf1	0.009257541
235	0x3bcd69ef	0.006268732
236	0x3c2c184e	0.010503842
237	0x3c9b2b03	0.018941408
238	0x3c48d8e2	0.01225874
239	0x3c6e2ed9	0.014537537
240	0x3bf99231	0.0076163043
241	0x3c5795a9	0.01315824
242	0x3c29a28c	0.010353696
243	0x3c40e7d8	0.011774026
244	0x3c0f58fe	0.008749245
245	0x3c6dc756	0.014512857
246	0x3c067d79	0.008208626
247	0x3bfc1771	0.007693224
248	0x3c1dfed4	0.009643275
249	0x3c104a99	0.008806848
250	0x3c01725a	0.007900799
251	0x3bd96187	0.0066339406
252	0x3c1bccfb	0.00950932
253	0x3c1550b4	0.009113479
254	0x3c014111	0.007889048
255	0x3c2ef42a	0.01067833

fc2.weight f4 [256, 512]
0	0xbd3b6d08	-0.045758277
1	0x3c393250	0.011303499
2	0x3c8d263d	0.017230147
3	0x3cb31de1	0.021864833
4	0xbd024f18	-0.03181371
5	0xbd1725a0	-0.036901116
6	0x3c89487f	0.016758202
7	0xbaa9ae84	-0.0012945686
8	0xbbd3710f	-0.0064526866
9	0xbce6877a	-0.028140772
10	0x3cfaa5d0	0.030596644
11	0x3b4e4c7e	0.0031478698
12	0xbc9c54a8	-0.019083336
13	0xbca56faf	-0.020194856
14	0xbb76541c	-0.0037586754
15	0xbbb62611	-0.005558737
16	0xbce05a1a	-0.027386714
17	0xbcccdd87	-0.025007976
18	0xbcc1cf2f	-0.023658363
19	0x3a16b90d	0.00057496206
20	0xbc567afc	-0.013090845
21	0xbc7dc667	-0.015489197
22	0xbb2e4b44	-0.0026595155
23	0x3d0676b1	0.032828037
24	0x3c193b54	0.009352524
25	0x3b9a0dca	0.004701351
26	0x3aec15f7	0.0018011917
27	0x3c287868	0.010282613
28	0x3cd5b0ee	0.026085343
29	0x3ce5e0e1	0.028061332
30	0xbd085404	-0.03328325
31	0x3ca29fdb	0.019851616
32	0x399264cf	0.00027922398
33	0x3d12e752	0.035865135
34	0xbc97f07e	-0.018547293
35	0xbc88235d	-0.016618425
36	0x3d4abdfa	0.049497582
37	0x3bb30a76	0.0054638935
38	0x3b9f1a32	0.0048554176
39	0x3cc02130	0.023453325
40	0xbc65a2f5	-0.014015903
41	0x3c69af3b	0.01426297
42	0xbc3b1cac	-0.01142041
43	0xbd1be881	-0.03806353
44	0x3d17fb6a	0.037105
45	0xbd1a2e8e	-0.037642054
46	0x3bcc9d1a	0.006244314
47	0xbca2d733	-0.019878006
48	0xbd1b181d	-0.037864793
49	0x3cae9f10	0.021316081
50	0xbcee9070	-0.029121608
51	0x3bbbe965	0.00573461
52	0x3cb24aad	0.021764124
53	0xbca00492	-0.01953343
54	0xbca7fb8b	-0.020505687
55	0xbc96c0a5	-0.018402407
56	0x3d231bea	0.039821543
57	0x3c5fe86e	0.013666255
58	0x3ca6438c	0.02029588
59	0x3c1e514d	0.009662938
60	0x3b952bef	0.0045523564
61	0x3c2025de	0.009774653
62	0x3cb4f852	0.022091065
63	0x3d0a0d4c	0.033704087
64	0xbd159910	-0.036522925
65	0xbcc96309	-0.024583356
66	0xbccdcc48	-0.025121823
67	0xbd04ef85	-0.032454986
68	0x3c5101b2	0.012756752
69	0x3cb0e9ec	0.021595918
70	0xbc73f6c9	-0.014890381
71	0x3ca40437	0.020021541
72	0x3cf9c0e4	0.030487485
73	0xbb14a59a	-0.0022681714
74	0xbb8a8e45	-0.0042283856
75	0x3c9ab238	0.01888381
76	0xbcba27e4	-0.0227241
77	0xbc8436de	-0.016139444
78	0x3d30dded	0.043180395
79	0xbd012dbe	-0.031537764
80	0xbc437e77	-0.011932007
81	0x3b9e5382	0.0048317323
82	0xbc5c09d2	-0.013430076
83	0xbd405de7	-0.046964552
84	0xbcb05f9b	-0.021529963
85	0xbd081c6a	-0.033230223
86	0x3cf8b5db	0.030360153
87	0xbcbc1f30	-0.02296409
88	0xbc5d2729	-0.013498106
89	0x3c06f756	0.00823768
90	0xbcf5f903	-0.030025965
91	0x3cbe4df5	0.023230532
92	0xbd416300	-0.047213554
93	0xbcfad39e	-0.030618485
94	0x3cacd592	0.021097932
95	0x3ceb2578	0.02870439
96	0xbc175c8a	-0.009238372
97	0x3d4e5dc1	0.05038238
98	0xbcd947f7	-0.026523573
99	0x3c886f75	0.01665471
100	0x3c84f302	0.016229156
101	0x3cc89a46	0.024487626
102	0x3d1feb4a	0.03904275
103	0xbc45527d	-0.0120435925
104	0xbcba7631	-0.022761436
105	0x3d0acdb3	0.033887576
106	0x3d2824f2	0.04105086
107	0x3d40d23d	0.0470755
108	0x3d028dd7	0.03187355
109	0x3c9f077f	0.019412754
110	0x3cc71e79	0.024306523
111	0x3c165290	0.009174958
112	0xbb22bc62	-0.0024831523
113	0xbd231b84	-0.039821163
114	0xbc0c235f	-0.008553355
115	0xbcf0dabd	-0.029401178
116	0xbcea8c0e	-0.028631236
117	0x3a0b9282	0.00053242606
118	0x3c9d5457	0.019205255
119	0xbabf41f0	-0.0014591794
120	0x3d2f24a4	0.042759553
121	0x3b01f149	0.0019827655
122	0x3bc3d7e6	0.005976665
123	0xbc1de909	-0.009638079
124	0xbcb743c2	-0.022371177
125	0xbd152806	-0.036415122
126	0xbc659ce0	-0.014014453
127	0xbcb9085a	-0.02258699
128	0x3a0c4ef3	0.00053523405
129	0x3d0be2b6	0.034151755
130	0xbc9156d2	-0.017741594
131	0xbcb23427	-0.021753384
132	0x3c8cfc8d	0.01721027
133	0xbcd788e5	-0.026310394
134	0xbce6683c	-0.028125875
135	0x3ce58f5e	0.028022464
136	0xbcd6ae25	-0.026206085
137	0xbcea94c8	-0.028635398
138	0xbb1a2a15	-0.0023523618
139	0x3cb09204	0.021554
140	0xbd4eb4f6	-0.050465547
141	0xbc33d4b2	-0.0109760035
142	0x3cddac0c	0.027059577
143	0x3bd35453	0.006449261
144	0x3d1fafc9	0.038986
145	0x3cbcc04c	0.023040913
146	0x3c586aa2	0.013209017
147	0xbb657d36	-0.0035017258
148	0x3ca32f28	0.019919947
149	0x3cafbea2	0.021453205
150	0x3cfb4216	0.03067116
151	0xbc63e3d0	-0.013909295
152	0xbcf0685e	-0.029346641
153	0xbb14d184	-0.002270789
154	0xb9cf4089	-0.000395302
155	0x3c2e6ab5	0.010645558
156	0x3cbfae5e	0.023398574
157	0xbcfbf6b2	-0.030757282
158	0x3d0349af	0.032052692
159	0x3cc6ebd3	0.024282372
160	0x3cdee773	0.027209973
161	0x3c58f4f2	0.013241993
162	0x3c895bf7	0.016767485
163	0x3cbb4722	0.022861067
164	0x3d1f2463	0.03885306
165	0x3d04fb65	0.03246631
166	0xbb7c9df7	-0.0038546303
167	0xbcc532de	-0.024072107
168	0xbce7321a	-0.028222132
169	0xbcdc7e31	-0.026915642
170	0x3c453a77	0.012037865
171	0xbcea5166	-0.028603267
172	0xbcec97f4	-0.02888105
173	0xbaa8bdb1	-0.0012873915
174	0x3ba703c6	0.0050968854
175	0xbd24421c	-0.04010211
176	0x3d12af6f	0.035811838
177	0xbd0b4ef6	-0.03401085
178	0x3ca1900b	0.019722005
179	0x3cfbdf9b	0.030746272
180	0x3d12d1a5	0.035844464
181	0xbd209b1d	-0.039210428
182	0x3c7bdc93	0.015372413
183	0xbb8bd5dc	-0.0042674374
184	0x3d2e0311	0.042483393
185	0x3c87c3f7	0.016572936
186	0xbc1cb909	-0.0095656
187	0x3c8d4472	0.017244551
188	0xbd2d63f6	-0.04233166
189	0x3c476f15	0.01217248
190	0xbcac1d14	-0.02100996
191	0x3c262770	0.010141239
192	0x3c382f4a	0.011241743
193	0x3c7daaa4	0.015482578
194	0xbc663f5d	-0.014053193
195	0xbd39275d	-0.045203555
196	0xbc8a66d0	-0.016894728
197	0x3d13ed47	0.036114957
198	0x3d087534	0.0333149
199	0x3d2fc69f	0.04291403
200	0xbcc65f69	-0.024215417
201	0x3cea5224	0.02860362
202	0xbcc0fd7b	-0.023558369
203	0xbc82463d	-0.015902633
204	0xbc97b3d9	-0.018518375
205	0x3cf79ef4	0.030227162
206	0xbc27b532	-0.010236071
207	0xbd224904	-0.039620414
208	0xbcea5353	-0.028604185
209	0xb9a97d05	-0.0003232734
210	0xbc5e54ad	-0.013569993
211	0x3bec892c	0.0072185006
212	0x3d13afad	0.03605621
213	0xba5a3616	-0.00083240995
214	0x3cc2a1d6	0.02375881
215	0xbafb083c	-0.0019152234
216	0xbcc32369	-0.023820596
217	0xbc5fad7d	-0.013652203
218	0x3c3b8c28	0.01144699
219	0xbd048700	-0.03235531
220	0x3bd05570	0.006357841
221	0x3c9f1eb4	0.01942382
222	0xbd14856c	-0.036260054
223	0x3c2c6104	0.010521177
224	0xbc1040a6	-0.008804476
225	0x3cac58ef	0.0210385
226	0x3ba47a7c	0.005019484
227	0x3d0e3a96	0.03472384
228	0x3bded1e3	0.006799923
229	0x3d06b335	0.03288575
230	0xbcb3c36e	-0.021943774
231	0xbcef6f20	-0.029227793
232	0x3be0c8fe	0.0068598976
233	0xbbd20af7	-0.0064099985
234	0xbc8a55ad	-0.016886557
235	0xbc6a7d40	-0.0143120885
236	0x3cbbc310	0.022920161
237	0x3cf67137	0.030083282
238	0x3cbd7adb	0.023129871
239	0x3d28f431	0.041248504
240	0xbc108b82	-0.008822324
241	0x3cbe973b	0.023265472
242	0xbd222d0a	-0.039593734
243	0xbbccfd8d	-0.0062558115
244	0x3c2d2ee5	0.010570263
245	0x3d1e1383	0.038592827
246	0x3c6b96bd	0.0143792005
247	0xbcfe583b	-0.031047931
248	0x3bfb8d85	0.0076767826
249	0x3ca13653	0.019679224
250	0x3c828908	0.015934482
251	0xbd2c6818	-0.04209146
252	0x3a9f9d4d	0.0012177617
253	0x3d0eca0b	0.034860652
254	0x3c447ddc	0.011992898
255	0xbd4b6f42	-0.04966665
