best_simplified_face_cnn_model.pth (torch, 102574 bytes, 6 tensors)

fc1.weight f4 [128, 128]
-0.039303664 0.041416734 0.065265074 -0.079164654 -0.08643586 0.035877477 -0.03220393 0.0697534
-0.036831334 -0.004667323 -0.058631767 -0.06313572 0.06928147 0.072091475 -0.07022622 0.032732736
-0.069881536 0.077322565 0.012728183 -0.048462056 -0.025096212 -0.030055612 -0.05180324 0.05973054
0.0014364994 -0.022671338 0.0860513 -0.08868507 0.023385655 -0.026907431 0.031186994 0.057634313
-0.008598823 -0.040721018 0.022805821 -0.008845761 0.07406019 -0.052464426 0.06846829 0.08178014
-0.06062964 0.056189228 -0.022895193 -0.069072574 0.029459085 -0.06964822 -0.07593237 -0.03781133
0.08640515 0.058528204 0.024396565 0.012695481 -0.06980757 0.083514 0.06881534 -0.005670864
-0.060891923 0.047277078 0.03992192 0.08813518 -0.0076893354 0.035532888 -0.05535034 -0.037553597
0.07697229 -0.046855208 -0.06402528 0.03625475 -0.03010187 -0.04555542 0.0742625 0.020286087
-0.07222605 0.050535385 0.07471916 -0.011623781 -0.04430926 0.048095986 -0.059166007 0.04981916
-0.07357629 -0.06660386 0.032797698 -0.028864086 -0.051032353 -0.039158158 0.010781262 -0.032782964
-0.0012537339 0.03654989 0.038689177 0.07747428 -0.040776517 -0.06880334 0.02913769 -0.040170293
0.040930364 -0.07993003 -0.0478235 0.028447649 0.014019031 -0.07651487 0.015543747 -0.010786141
0.06891043 0.05057228 -0.023396138 0.033644624 -0.080919705 -0.027173419 -0.017507996 0.060795654
-0.008377922 0.040138617 -0.0023537236 -0.08330475 0.075055405 -0.037018042 0.05420238 0.012998435
0.021278862 -0.053591665 0.05073284 0.06287816 -0.004919274 0.015496414 0.04351538 0.08070263
0.049140576 0.053127088 -0.0044177603 0.0726712 -0.04238404 -0.08152651 0.061442494 0.04173175
-0.036400933 0.06961664 0.03654003 -0.0047584176 0.037770543 0.032294296 -0.052058894 0.010808394
0.043981485 -0.014289854 -0.066614404 -0.0076417304 -0.025706962 0.002577664 -0.062236205 -0.042693816
0.07670818 0.028982285 -0.027690377 0.0003193334 0.004669953 -0.06441179 0.021610279 0.077397406
0.012360558 0.0069523654 -0.03862894 -0.034603167 0.05036457 -0.06406269 0.049375795 -0.06831095
-0.062419113 -0.057471346 -0.027670959 -0.0075210202 0.074041754 -0.012242412 -0.009263133 -0.07630633
-0.053672146 0.045630652 0.06368837 0.08022004 0.06679442 -0.024720224 0.08224061 0.024108907
0.08713163 -0.018411608 0.045427024 0.036486346 0.05275019 -0.006488302 -0.048935477 -0.06565504
-0.04752211 0.007710893 -0.032548256 -0.04230273 -0.034497686 -0.02348444 -0.04575339 -0.049228366
0.057402823 0.02414266 -0.042096194 -0.015999388 0.03410298 0.063240334 -0.074571624 0.033258587
0.020805687 0.014759458 0.010598477 -0.00040767092 0.044060055 0.004220381 -0.024554495 0.009196267
0.010897083 0.011175881 -0.05247392 0.07000893 -0.012485011 -0.010368902 -0.06647091 -0.010658291
-0.05025755 -0.024331145 0.074370556 -0.0627825 -0.028234595 0.038024474 0.032627694 0.024740746
0.0055009 -0.027250228 -0.036904693 0.06896766 0.08357979 -0.050158236 0.04799253 0.059857067
0.0100030685 0.055131674 0.008688174 -0.02914315 -0.038951945 0.046551935 -0.025247512 0.05777567
0.023331394 -0.04313275 0.015910704 0.06806951 -0.056985658 -0.08218422 -0.026765306 -0.06781688
00000000: e1fc 20bd 98a4 293d b2a9 853d 1421 a2bd
00000010: 4905 b1bd 43f4 123d 45e8 03bd dfda 8e3d
00000020: 74dc 16bd 58f0 98bb dd27 70bd 4d4d 81bd
00000030: 71e3 8d3d b2a4 933d c4d2 8fbd c312 063d
00000040: 0d1e 8fbd 4b5b 9e3d de89 503c 2680 46bd
00000050: 9296 cdbc 3037 f6bc a22f 54bd 03a8 743d
00000060: ec48 bc3a 3eb9 b9bc aa3b b03d 85a0 b5bd
00000070: 4693 bf3c f96c dcbc de7b ff3c f511 6c3d
00000080: 14e2 0cbc 15cb 26bd 46d3 ba3c d0ed 10bc
00000090: deac 973d f0e4 56bd 1a39 8c3d 597c a73d
000000a0: c956 78bd ad26 663d b38e bbbc ec75 8dbd
000000b0: 2e54 f13c baa3 8ebd 6e82 9bbd 0ee0 1abd
000000c0: 2ff5 b03d 45bb 6f3d 4edb c73c b500 503c
000000d0: 45f7 8ebd 6309 ab3d 0fef 8c3d a8d2 b9bb
000000e0: cf69 79bd 9ca5 413d 2b85 233d 3880 b43d
000000f0: d2f6 fbbb ef8a 113d 0ab7 62bd cdd1 19bd
00000100: a6a3 9d3d 3feb 3fbd b01f 83bd dc7f 143d
00000110: 3298 f6bc 5298 3abd f016 983d 022f a63c
00000120: 40eb 93bd 31fe 4e3d 5c06 993d ac71 3ebc
00000130: a07d 35bd 4c00 453d 0e58 72bd 2d0f 4c3d
00000140: 2aaf 96bd 9b67 88bd e156 063d 6074 ecbc
00000150: 4d07 51bd 4e64 20bd e4a3 303c 6e47 06bd
00000160: 5454 a4ba 56b5 153d 8b78 1e3d d6aa 9e3d
00000170: 4705 27bd c4e8 8cbd 2ab2 ee3c 9b89 24bd
00000180: 99a6 273d 5bb2 a3bd 93e2 43bd 0b0b e93c
00000190: 14b0 653c d4b3 9cbd 33ab 7e3c 5bb8 30bc
000001a0: e920 8d3d e124 4f3d 42a9 bfbc f2ce 093d
000001b0: 3bb9 a5bd ca9a debc ee6c 8fbc dd04 793d
000001c0: 8d43 09bc 6468 243d ee40 1abb ae9b aabd
000001d0: a6b6 993d 3ba0 17bd 5103 5e3d 63f7 543c
000001e0: 0251 ae3c ef82 5bbd 3dcd 4f3d 44c6 803d
000001f0: dc31 a1bb ace4 7d3c 2f3d 323d 6c47 a53d
00000200: a147 493d ca9b 593d dcc2 90bb a3d4 943d
00000210: e39a 2dbd 5ff7 a6bd 20ab 7b3d e9ee 2a3d
00000220: 2519 15bd 2b93 8e3d 00ab 153d 80ec 9bbb
00000230: 49b5 1a3d 0647 043d b53b 55bd b115 313c
00000240: ee25 343d fe1f 6abc 226d 88bd 7b67 fabb
00000250: 6897 d2bc 07ee 283b 64eb 7ebd b6df 2ebd
00000260: 2e19 9d3d 426c ed3c eed6 e2bc 346c a739
00000270: 6806 993b 54ea 83bd 0a08 b13c 8882 9e3d
00000280: f083 4a3c abd0 e33b 6139 1ebd 0dbc 0dbd
00000290: 144b 4e3d 4d33 83bd 463e 4a3d 9de6 8bbd
000002a0: 2fab 7fbd 1367 6bbd 35ae e2bc e472 f6bb
000002b0: 34a3 973d 6694 48bc 65c4 17bc 7e46 9cbd
000002c0: 53d7 5bbd 35e7 3a3d 0c6f 823d 684a a43d
000002d0: 83cb 883d 1182 cabc c46d a83d 0b80 c53c
000002e0: 1172 b23d f1d3 96bc b011 3a3d b572 153d
000002f0: 9510 583d d29b d4bb 9170 48bd 2676 86bd
00000300: 8ba6 42bd a9ab fc3b 5251 05bd a145 2dbd
00000310: 724d 0dbd 7162 c0bc e867 3bbd afa3 49bd
00000320: 391f 6b3d d4c6 c53c 0f6d 2cbd 2611 83bc
00000330: 91af 0b3d 2684 813d 02b9 98bd 283a 083d
00000340: b070 aa3c a7d1 713c 3ca5 2d3c aabc d5b9
00000350: 5178 343d 1f4b 8a3b 8226 c9bc f1ab 163c
00000360: ae89 323c 0b1b 373c e5ee 56bd d860 8f3d
00000370: ee8d 4cbc 54e2 29bc e721 88bd 1da0 2ebc
00000380: dcda 4dbd 1c52 c7bc 974f 983d 1d94 80bd
00000390: 3d4c e7bc 8dbf 1b3d 9ea4 053d 1bad ca3c
000003a0: e540 b43b df3b dfbc 6029 17bd eb3e 8d3d
000003b0: e22b ab3d b972 4dbd d193 443d af2c 753d
000003c0: e9e3 233c c0d1 613d d858 0e3c 9ebd eebc
000003d0: 138c 1fbd 3ead 3e3d dfd3 cebc 2ea6 6c3d
000003e0: 7b21 bf3c f7ab 30bd 2a57 823c 0768 8b3d
000003f0: cb69 69bd 3350 a8bd ea42 dbbc 94e3 8abd

fc1.bias f4 [128]
0.0665537 -0.08607812 -0.008846764 0.023674496 -0.034855407 0.05515459 -0.07156853 -0.05768009
0.049979012 -0.08708733 0.0044641006 0.07478289 -0.008595881 0.0121665625 -0.080361165 0.034935016
-0.017736915 0.032157265 0.0023871688 0.07998003 0.03747214 -0.03776325 -0.04011182 0.024419632
-0.00522118 0.07163756 -0.061880868 -0.07047938 -0.009941353 0.05553819 0.07761168 0.002639446
-0.048805445 -0.007963456 -0.063890815 -0.020766776 -0.083034225 -0.04431843 -0.021985447 0.029543106
-0.07071055 -0.012009537 0.049602922 0.07776758 -0.06043122 0.05999092 -0.08059089 0.080178455
-0.027176628 -0.06799719 -0.085551776 0.0379988 0.07249216 -0.07736169 0.06768603 -0.0248597
0.065248296 0.04521061 -0.07664875 0.04020427 -0.086623825 0.064284675 0.069793075 0.0062150992
0.07830449 -0.03728568 -0.04227427 0.03298178 0.050657842 -0.021544993 -0.032946948 0.044347543
0.033911783 -0.005576181 0.049626276 0.024857912 0.048891168 0.03816716 0.050709832 -0.0031912588
-0.05856646 -0.07003756 -0.084146105 0.072921105 -0.057536054 -0.058032874 0.036317095 0.051343508
0.033514857 0.04193243 -0.0063282093 0.0041317893 -0.046465196 0.035016973 0.045529563 -0.03849604
-0.038604826 0.0047264895 0.04046121 0.05939915 0.047384847 -0.046410345 -0.05082591 -0.019114096
-0.07383417 0.044964824 0.012185571 -0.075225644 0.06808201 -0.07372983 -0.03536288 0.017661545
-0.023889761 -0.07035628 0.064029805 -0.07413176 -0.0719458 -0.07592622 0.042587716 0.04067118
0.0779584 -0.053770356 0.013967168 0.0753546 -0.035423223 -0.08661304 0.029833691 -0.029513836
00000000: 4e4d 883d ba49 b0bd 05f2 10bc 04f1 c13c
00000010: 8bc4 0ebd c8e9 613d 8592 92bd f541 6cbd
00000020: cbb6 4c3d d85a b2bd 9747 923b c627 993d
00000030: bdd5 0cbc 4356 473c 6594 a4bd 0518 0f3d
00000040: 024d 91bc 56b7 033d 0c72 1c3b 92cc a33d
00000050: 637c 193d a3ad 1abd 4b4c 24bd ae0b c83c
00000060: 6f16 abbb b7b6 923d cb76 7dbd 7e57 90bd
00000070: 0fe1 22bc 037c 633d dff2 9e3d 8efa 2c3b
00000080: 38e8 47bd 2879 02bc 30d9 82bd 161f aabc
00000090: d90d aabd 3e87 35bd d31a b4bc 6204 f23c
000000a0: b1d0 90bd a6c3 44bc 6f2c 4b3d 9c44 9f3d
000000b0: ba86 77bd 0ab9 753d d60c a5bd 9a34 a43d
000000c0: 85a1 debc 1c42 8bbd c535 afbd a1a4 1b3d
000000d0: c576 943d ce6f 9ebd f99e 8a3d 92a6 cbbc
000000e0: e6a0 853d c32e 393d 05fa 9cbd 3cad 243d
000000f0: d567 b1bd afa7 833d acef 8e3d 08a8 cb3b
00000100: 1b5e a03d dfb8 18bd c927 2dbd e717 073d
00000110: 997e 4f3d 207f b0bc 61f3 06bd c5a5 353d
00000120: 15e7 0a3d 66b8 b6bb ec44 4b3d d2a2 cb3c
00000130: 1b42 483d 2b55 1c3d 1db5 4f3d 7024 51bb
00000140: 62e3 6fbd da6f 8fbd cb54 acbd a957 953d
00000150: edaa 6bbd e1b3 6dbd 3cc1 143d 924d 523d
00000160: e046 093d 57c1 2b3d de5c cfbb f663 873b
00000170: 4a52 3ebd f56d 0f3d 357d 3a3d 06ae 1dbd
00000180: 1820 1ebd abe0 9a3b a7ba 253d 864c 733d
00000190: 9d16 423d c618 3ebd d42e 50bd 2a95 9cbc
000001a0: 5f36 97bd 092d 383d fda5 473c e70f 9abd
000001b0: 956e 8b3d aaff 96bd abd8 10bd f2ae 903c
000001c0: 76b4 c3bc f416 90bd 0f22 833d 64d2 97bd
000001d0: 5258 93bd 357f 9bbd 7570 2e3d d396 263d
000001e0: a7a8 9f3d 4e3e 5cbd 8cd6 643c 8353 9a3d
000001f0: f117 11bd 2d62 b1bd c965 f43c 00c7 f1bc

fc2.weight f4 [64, 128]
-0.07151277 -0.026458573 0.03261734 0.044867616 -0.023801798 -0.060456388 0.07685622 0.00012439385
-0.06365786 0.062702954 -0.025675956 0.01907668 0.038530245 -0.065697394 -0.016979024 -0.015547415
0.0669361 0.029088438 -0.074615896 0.023953378 0.058900602 0.056603923 0.0780844 0.05215567
-0.043664772 0.007013522 -0.021894515 0.066859566 -0.0487332 -0.0075132893 -0.042778574 0.08247319
0.004011372 -0.026254576 -0.010600673 -0.07893412 0.025492296 0.005705147 -0.041297987 -0.0016657508
-0.062860325 0.054184258 0.019279048 -0.032933403 0.0045460984 -0.044977427 0.02131007 -0.014163882
0.036543563 0.004616821 0.06846981 0.03589104 0.05925257 0.06957177 -0.07113643 0.07225171
0.034065627 -0.027446903 -0.078810155 -0.053275462 0.0052722823 -0.0472555 0.029616976 0.032822646
0.017338049 -0.051394135 0.0049560936 -0.033351332 0.057627752 0.07591826 -0.07341005 0.028609522
-0.06487347 -0.0007824354 0.0706096 -0.07375776 0.038936157 -0.0014342852 -0.04685037 -0.0040881187
0.05786892 0.014542733 -0.029991224 -0.029830405 0.04734244 0.08014834 -0.060963366 0.02280469
0.0709756 0.06621831 0.012977416 -0.01855069 0.07296413 0.08592236 0.0423581 -0.08505665
0.05520932 -0.0456806 0.010896302 0.014324596 -0.014460885 0.021901466 0.00015011622 -0.0357858
-0.053542476 0.08496671 0.021790503 0.05626076 0.0020163613 0.041360434 0.058423124 0.03240271
-0.00010740504 0.058129653 0.06538374 -0.037492998 0.004290943 -0.07965487 -0.03335894 -0.0036225335
0.054507125 -0.06802722 0.028456952 -0.037240833 -0.05048069 0.015949776 0.015538039 -0.0636114
-0.032567173 0.024581417 0.04280234 0.063326076 -0.08510964 0.028260145 -0.083881415 -0.013936678
0.06516564 -0.004012144 0.04301655 0.018889554 0.06810411 0.02201794 -0.07306817 -0.013371067
0.049082436 0.02153081 -0.01483421 0.034408364 0.040860243 0.035307325 0.035992302 -0.045185592
-0.015972411 -0.024668487 0.0648069 -0.022668093 0.0032469365 -0.08287301 0.058393337 0.0147926
-0.05679893 -0.0038542268 -0.004689162 -0.056331497 0.007231285 0.07638734 -0.047199212 0.0008963508
0.042127565 -0.009651391 -0.019481841 -0.03777114 -0.06944782 -0.038094215 -0.080535255 0.019970689
-0.009417375 0.060615577 0.04975333 -0.068986505 0.08130045 -0.060746316 -0.06797706 0.028264616
-0.026339818 -0.035413876 -0.06441983 0.04874501 -0.050251365 0.06950804 0.039105974 -0.0027226713
0.02411979 0.0655692 0.0085982885 -0.012937694 -0.00036890415 0.0840723 -0.015925772 0.054514606
-0.06249818 -0.060524195 -0.050329417 0.004010838 0.084697455 -0.014143729 0.029281184 0.034747865
0.029448492 0.00017821504 -0.06511458 -0.079321176 -0.043325048 -0.057937045 -0.024750095 -0.022467986
-0.0075426055 0.07465452 0.05719244 -0.05403959 0.08520583 -0.015954945 0.08037765 -0.06370138
-0.07117186 0.06551456 0.04266885 -0.073660254 -0.0004047029 0.010188052 0.08441746 -0.053539567
0.018380877 -0.030664282 0.08401687 0.027879972 0.019912386 0.042051915 0.0829077 -0.07196129
-0.03068702 0.052613772 -0.077688634 -0.082434095 -0.0471467 0.03682723 6.408227e-05 -0.0004454456
-0.059743732 -0.016160587 0.0038375915 -0.020892916 0.036790784 -0.03275618 -0.04218832 -0.061526623
00000000: 4a75 92bd a6bf d8bc c399 053d 1bc7 373d
00000010: fdfb c2bc 1ea1 77bd cb66 9d3d b86f 0239
00000020: 0d5f 82bd 686a 803d 6256 d2bc b346 9c3c
00000030: e4d1 1d3d 5b8c 86bd 9817 8bbc 96ba 7ebc
00000040: cb15 893d e04a ee3c 38d0 98bd e039 c43c
00000050: c241 713d 84d9 673d b7ea 9f3d 2fa1 553d
00000060: d5d9 32bd b0d1 e53b 205c b3bc abed 883d
00000070: 779c 47bd 0a32 f6bb 9638 2fbd b4e7 a83d
00000080: d471 833b d613 d7bc 72ae 2dbc 36a8 a1bd
00000090: 38d5 d03c 3ef2 ba3b 1428 29bd 5255 daba
000000a0: eabc 80bd 50f0 5d3d 18ef 9d3c 2de5 06bd
000000b0: 70f7 943b 403a 38bd 7592 ae3c a00f 68bc
000000c0: b4ae 153d b448 973b e639 8c3d 7c02 133d
000000d0: d3b2 723d a57b 8e3d faaf 91bd b4f8 933d
000000e0: 6688 0b3d 54d8 e0bc 3867 a1bd 5f37 5abd
000000f0: 1cc3 ac3b fc8e 41bd 4d9f f23c 0a71 063d
00000100: 8608 8e3c a882 52bd ba66 a23b 689b 08bd
00000110: 140b 6c3d 087b 9b3d 0258 96bd 845e ea3c
00000120: 62dc 84bd 5a1c 4dba c49b 903d 4f0e 97bd
00000130: 857b 1f3d a0fe bbba 2ce6 3fbd a0f5 85bb
00000140: f607 6d3d a544 6e3c 28b0 f5bc e55e f4bc
00000150: 25ea 413d d024 a43d b9b4 79bd e7d0 ba3c
00000160: a85b 913d 779d 873d 3a9f 543c 9ef7 97bc
00000170: 386e 953d 10f8 af3d b07f 2d3d 2e32 aebd
00000180: 2b23 623d 951b 3bbd 6786 323c b6b1 6a3c
00000190: 59ed 6cbc b46a b33c 8468 1d39 2294 12bd
000001a0: 5b4f 5bbd 0703 ae3d ff81 b23c af71 663d
000001b0: ee24 043b 8f69 293d 164d 6f3d b4b8 043d
000001c0: a43e e1b8 5c19 6e3d e9e7 853d 4292 19bd
000001d0: 0a9b 8c3b 1822 a3bd 62a3 08bd 0768 6dbb
000001e0: dd42 5f3d db51 8bbd 8e1e e93c d889 18bd
000001f0: d7c4 4ebd 1ba9 823c 4293 7e3c b246 82bd
00000200: 2865 05bd f85e c93c 8251 2f3d 1ab1 813d
00000210: f74d aebd d281 e73c 05ca abbd aa56 64bc
00000220: 9075 853d 4e78 83bb 1f32 303d 44be 9a3c
00000230: 2b7a 8b3d f85e b43c c4a4 95bd 5212 5bbc
00000240: aa0a 493d 6261 b03c 300b 73bc c9ef 0c3d
00000250: 125d 273d 6a9e 103d aa6c 133d 8714 39bd
00000260: 93d8 82bc 9115 cabc 7bb9 843d 70b2 b9bc
00000270: 8eca 543b 53b9 a9bd da2d 6f3d a95c 723c
00000280: ffa5 68bd 3297 7cbb 8ba7 99bb dbbb 66bd
00000290: 6af4 ec3b f770 9c3d f653 41bd 15f9 6a3a
000002a0: f48d 2c3d de20 1ebc 6298 9fbc e9b5 1abd
000002b0: a93a 8ebd ae08 1cbd abef a4bd 9299 a33c
000002c0: 554b 1abc 0a48 783d 26ca 4b3d cc48 8dbd
000002d0: da80 a63d 21d1 78bd 8f37 8bbd 328b e73c
000002e0: 9ac6 d7bc 240e 11bd 8bee 83bd d9a8 473d
000002f0: 60d4 4dbd 3b5a 8e3d 962d 203d d86e 32bb
00000300: de96 c53c 2549 863d d6df 0c3c 9ff8 53bc
00000310: 7a69 c1b9 192e ac3d c476 82bc b54a 5f3d
00000320: 17fe 7fbd 38e8 77bd 3826 4ebd 596d 833b
00000330: dc75 ad3d 19bb 67bc 18df ef3c c753 0e3d
00000340: f73d f13c 3cdf 3a39 cb5a 85bd 2473 a2bd
00000350: 9b75 31bd 654f 6dbd b6c0 cabc c80e b8bc
00000360: f627 f7bb 78e4 983d 9f42 6a3d 9e58 5dbd
00000370: 6580 ae3d f2b3 82bc 0a9d a43d de75 82bd
00000380: 8dc2 91bd 7f2c 863d 88c5 2e3d 30db 96bd
00000390: 4e2e d4b9 caeb 263c 10e3 ac3d 4e4c 5bbd
000003a0: 7e93 963c a933 fbbc 0911 ac3d 8a64 e43c
000003b0: 4d1f a33c a13e 2c3d 83cb a93d 7160 93bd
000003c0: 5863 fbbc 8a81 573d 381b 9fbd 35d3 a8bd
000003d0: e61c 41bd 26d8 163d e863 8638 b28a e9b9
000003e0: d8b5 74bd 3563 84bc 1a80 7b3b 9f27 abbc
000003f0: efb1 163d 582b 06bd a9cd 2cbd 5703 7cbd

fc2.bias f4 [64]
0.06871739 -0.04457877 0.080980934 0.047909714 -0.059569016 -0.035307802 0.04885091 -0.05137548
-0.07981076 0.045680895 0.08039804 0.04176272 0.044451337 -0.02132407 0.01516613 0.024011025
-0.038931377 -0.06665683 -0.06983627 0.060238272 0.053062536 -0.07949316 -0.0160901 0.07258903
-0.074269526 -0.009823607 0.015897278 -0.047518115 -0.027914207 0.07638728 0.04048598 -0.03809413
0.045091867 0.02152273 -0.07459431 0.08324471 0.029425405 0.0099080475 0.08236345 0.05985534
0.042838603 0.06975847 -0.020641645 -0.047789186 0.019892698 0.03672202 0.057476807 0.008305239
-0.011607263 -0.053579003 -0.035440404 -0.07596879 -0.0484488 -0.083728224 0.03168242 0.060449015
0.043662935 -0.036922194 -0.049458478 -0.08035628 0.009895823 0.025971463 0.077833526 0.050607763
00000000: b4bb 8c3d 3a98 36bd 55d9 a53d fa3c 443d
00000010: a4fe 73bd ea9e 10bd e417 483d 186f 52bd
00000020: d373 a3bd e41b 3b3d baa7 a43d 630f 2b3d
00000030: 9b12 363d d1af aebc 5c7b 783c c5b2 c43c
00000040: 8276 1fbd 6083 88bd 5106 8fbd 68bc 763d
00000050: 1a58 593d 4fcd a2bd 63cf 83bc 8fa9 943d
00000060: 9f1a 98bd 32f3 20bc 023b 823c 5ba2 42bd
00000070: 56ac e4bc ef70 9c3d a1d4 253d 9708 1cbd
00000080: 40b2 383d 7050 b03c e7c4 98bd 347c aa3d
00000090: 8c0d f13c 5d55 223c 2bae a83d df2a 753d
000000a0: 8877 2f3d 87dd 8e3d ab18 a9bc 98be 43bd
000000b0: 03f6 a23c d469 163d cd6c 6b3d b212 083c
000000c0: 642c 3ebc a875 5bbd f529 11bd 8695 9bbd
000000d0: 4072 46bd b479 abbd 6dc5 013d 6399 773d
000000e0: e8d7 323d ba3b 17bd f994 4abd d591 a4bd
000000f0: 1722 223c 1bc2 d43c 2f67 9f3d 164a 4f3d

fc3.weight f4 [2, 64]
-0.060360942 -0.011749756 -0.12246777 0.008845234 0.10601111 -0.008325783 -0.011911782 -0.110581666
-0.097293325 0.11409954 0.0512015 0.116388515 0.054207686 0.003932189 -0.0834963 -0.019478219
0.035054978 0.1029752 0.09576485 -0.08492467 0.08738597 0.052623317 0.05458529 0.037173774
0.05860478 -0.11703904 -0.046141203 0.08695795 0.045754265 -0.0717902 -0.107026026 -0.12353456
-0.023653556 -0.0023966902 0.117360294 0.043737467 0.08720638 -0.01794527 0.10302964 0.11754634
-0.061953176 -0.016862245 -0.05324034 -0.052739378 0.026851607 -0.113474384 0.07543416 -0.050745163
0.09973447 -0.115243256 -0.06849458 -0.09693664 -0.0043571913 0.074025616 0.106226176 0.10536663
0.08527751 -0.011841118 0.044287384 0.02402832 0.118866935 0.044558782 -0.09874465 0.028608799
0.00049192674 0.10405752 0.03818119 -0.031174766 0.06983887 0.11762561 -0.035613194 -0.055710454
0.09026184 -0.12171988 0.12271034 -0.018609615 0.020976363 0.026261095 -0.06397818 0.09992589
-0.032889836 0.09644446 -0.057417657 -0.022661412 0.0924826 0.103315584 0.10215899 -0.12103673
-0.08835192 0.049930405 -0.07714063 0.045104127 -0.12334819 -0.045453478 -0.07118194 -0.06871343
-0.036024198 -0.04210223 0.101724245 -0.064256966 -0.0371315 -0.10034568 -0.042978887 0.024768764
-0.059285503 -0.07200228 -0.09211457 -0.063641 -0.09456307 0.010253561 0.028973375 -0.12328699
0.12173371 -0.012273479 0.07338303 0.09929183 -0.1195828 -0.007781294 -0.106018335 0.018341554
-0.11784205 0.003850005 -0.08484666 0.08831546 0.03414776 0.10835181 0.03641987 -0.01603475
00000000: 093d 77bd 0c82 40bc 62d0 fabd 9aeb 103c
00000010: 5a1c d93d dd68 08bc a329 43bc a478 e2bd
00000020: b941 c7bd 05ad e93d aab8 513d 1a5d ee3d
00000030: e108 5e3d 98d9 803b 1c00 abbd c990 9fbc
00000040: cf95 0f3d a9e4 d23d 5d20 c43d fcec adbd
00000050: 6af7 b23d 8c8b 573d d394 5f3d 8743 183d
00000060: 910b 703d 2ab2 efbd 8ffe 3cbd 0217 b23d
00000070: d368 3b3d be06 93bd 7630 dbbd b0ff fcbd
00000080: 1ac5 c1bc ca11 1dbb 985a f03d 0f26 333d
00000090: 4299 b23d f501 93bc 3401 d33d 23bc f03d
000000a0: 9dc2 7dbd b122 8abc 8b12 5abd 3f05 58bd
000000b0: e7f7 db3c 4265 e8bd 3a7d 9a3d 29da 4fbd
000000c0: 9641 cc3d a804 ecbd e346 8cbd b886 c6bd
000000d0: c5c6 8ebb be9a 973d 1c8d d93d 76ca d73d
000000e0: faa5 ae3d 4001 42bc b066 353d 0ad7 c43c
000000f0: 8270 f33d 4583 363d a33a cabd 005d ea3c
00000100: a5f4 003a 1c1c d53d e163 1c3d 3962 ffbc
00000110: ae07 8f3d b2e5 f03d 24df 11bd a530 64bd
00000120: 33db b83d 4648 f9bd 8f4f fb3d 3173 98bc
00000130: 9fd6 ab3c 8221 d73c fe06 83bd f2a5 cc3d
00000140: 7eb7 06bd ac84 c53d c72e 6bbd 6da4 b9bc
00000150: 8467 bd3d 1f97 d33d bc38 d13d 1be2 f7bd
00000160: daf1 b4bd d383 4c3d e8fb 9dbd 1bbf 383d
00000170: fa9d fcbd 6d2d 3abd d6c7 91bd a0b9 8cbd
00000180: 1c8e 13bd 6373 2cbd cd54 d03d 2899 83bd
00000190: 3317 18bd 0982 cdbd a10a 30bd dde7 ca3c
000001a0: 5bd5 72bd ee75 93bd 90a6 bcbd 3656 82bd
000001b0: 48aa c1bd 8dfe 273c 9259 ed3c e47d fcbd
000001c0: 864f f93d b416 49bc d849 963d 8459 cb3d
000001d0: d4e7 f4bd 3afa febb 2420 d9bd 0741 963c
000001e0: 2c57 f1bd 5e50 7c3b 16c4 adbd bcde b43d
000001f0: 86de 0b3d 8ee7 dd3d 002d 153d 4f5b 83bc

fc3.bias f4 [2]
0.09768611 0.09543529
00000000: a80f c83d 9473 c33d
