best_model.pth (torch, 311650 bytes, 20 tensors)

fc1.weight f4 [256, 128]
000000 d6 7a 18 bd c2 68 94 3c b0 c6 d5 3c e9 eb 3f 3d
       -0.03722652 0.018116359 0.026095718 0.04685584
000010 4f 47 0d bd 93 ff 84 3d 68 91 43 3d bf 4d ac 3d
       -0.034491833 0.064940594 0.047746092 0.084132664
000020 34 99 87 3c 0b 68 e4 bc 13 81 e8 ba ab be 8b 3c
       0.016552545 -0.027881643 -0.0017738662 0.017058691
000030 e2 df 59 3c 40 58 2d 3d 5e 96 13 3d 37 b1 8b bd
       0.013298007 0.04232049 0.036032073 -0.068209104
000040 42 ee 1b bc cb 52 59 3d 5f f6 fd bc 72 6d ee 3c
       -0.009517254 0.053057473 -0.031001268 0.029104922
000050 af d5 a5 3d cc 54 da 3c b0 03 9e bd b9 78 b3 3d
       0.080973975 0.026651762 -0.07715547 0.087632604
000060 12 ea 00 3d 6c ba 53 bd b2 72 60 3c 45 56 f2 bc
       0.031473227 -0.051691458 0.0136992205 -0.029582152
000070 95 c0 ae 3d 66 f3 3f 3c d1 b7 89 bd 82 85 0a 3d
       0.08532826 0.011715746 -0.06724513 0.03381873
000080 ef 36 a8 bd 68 9d 2d bd fe d0 71 3d 7c 3f 35 bd
       -0.08213603 -0.042386442 0.0590372 -0.044249997
000090 b0 5c 96 bc 35 82 b5 bd c4 0f cd 3c e4 e3 7d 3d
       -0.018354744 -0.08862726 0.025031932 0.06198491
0000a0 25 bd 32 bb 39 df 89 3d 39 17 9d 3b 3a 21 59 3d
       -0.0027273383 0.067320295 0.004794028 0.053010203
0000b0 a7 16 0c bc 15 a7 47 bc 93 96 ad bd e6 58 6e 3d
       -0.008550323 -0.012185832 -0.084759854 0.05819025
0000c0 95 0e e8 bc fe a7 3d bb f4 94 45 bc fe 35 93 bc
       -0.028327266 -0.0028939242 -0.012059439 -0.017970081
0000d0 14 29 ed bc 99 ec 9c bd d4 d7 57 bd 5b 70 f4 3c
       -0.028950252 -0.07662315 -0.052696064 0.029838732
0000e0 23 e6 dc 3c b4 c2 a3 bc 14 c5 f8 bb 05 84 a2 bd
       0.026965206 -0.019990303 -0.007591853 -0.07935337
0000f0 d1 20 2a bd ba e2 54 ba 1b ae a7 3d ea 57 18 3d
       -0.041535202 -0.0008120943 0.08187505 0.037193216
000100 98 3c 58 3c f8 69 93 bc b6 52 76 bb 2c c1 e9 bc
       0.01319804 -0.017994866 -0.003758592 -0.028534494
000110 a3 8a 67 bd cb 54 0f bd 43 6a 2b 3d 48 da 5e 3d
       -0.0565287 -0.034992974 0.041849386 0.054407388
000120 e8 d8 52 bc cb df 10 bd e2 3b a0 bd bb 36 a9 3d
       -0.012869097 -0.035369676 -0.07823922 0.08262392
000130 a4 02 05 3d 2c 29 b8 bd 1d 64 42 3d 13 48 a6 bd
       0.03247322 -0.08992228 0.047458757 -0.08119216
000140 d6 be b4 bd 3f dc 0d 3d 16 76 a1 3c 03 70 85 3c
       -0.088254616 0.03463387 0.019709628 0.016288763
000150 19 00 a0 bd 05 4c b2 bd 71 b0 08 bd 55 63 42 bc
       -0.078125186 -0.08705906 -0.033371393 -0.011864503
000160 4f 69 74 3d 38 46 37 3c 33 d5 05 bd 96 74 43 bd
       0.059670743 0.011186175 -0.032674026 -0.047718607
000170 e5 b0 30 3d 14 1c d3 bc 40 08 fa bc 94 2f de bc
       0.04313745 -0.025770225 -0.030521512 -0.027122296
000180 e6 00 07 bb 06 7b 75 bd 61 77 64 bd 7a 1f ac 3d
       -0.00205999 -0.059931777 -0.05577791 0.08404441
000190 ab 31 a0 bc 9c d0 ad bd 0c 20 7e 3d 55 3c 77 3d
       -0.019554934 -0.08487055 0.06204228 0.06036027
0001a0 d1 ed 8c 3c 4f 0d 2a bd df 85 02 bd 6f d7 6c bc
       0.017203243 -0.0415166 -0.03186595 -0.01445566
0001b0 9c 08 8e 3d 51 68 16 bd 64 e0 20 3c a7 70 0c 3d
       0.06935236 -0.036720578 0.009819124 0.03428712
0001c0 d3 d6 86 bd f1 0e 82 3d 20 ab 38 3d a1 52 7d 3d
       -0.06583943 0.06350506 0.045085073 0.06184638
0001d0 cd 5a ef bb c4 06 ab bd 3e 32 a6 bd 7a ea 37 3d
       -0.0073045255 -0.083509 -0.08115052 0.04490135
0001e0 69 7b 7d bd 69 fc 4a 3d 1c ef 68 bd 67 5b 62 3c
       -0.06188527 0.049557123 -0.056868657 0.013815737
0001f0 50 d8 28 3d 9d e0 3d 3c 11 5f 66 3d 20 b9 93 bd
       0.041221917 0.0115891965 0.056243006 -0.07213044
000200 fa 0c 26 3d c6 ac 15 bc 72 f3 fa bc 5f 69 ac bd
       0.04053972 -0.009135431 -0.030633662 -0.084185354
000210 15 55 bb 39 7d 7e a2 bd d9 e5 36 3c 53 7e 69 3d
       0.0003573081 -0.07934282 0.011163198 0.057005238
000220 2d cf b3 3c 70 bd 39 3d 82 26 82 bc a5 f7 59 bd
       0.021949375 0.045346677 -0.015887503 -0.053214688
000230 02 e1 ba bd 4a 48 ad bd 54 cb f7 bc 4f 17 58 bd
       -0.09124948 -0.08461054 -0.030248322 -0.052756604
000240 c3 1d 27 3d a0 be d7 bc b9 81 4c 3d 6f d3 93 bc
       0.040799867 -0.026336014 0.0499284 -0.018045155
000250 60 26 22 3b 30 72 5e 3d c0 9b 6f bd 65 4e 40 3d
       0.0024742112 0.054308116 -0.058498144 0.046949763
000260 67 02 56 bd 5d c6 a7 3c 5b 01 97 bd 95 87 6d 3d
       -0.052248385 0.02048033 -0.073733054 0.05799063
000270 68 c1 40 3d ab c0 06 bb 95 38 7d 3d b4 0d 95 bd
       0.047059447 -0.0020561616 0.06182154 -0.07278004
000280 f9 27 0f bd bb 22 8a bd 6f f1 18 bd a6 45 24 3d
       -0.03495023 -0.067449056 -0.037339624 0.040105484
000290 a0 41 92 bd db c6 a5 3d 0a ee 54 bd 98 76 b8 3d
       -0.07141423 0.08094569 -0.051984824 0.09006995
0002a0 57 34 ae 3d b4 29 4e bd 19 2f 61 3d d3 8e 71 3d
       0.08506077 -0.05033274 0.054976556 0.0589741
0002b0 9f 77 8d 3c 33 9b 9d 3c a1 cd 56 bc 73 84 12 bd
       0.017268954 0.019239044 -0.013110549 -0.035770845
0002c0 89 90 b6 3d 43 89 37 3d bc e6 82 bd 44 62 8f bd
       0.08914287 0.044808637 -0.06391665 -0.070011646
0002d0 b7 4d 9d bd e7 0f 3f 3d 34 0d 6f bd 5a 2b b3 bd
       -0.076808386 0.046646025 -0.0583622 -0.08748503
0002e0 cf 53 73 bd 74 98 a0 bd 3a ee 83 3c 16 b9 ba 3c
       -0.059406098 -0.07841578 0.016104806 0.022793334
0002f0 ba 9a ca 3c 96 4f 85 bd e9 e7 a9 3b 6d 32 9d bc
       0.024731982 -0.065093204 0.0051851165 -0.019189084
000300 cd 3b 76 bd 28 9b c8 bc 9f d4 8c bc 13 3b 9c 3d
       -0.060115624 -0.024488047 -0.01719123 0.07628455
000310 44 2d 20 3c 51 1e 02 bd 42 1a 8c bd cc 57 81 bb
       0.009776417 -0.031767193 -0.06840946 -0.003947234
000320 ff f4 8d 3d 64 c9 b5 3b ce 44 59 3d 29 eb a4 3d
       0.06931495 0.0055476893 0.053044133 0.08052666
000330 13 25 37 3d de 85 90 bd b5 2f ee 3c e7 ed 30 3d
       0.04471309 -0.07056783 0.029075483 0.04319563
000340 48 ca 9d bd 75 b9 53 3d 33 dd 81 3d d8 9d 9a bb
       -0.07704598 0.051690537 0.063410185 -0.0047185235
000350 0d 4c 97 3d 01 2c e5 3c 16 01 a0 3d 11 22 31 3d
       0.073875524 0.027975084 0.07812707 0.04324538
000360 92 63 90 bc f9 5e 77 3a 72 8a 00 bb 91 87 4e 3c
       -0.017625604 0.0009436454 -0.001961377 0.012605564
000370 a4 b4 ac 3d 59 4b ff 3c 3e 0b 3d bd 9d 78 95 3d
       0.08432892 0.031163858 -0.0461533 0.07298396
000380 a6 3f 9b bd 9d 97 47 bd 0f e1 1c 3d 3b 03 18 3c
       -0.07580499 -0.048728574 0.03830057 0.009278114
000390 27 e7 9f 3d e7 f9 98 bd 57 1c 99 bd a9 0c c2 3a
       0.07807761 -0.0746954 -0.074761085 0.0014804798
0003a0 77 b9 f0 3b 8c e4 18 3d 5e 84 1f 3d 8a 48 f4 3c
       0.007346328 0.037327334 0.038944595 0.029819746
0003b0 0b 87 96 bb 01 28 f2 bb 2c 1b a4 bd 05 3f 94 bb
       -0.004593735 -0.0073900227 -0.08012995 -0.004524114
0003c0 0c a3 6c bd 3e a4 4e bd 81 55 4b 3d d9 cd d3 bc
       -0.05777268 -0.050449602 0.04964209 -0.025854992
0003d0 c4 28 a3 3d f0 e7 a3 3d c8 eb 4c 3d ea 8c b4 3d
       0.0796676 0.08003223 0.050029546 0.0881594
0003e0 56 01 41 bd 0d a3 41 bd 7c d2 40 3d 4f e0 98 bc
       -0.047120415 -0.047274638 0.047075734 -0.018661646
0003f0 97 35 25 3c c8 73 80 bd 7f 65 67 bd 3e aa b7 bd
       0.010083578 -0.062720835 -0.05649328 -0.08968018

fc1.bias f4 [256]
000000 88 77 27 bd 91 8b 70 3d 73 bd a8 3c c6 58 dd ba
       -0.04088548 0.05872685 0.020598149 -0.0016887418
000010 3f eb ab 3c a6 50 4c bd 3d 0b 8f bd ea cf de ba
       0.020986198 -0.0498816 -0.069845654 -0.0016999219
000020 bb 90 08 3d 9b 2f 22 bb e5 d6 11 bd 99 39 85 3d
       0.03334115 -0.0024747613 -0.03560533 0.065051265
000030 e6 94 24 bd 42 82 01 3a b2 85 8d 3d 33 a6 9d bb
       -0.040181063 0.00049403694 0.06910266 -0.0048110723
000040 b4 7a 2f 3d fa 63 59 ba a5 a7 21 bd 38 54 ae bc
       0.04284163 -0.0008292791 -0.03946652 -0.021280393
000050 db e8 bf bb 56 17 8b 3d 5e ac 83 bd 60 3b e6 3b
       -0.005856616 0.0679156 -0.06429361 0.007026121
000060 aa bb 5b bd db c2 82 bc 78 a6 e0 bc c5 29 80 bc
       -0.053645767 -0.015962055 -0.027423128 -0.015644917
000070 a9 38 27 bd 35 90 3d 3d bf e1 17 ba b4 90 29 3b
       -0.04082552 0.046280105 -0.00057938317 0.0025873603
000080 a2 55 22 3a 9f 0a 86 3d ee d0 fd 3b e6 a9 44 bd
       0.000619257 0.065449946 0.0077458536 -0.04801359
000090 1c 95 7e 3a a7 46 b6 3c 77 c2 23 3c 3c 4e 0c bd
       0.000971155 0.022250487 0.0099950945 -0.034254298
0000a0 56 6c a4 bc 7d 8e 6a 3d f7 72 ee 3c b0 36 22 3d
       -0.02007119 0.057264794 0.029107554 0.039602935
0000b0 60 76 cd bc 2c 04 56 3d 1d dc 00 3d d2 69 89 3d
       -0.02508086 0.052250072 0.031459916 0.06709637
0000c0 a7 be be bc ec b5 9e bc ac d5 63 bd 21 4b 0b bd
       -0.02328427 -0.019373856 -0.055623695 -0.034007195
0000d0 0f bb ef 3c 0c 5e a8 39 da b3 77 39 98 66 4a 3c
       0.029264001 0.00032113527 0.00023622756 0.012353562
0000e0 14 9a 72 bd 28 3a 1e 3d 72 5b a1 bc 34 e5 cc 39
       -0.05922897 0.03862968 -0.019696925 0.00039080682
0000f0 f2 14 61 3d 4e e8 91 3d 1c 92 ff ba ca 5d 63 bd
       0.054951616 0.07124387 -0.00194985 -0.055509366
000100 40 40 65 bd a4 77 d6 bc 58 7a 72 bd 80 26 66 bd
       -0.055969477 -0.026180096 -0.059198707 -0.05618906
000110 12 23 e5 bc de 45 e3 bc d8 79 31 3d dd 58 8a 3b
       -0.027970824 -0.027743276 0.04332909 0.004222019
000120 18 e5 b2 bc 9c b1 c1 bc b2 7c 83 3d b2 1c 8f bd
       -0.021837756 -0.023644261 0.06420268 -0.06987895
000130 86 d8 ae bc f4 05 74 bc fd c3 71 3d f2 5a 8a bd
       -0.02134348 -0.014893997 0.0590248 -0.06755628
000140 df 9e 9e bc 5f 10 83 bd 77 f8 af bc 74 87 11 3d
       -0.019362865 -0.06399607 -0.021480782 0.03552957
000150 c4 40 11 bb 54 39 6b b8 8c a1 5c bd 2e b5 fd bc
       -0.0022163847 -5.6081757e-05 -0.053865 -0.030970182
000160 dd 24 25 bd 10 8f 22 bd 69 0d 8e 3d e0 7a 7c bd
       -0.04031836 -0.039687216 0.069361515 -0.06164062
000170 e2 ec 7e 3d c1 50 6b 3c 2c 1b 13 3a 57 51 e2 bb
       0.062237628 0.014362515 0.0005611654 -0.006906669
000180 cc b3 65 ba 02 31 c3 bc 54 e4 ce 3a ce 26 22 ba
       -0.00087624486 -0.02382708 0.00157846 -0.0006185592
000190 5c 63 82 bd a0 b1 68 3d 24 2f 89 bd 81 59 54 3d
       -0.063666075 0.05681002 -0.066984445 0.05184317
0001a0 5b 8c ef 3c ee a1 93 3c 11 24 8e 3d aa 0b d9 ba
       0.029241731 0.01802155 0.06940473 -0.0016559262
0001b0 29 c2 62 3d 38 e3 22 bb 54 c0 89 3d 9d 92 af 3a
       0.055360947 -0.0024854671 0.06726137 0.0013395135
0001c0 cb 85 ea 3c 58 da 4d bc a7 a9 46 3d ec c7 e2 bb
       0.02862825 -0.012564264 0.048501637 -0.006920805
0001d0 9f 6c 86 3d 74 9a 04 bc d0 2f 29 3d 80 5e 93 b8
       0.065636866 -0.008093465 0.041305363 -7.027108e-05
0001e0 ef 2e bf 3a ab a5 68 3d 79 c4 12 bd 03 28 2b 3d
       0.0014586131 0.05679862 -0.035831902 0.041786205
0001f0 67 1a f3 bc df c8 35 3d 07 75 75 bd b2 a5 84 3d
       -0.029675676 0.04438102 -0.05992606 0.064769164
000200 9f ce 01 3b 4f 1a 5d bd 18 8f 46 ba 6f 77 25 3d
       0.0019806994 -0.053980168 -0.0007574423 0.040397104
000210 9f 6d cc 3c 50 fc a1 ba 55 72 f7 3c 03 d7 a1 bc
       0.024954615 -0.001235852 0.030205885 -0.019755846
000220 40 27 34 3d 80 59 97 3c c1 47 a3 bb 5e fb ea bc
       0.043982744 0.018475294 -0.004982919 -0.028684314
000230 bb 5e e0 bc ed 3d 82 3d 8e e4 f5 3c a0 59 74 3c
       -0.027388921 0.06359468 0.03001621 0.014913946
000240 30 ba b4 b9 bc 4b 29 bd bc 7c 2e 3d a0 8e 4f 3d
       -0.00034470996 -0.04133199 0.042599425 0.050673127
000250 98 7c 8a 3c e9 47 54 3a c3 f5 57 bc 00 bf 4e 3d
       0.016905114 0.00080978737 -0.013181153 0.05047512
000260 2c 47 f1 bc dc 9e ba bc b3 02 db bc ea 68 16 3d
       -0.029452883 -0.022780828 -0.026734686 0.036721148
000270 9f cc 37 3c dd a0 7e 3c 2d 69 54 3c 0b 05 84 3d
       0.011218219 0.0155412825 0.012964529 0.06446274
000280 d3 1a 1f 3d da a4 8e bd 07 46 9f bb 89 da 3f 3c
       0.03884394 -0.06965037 -0.004860643 0.011709818
000290 62 86 26 bc 16 67 09 bd 16 5e 0e 3b 2f ba 58 3a
       -0.010163875 -0.033545576 0.002172356 0.00082674896
0002a0 12 b1 48 bd f0 3a dc bc d3 0b 6b 3d 64 6a ba 37
       -0.048996992 -0.026883572 0.057384323 2.222247e-05
0002b0 b1 47 8c 3d a2 71 82 bd cf 5f 2e 3d 0d 41 6d bd
       0.068496116 -0.0636933 0.04257184 -0.057923365
0002c0 6a 87 ef bc 6d f8 77 bb 9b e1 0a bd 5a 3c 87 3d
       -0.029239375 -0.0037837282 -0.03390656 0.06603308
0002d0 84 e3 2a 3a b3 90 23 3c 89 98 ef 3c 5e a3 80 ba
       0.0006518888 0.009983229 0.02924754 -0.0009814312
0002e0 19 8b 5a bd 7d fa 15 3c c8 57 17 3b c0 51 86 bc
       -0.05335531 0.009153959 0.0023093093 -0.016396403
0002f0 90 1c a7 bc a4 e5 5f 3d a6 ce 65 3d d6 1c 29 3d
       -0.020399362 0.05466236 0.05610528 0.041287266
000300 fc 1f 28 bd 50 cb 3d 3d dc 87 57 bd 16 77 8b 3d
       -0.041046128 0.046336472 -0.0526198 0.06809823
000310 ab 6b c6 bc 27 b3 7d 3b 8f 72 a2 3c 26 78 c8 bc
       -0.024221262 0.003871152 0.019830016 -0.024471354
000320 41 99 cc 3c 3a 9e 94 3c 45 14 98 39 60 4a 91 bd
       0.02497542 0.018141855 0.000290068 -0.07094264
000330 6d be 28 bd 55 dc 7a 3d 3b e2 a6 3b 21 03 15 bd
       -0.04119723 0.06124528 0.0050928867 -0.036379937
000340 91 03 24 3b b9 32 c1 bc ba d9 ba 3c be b0 cb ba
       0.002502654 -0.023583757 0.022808898 -0.0015540344
000350 39 0a 85 3d 83 9e f3 3c 21 89 d6 3c e6 71 2e bd
       0.064960904 0.02973867 0.026188435 -0.04258909
000360 fb fb d3 bc 24 0e fb ba 8e b2 0e bd 91 e8 02 bc
       -0.02587699 -0.0019153995 -0.03483825 -0.007990018
000370 31 5c 55 3d 3c 8c 0c 3d d8 5b 0e ba bd 67 63 b9
       0.052089874 0.034313425 -0.0005430556 -0.00021687053
000380 53 7a 8d 3c 80 24 08 bc db 15 7f 3d 16 5e 16 3b
       0.017270243 -0.0083094835 0.062276702 0.0022944263
000390 f0 3c 14 bd fd 92 47 3d 44 03 84 3d 3a 0c af 3a
       -0.036190927 0.048724163 0.06445935 0.0013355084
0003a0 35 fc 4b 3d cd 28 84 bd 96 c9 80 bd 7a 39 41 3d
       0.04980107 -0.06453095 -0.062884495 0.047173955
0003b0 40 8e fc b9 15 a6 eb b7 a4 89 3f 3d a2 27 25 bb
       -0.0004817117 -2.8091521e-05 0.046762124 -0.0025200625
0003c0 e9 78 4e bb 22 e7 f5 bc dd 0c 6c bd 73 52 47 3d
       -0.0031505174 -0.03001744 -0.057629455 0.048662614
0003d0 18 56 99 39 9b 65 1d bb 30 60 29 3d 2b 1d 69 3d
       0.0002924658 -0.002401686 0.041351497 0.056912582
0003e0 d2 ab 42 bb f8 86 38 3d a0 e5 0e 3d f5 e9 de bc
       -0.0029704464 0.04505059 0.034886956 -0.027211169
0003f0 48 da 55 3d 0b 13 fc 3c da 8a dc 3c 6d 9e a7 bc
       0.052210122 0.0307708 0.026921678 -0.020461285

bn1.weight f4 [256]
000000 69 9c 7e 3f 07 60 80 3f 4c 05 80 3f fc 94 80 3f
       0.9945741 1.0029305 1.0001616 1.0045466
000010 0b 13 80 3f 2d 5c 80 3f 98 30 81 3f e5 6a 80 3f
       1.0005811 1.002813 1.0092955 1.0032622
000020 2a d1 7f 3f d5 88 80 3f d2 2e 80 3f 26 13 7f 3f
       0.99928534 1.0041758 1.0014288 0.99638593
000030 29 1b 81 3f b8 67 7f 3f 94 34 7d 3f 54 10 7f 3f
       1.0086414 0.9976764 0.9890835 0.9963429
000040 ed 86 80 3f ea 2a 80 3f 6d ca 80 3f 63 62 80 3f
       1.0041176 1.0013096 1.0061775 1.0030025
000050 86 4b 7f 3f 70 19 81 3f fd e1 7d 3f 17 24 80 3f
       0.99724615 1.0085888 0.99172956 1.0011014
000060 7e aa 7e 3f 1f 1d 81 3f a3 a5 7e 3f ea 3e 80 3f
       0.994789 1.0087012 0.9947149 1.00192
000070 53 bf 7d 3f 25 8f 7e 3f ae 60 7f 3f 0e a5 80 3f
       0.9912006 0.9943717 0.99756896 1.0050371
000080 fc 16 7f 3f d5 4f 80 3f 27 02 7e 3f 59 90 80 3f
       0.99644446 1.0024363 0.99222034 1.0044051
000090 53 6c 7f 3f cc 63 7e 3f 14 75 7f 3f fc b2 80 3f
       0.99774665 0.9937103 0.9978802 1.0054622
0000a0 d6 2d 80 3f 9b 6f 80 3f ee 8f 7e 3f fc 89 7f 3f
       1.0013988 1.0034059 0.9943837 0.9981992
0000b0 49 18 7d 3f ff 38 81 3f 8a c9 7e 3f e8 1e 7f 3f
       0.9886518 1.0095519 0.99526274 0.99656534
0000c0 c2 e4 7f 3f cd 38 80 3f 64 71 80 3f 68 06 7f 3f
       0.9995843 1.0017334 1.0034604 0.9961915
0000d0 6f af 7f 3f 0b 7a 80 3f 39 25 80 3f 55 06 80 3f
       0.99877065 1.0037245 1.001136 1.0001932
0000e0 bd 1a 7e 3f 3a 7a 80 3f ab ea 7f 3f a0 10 7f 3f
       0.9925955 1.00373 0.9996745 0.9963474
0000f0 15 9d 7d 3f fc 11 7f 3f 5c c8 7f 3f 65 1e 80 3f
       0.99067813 0.99636817 0.999151 1.0009276
000100 e9 71 81 3f 5f da 7e 3f ac fb 7d 3f 7c aa 80 3f
       1.0112888 0.9955196 0.99212146 1.0052028
000110 14 9c 80 3f 77 c9 7f 3f 31 3d 80 3f 60 f1 7e 3f
       1.0047631 0.99916786 1.0018674 0.9958706
000120 18 23 7e 3f 45 4c 7e 3f f2 75 7f 3f 1d 25 80 3f
       0.992723 0.9933513 0.99789345 1.0011326
000130 6e e6 7f 3f 04 f1 7f 3f 42 2d 80 3f 8b 11 80 3f
       0.9996098 0.99977136 1.0013812 1.0005354
000140 e5 ae 7f 3f 32 87 80 3f 0c 23 80 3f c1 d3 7f 3f
       0.9987624 1.0041258 1.0010695 0.99932486
000150 f4 27 7f 3f 70 4b 7e 3f f5 83 80 3f 8f f4 7d 3f
       0.9967034 0.9933386 1.004027 0.9920129
000160 31 db 80 3f 33 00 7e 3f fb 23 80 3f 29 0e 7d 3f
       1.0066892 0.99219054 1.001098 0.9884973
000170 5d fe 7d 3f 6a 59 7e 3f 11 79 80 3f 52 94 7f 3f
       0.9921625 0.99355185 1.0036947 0.99835694
000180 77 fa 80 3f 7c f8 7f 3f 9e 16 80 3f 7a 1c 7f 3f
       1.0076436 0.9998853 1.0006902 0.99652827
000190 b9 80 80 3f e8 9a 7f 3f 5f 29 7e 3f 8b 9f 80 3f
       1.0039283 0.99845743 0.9928188 1.0048689
0001a0 39 e3 80 3f ba 65 7f 3f 0a e1 7f 3f 39 93 80 3f
       1.0069343 0.997646 0.9995276 1.0044929
0001b0 20 e3 80 3f e9 7b 80 3f ae aa 7f 3f 53 4a 7f 3f
       1.0069313 1.0037814 0.9986981 0.99722785
0001c0 2e 26 80 3f 5b 92 7e 3f 01 3b 7f 3f db 6e 7e 3f
       1.0011652 0.9944207 0.9969941 0.993879
0001d0 0b ad 7e 3f f7 2d 7e 3f c4 a9 80 3f ad e3 80 3f
       0.9948279 0.99288887 1.0051808 1.0069481
0001e0 05 4c 80 3f 25 af 80 3f 31 7e 80 3f b1 a2 7f 3f
       1.0023199 1.005345 1.003851 0.9985762
0001f0 fa e9 7e 3f a2 38 7f 3f a9 b3 80 3f a4 5c 80 3f
       0.9957577 0.9969579 1.0054828 1.0028272
000200 6f d0 7e 3f 9e 4c 7e 3f 2e aa 7f 3f 3d 60 80 3f
       0.99536794 0.9933566 0.9986905 1.002937
000210 5d 24 80 3f 32 1d 7f 3f 99 cf 80 3f ea 76 80 3f
       1.0011097 0.99653924 1.0063354 1.003629
000220 e8 14 7f 3f 50 2d 81 3f 23 24 7e 3f 79 7c 7f 3f
       0.99641275 1.0091953 0.9927389 0.99799305
000230 35 11 80 3f 1d 02 80 3f 1a 4f 80 3f 5a 1f 80 3f
       1.0005251 1.0000645 1.002414 1.0009568
000240 32 f1 7f 3f 4c f2 80 3f b4 52 80 3f 40 a1 80 3f
       0.9997741 1.0073943 1.0025239 1.004921
000250 a0 e7 7e 3f c4 c5 80 3f 9b 9d 7f 3f 44 b7 7e 3f
       0.9957218 1.0060353 0.9984986 0.9949839
000260 d4 fd 7d 3f 6a 12 80 3f ff 18 80 3f 73 3a 81 3f
       0.99215436 1.000562 1.0007628 1.0095962
000270 53 a6 80 3f 6a bf 80 3f 1e 2e 7e 3f 0f 0d 7f 3f
       1.0050758 1.0058415 0.9928912 0.996293
000280 9b 9e 80 3f d6 91 7d 3f 8f d7 7f 3f 60 70 80 3f
       1.0048403 0.99050653 0.9993829 1.0034294
000290 53 b5 7f 3f ec f3 7f 3f d6 3b 80 3f 2e 2a 7e 3f
       0.99886054 0.9998157 1.001826 0.9928311
0002a0 2d 77 7e 3f f4 45 80 3f f9 c8 7d 3f 51 b3 7e 3f
       0.994006 1.0021348 0.99134785 0.99492365
0002b0 59 41 80 3f 4f 62 80 3f 85 5e 7e 3f 5f cd 7f 3f
       1.0019943 1.0030001 0.99362975 0.99922746
0002c0 6c aa 7e 3f 2a ce 7e 3f 76 c8 80 3f cd b7 80 3f
       0.99478793 0.9953333 1.0061176 1.0056092
0002d0 db bf 7e 3f 3e d4 7f 3f 58 93 7e 3f 39 41 80 3f
       0.995115 0.9993323 0.9944358 1.0019904
0002e0 53 f5 80 3f ce 8f 80 3f 31 52 80 3f 3e 4f 80 3f
       1.0074867 1.0043886 1.0025083 1.0024183
0002f0 98 9c 80 3f de 8e 7f 3f b7 2c 80 3f ee 3d 7e 3f
       1.0047789 0.99827373 1.0013646 0.9931325
000300 48 08 80 3f c4 24 80 3f 16 9f 80 3f 02 45 81 3f
       1.0002527 1.001122 1.0048549 1.0099185
000310 6f 36 80 3f 30 3e 7f 3f 17 e7 7e 3f 84 f4 7f 3f
       1.0016612 0.99704266 0.99571365 0.99982476
000320 45 37 81 3f 68 5b 7e 3f a1 ef 7e 3f ff eb 7f 3f
       1.0094992 0.99358225 0.99584395 0.99969476
000330 e7 8f 80 3f 2c f6 7f 3f 95 5c 7f 3f 9c f9 7e 3f
       1.0043916 0.99985003 0.99750644 0.99599624
000340 03 8e 7e 3f 00 6b 80 3f 64 2f 80 3f b1 7c 7f 3f
       0.9943544 1.0032654 1.0014462 0.9979964
000350 5a 3a 81 3f e4 76 80 3f 35 0f 81 3f aa c9 7f 3f
       1.0095932 1.0036283 1.0082766 0.9991709
000360 c7 5c 7e 3f ec bc 80 3f 1d 19 81 3f 8b 91 80 3f
       0.99360317 1.0057654 1.0085789 1.0044416
000370 56 0d 7f 3f bd b4 7f 3f 5f db 80 3f c9 0f 80 3f
       0.99629724 0.9988516 1.0066947 1.0004817
000380 c5 50 80 3f 8c 2c 7f 3f 02 7c 80 3f 14 24 80 3f
       1.0024649 0.9967735 1.0037844 1.001101
000390 7d a6 7e 3f 82 96 80 3f 59 65 7e 3f d4 05 7f 3f
       0.9947279 1.0045931 0.99373394 0.9961827
0003a0 61 09 80 3f 13 40 7e 3f 02 53 80 3f fc c1 7e 3f
       1.0002862 0.9931652 1.0025332 0.99514747
0003b0 8a 85 7f 3f 43 f6 80 3f ce ce 7e 3f 68 05 80 3f
       0.9981314 1.0075153 0.9953431 1.000165
0003c0 f2 38 7e 3f 19 b5 7d 3f 83 fd 7e 3f 24 92 7e 3f
       0.9930564 0.9910446 0.9960558 0.9944174
0003d0 8e f1 7d 3f 68 87 7e 3f f6 56 7e 3f d9 ff 7f 3f
       0.9919671 0.99425364 0.9935144 0.9999977
0003e0 c1 b3 7d 3f d8 e7 7f 3f c1 8b 7f 3f 2b 1b 81 3f
       0.9910241 0.9996314 0.9982262 1.0086416
0003f0 68 00 81 3f 8c 2b 7f 3f 82 df 7f 3f d5 76 80 3f
       1.0078249 0.9967582 0.9995042 1.0036265

bn1.bias f4 [256]
000000 c4 94 5e bb 0a 2b 47 3b 5e 06 23 b9 33 d7 3e 3b
       -0.0033963183 0.0030390644 -0.00015547263 0.0029119968
000010 c2 ee cb bb 1e 0e c1 3b bf 1e 02 3c 0a f7 06 3c
       -0.0062235305 0.0058915755 0.007941901 0.00823761
000020 c8 a9 02 ba d1 b3 0d 3b 96 b6 63 3b ea ff 0c 39
       -0.0004984406 0.0021622072 0.003474628 0.00013446776
000030 3b 16 43 3c 12 45 44 3b d6 9e da bb b2 5c ff ba
       0.011907156 0.0029948396 -0.0066717668 -0.0019482581
000040 90 c6 be ba fd 75 9c 3b b5 c7 33 ba 23 62 7e ba
       -0.0014555026 0.0047748075 -0.0006858067 -0.00097039546
000050 34 4b 55 bb 1c 68 23 3c af 9b 80 ba b7 58 df ba
       -0.0032546045 0.009973552 -0.0009812022 -0.0017039989
000060 cd f7 be 3b 6e 68 3e 3b a9 09 c2 ba da 33 ec 3b
       0.00582788 0.0029053944 -0.0014803904 0.0072083296
000070 9c 88 b0 bb 16 ac 1b bc c0 f9 05 bc b6 a7 9c 3b
       -0.005387379 -0.009501478 -0.008177221 0.004780735
000080 e4 55 60 bb e1 96 a7 3b ce ec d2 bb 4f 54 4b 3b
       -0.0034230882 0.0051144217 -0.0064369207 0.0031025594
000090 cb f9 e1 b9 48 68 b8 b7 7e 31 aa bb cc ed aa 3a
       -0.00043101455 -2.1983069e-05 -0.005193888 0.001304084
0000a0 a2 c0 41 bb 5c 39 d6 3b 2d f5 de bb 7a cb 6b ba
       -0.002956428 0.0065375995 -0.0068041296 -0.0008994859
0000b0 b7 23 2f bc 94 2c 2d 3c 55 15 95 bb 2e 89 be 3a
       -0.010689667 0.01056971 -0.004549662 0.0014536732
0000c0 72 9e fa ba 1f 89 a6 ba 89 96 96 3b 5e 57 b0 3a
       -0.0019120707 -0.001270566 0.004595582 0.0013453772
0000d0 18 ca 91 b8 90 51 f3 ba 2d cb 08 bb fc 4f 0d 3c
       -6.951782e-05 -0.0018563736 -0.0020873055 0.008625027
0000e0 4b 07 3f bb 81 f9 92 3b 64 55 47 3a de d7 0e b9
       -0.0029148634 0.0044853096 0.0007603972 -0.00013622592
0000f0 ce cb 00 bc 5c 1f 94 bb 26 0a 18 3a af cc ac ba
       -0.007861091 -0.00452034 0.0005799852 -0.0013183559
000100 b0 d7 0a 3c a2 c5 87 ba 5f e6 54 bb b3 de 0a 3c
       0.0084742755 -0.0010358582 -0.0032485945 0.008475947
000110 5d af 04 3c c0 a9 e4 ba 39 33 ae 3b e8 8e e1 ba
       0.0080984505 -0.0017445609 0.005316165 -0.0017208727
000120 51 57 aa bb 9a f5 9b bb 7c a5 7c bb 30 c3 47 3b
       -0.005198397 -0.0047595026 -0.0038550785 0.003048133
000130 4b cc 4c bb 1d 48 8b bb b0 20 17 bb 3c f4 13 3b
       -0.0031249698 -0.00425054 -0.0023060255 0.0022575995
000140 3e be 68 3a 1e 07 73 3b 12 1a dc b9 e3 4c f5 3a
       0.0008878446 0.00370831 -0.00041981094 0.0018714931
000150 7d ba 96 bb f2 10 00 bc e1 77 b3 3b 55 d5 01 bc
       -0.004599868 -0.00781654 0.005476937 -0.0079243975
000160 8f cf 06 3c df 75 dc bb c4 76 dd 3a b4 8b 36 bc
       0.008228197 -0.0067279185 0.0016896357 -0.011141706
000170 4a 29 ed bb 7f ea fc bb 21 3d b2 3b d3 43 70 bb
       -0.007237588 -0.007718384 0.005439416 -0.003666152
000180 e1 f6 b8 3a 24 88 1b 3b 24 ac e2 b8 ed cc b5 bb
       0.0014111662 0.002373227 -0.000108085835 -0.0055481107
000190 15 ab 50 3b 0b 27 c3 3a 48 fe f6 bb 08 2d 01 bb
       0.0031840254 0.0014888955 -0.007537637 -0.0019710679
0001a0 57 e2 e8 3b 21 39 f9 3a 7a 45 f2 bb fa 4a f7 3a
       0.00710706 0.0019014218 -0.007393536 0.0018866949
0001b0 02 f8 b3 3b 51 7a c6 3b b8 0f 09 ba 16 07 83 bb
       0.0054922113 0.0060570617 -0.00052284775 -0.0039986474
0001c0 e7 15 88 bb 57 11 eb ba 62 ea 32 ba 10 6c fc ba
       -0.0041530016 -0.0017934245 -0.0006825087 -0.0019258279
0001d0 03 c3 1a bb 80 25 3b bc 87 e5 3e 3b be 53 bd 3b
       -0.0023614771 -0.011422515 0.0029128508 0.005777805
0001e0 1a 22 d4 3a e6 7b 0f 3c 61 a0 2b 3b a8 61 22 3c
       0.001618448 0.008757567 0.0026188123 0.009910978
0001f0 3d d3 07 bc 10 6b 43 b8 7a 7a cb 3b 02 69 2d 3b
       -0.008290109 -4.6591333e-05 0.0062096687 0.0026460295
000200 fa a8 72 bb a1 7a 0d bc 26 a3 6f 3b 91 91 01 3b
       -0.0037026987 -0.008635194 0.003656575 0.0019770602
000210 a5 d6 49 3b 9c 31 9d ba ba 6a 36 3c f4 21 9e 3b
       0.0030798104 -0.0011992934 0.011133844 0.004825825
000220 d7 53 72 3b 11 1b c8 3a 31 db 36 bc 4e ab 96 ba
       0.0036976242 0.0015266855 -0.011160658 -0.0011495145
000230 8c 7e e8 b9 b5 02 f6 ba af b6 d9 3a 0c 5c b6 3a
       -0.00044344773 -0.0018769117 0.001661023 0.001391293
000240 15 4e 2a bb 04 66 90 3b 2a de 56 3b 11 f3 f4 3b
       -0.0025986482 0.0044066925 0.0032786229 0.007475265
000250 e2 28 52 bb 99 1b fa 3b e3 84 ae bb 31 d1 88 bb
       -0.0032067825 0.0076326844 -0.0053259 -0.004175328
000260 fd cf 2f bc 4f ea 70 3b 87 73 66 b9 85 fe f6 3b
       -0.010730741 0.0036760753 -0.00021977547 0.0075376653
000270 26 e5 97 3b 30 58 0a 3c 4b cd 58 bb 51 bc d4 3a
       0.004635471 0.008443877 -0.0033081349 0.0016230439
000280 f6 cb 84 bb 3e 77 1d bc dc d3 42 bb f3 ba e0 3a
       -0.0040526344 -0.009610949 -0.0029728329 0.0017145559
000290 af 04 a0 bb 57 64 cc b9 60 61 e9 3b 98 2a a7 bb
       -0.004883371 -0.0003898467 0.0071222037 -0.005101513
0002a0 19 49 89 3b 9a c5 89 bb f3 d0 19 3a c1 6d a4 bb
       0.004189622 -0.004204464 0.00058676227 -0.0050179665
0002b0 61 ce 64 3a 02 c9 9b 3a 74 95 ec bb b7 e8 13 3b
       0.00087282626 0.0011885467 -0.0072199646 0.0022569129
0002c0 75 8e 0a bc f7 a5 be bb b2 e2 e9 ba ea 98 b8 3b
       -0.008456816 -0.0058181244 -0.001784405 0.005633463
0002d0 bd b2 08 bc 63 b8 50 bb 49 c7 2a 3b a4 3b 6f 3a
       -0.008343396 -0.0031848184 0.0026058725 0.00091260136
0002e0 6c 04 fd 3b c8 74 e3 3b 95 22 f0 3b 58 00 59 3b
       0.0077214744 0.0069414116 0.0073283412 0.0033111777
0002f0 1c fd e2 3b 13 99 ad bb 9e 08 0e 3a e5 9c dc bb
       0.0069271456 -0.005297789 0.0005418154 -0.0067325705
000300 a7 2a 15 3b d1 f4 d1 ba 9b 62 7a 3b d5 9c f7 3b
       0.0022761018 -0.0016018396 0.0038205746 0.0075565376
000310 80 fb a6 3b 53 81 69 3b f6 ff ce bb 23 65 2d 3b
       0.005095899 0.0035630062 -0.006317134 0.0026457987
000320 e4 0c 05 3c 76 1a d5 bb 93 5e 53 bb 17 28 a6 bb
       0.008120749 -0.0065033985 -0.0032252416 -0.005070697
000330 2d 1b 69 3b bb 42 ab bb b3 c5 0f bb 4b 5c ec bb
       0.0035569177 -0.0052264608 -0.0021937906 -0.0072131506
000340 d0 2f 65 bb b4 fb 2d 3b 91 db 54 bb f9 f6 84 ba
       -0.0034971125 0.0026547732 -0.0032479505 -0.0010144404
000350 62 de 0f 3c 12 8f 8e 3b 1d 74 e9 3b bd 62 ce 3a
       0.008781048 0.0043505514 0.0071244375 0.0015745979
000360 e5 3f 4d bb c1 97 0c 3c f8 4f 15 3c d9 db e4 3b
       -0.0031318602 0.008581103 0.009113304 0.0069842157
000370 80 47 44 bb 12 db b5 b9 f9 31 ec 3b 06 64 61 3a
       -0.0029949844 -0.0003468623 0.0072081056 0.00085979735
000380 ae 39 63 bb d9 55 f7 bb cc 4a b0 3b f7 5c 1e ba
       -0.003467183 -0.0075480756 0.00538001 -0.00060410745
000390 f5 06 81 3a 71 c3 5b 3a 05 8e c1 bb d5 a2 a5 ba
       0.0009843992 0.000838331 -0.0059068226 -0.0012637029
0003a0 f8 1e fc bb ba a8 95 bb a2 60 02 3c 88 d5 4c bb
       -0.0076941215 -0.004567233 0.007957609 -0.0031255204
0003b0 f4 75 4f bb d5 4c b4 ba 11 d5 e5 bb 66 bc de bb
       -0.0031656 -0.0013755808 -0.007013925 -0.006797361
0003c0 95 ed b2 ba e9 c3 18 bc 64 2e d2 39 88 69 8b bb
       -0.0013651127 -0.009324052 0.00040088885 -0.0042545237
0003d0 c9 23 ef bb 63 a9 cb bb 84 af fa bb 04 d2 b4 3b
       -0.007297967 -0.006215261 -0.0076503176 0.0055182
0003e0 55 bf e3 bb d2 e9 e8 39 4e c2 82 bb 6f b9 a5 3b
       -0.006950299 0.00044424698 -0.003990448 0.005057506
0003f0 c4 40 16 3b a0 3c 30 bb e5 48 fd 3a 68 1d 54 3a
       0.0022926787 -0.0026891604 0.0019324092 0.000809154

bn1.running_mean f4 [256]
000000 a9 6c 22 be bb 54 2f 3b fa d1 06 bd 49 f0 44 3e
       -0.15861763 0.0026753384 -0.032915093 0.19232287
000010 3a 7e 03 be 61 ce 71 3e 03 70 10 bf 53 f6 35 3d
       -0.1284112 0.23613884 -0.56420916 0.044424366
000020 46 ee a8 bd 2f 7f 61 3e 30 ee dc bd 30 dd ff 3c
       -0.08248572 0.22021173 -0.10787618 0.0312334
000030 9c a2 48 bf 0d 95 b4 3d c5 2c 94 3e 8d 70 60 3d
       -0.7837312 0.08817492 0.28940406 0.054794837
000040 83 c4 87 3e ab fe b5 bd a3 be 15 3f ee ee cc bc
       0.26517114 -0.08886465 0.58494014 -0.025016274
000050 7f 3f cb bd a0 86 f0 3e f2 96 73 3e 1f d8 fd 3d
       -0.0992422 0.4697771 0.2378805 0.123947375
000060 cd f7 85 be 20 b4 4f 3d ea f3 ed 3d 5a dc 30 be
       -0.2616562 0.05070889 0.116187885 -0.17271557
000070 31 75 0f 3d d1 53 e1 3d fe bb 3b 3c 7d c2 84 be
       0.03502387 0.11002315 0.011458395 -0.25929633
000080 8a fc 95 be 48 4e 98 bb a2 ca 5c be 03 af 9e be
       -0.29294235 -0.0046480037 -0.21561673 -0.30992898
000090 65 71 7b be 7a 07 5b 3d 95 2a 00 3f b2 6f 31 3e
       -0.24554975 0.053473927 0.50064975 0.17327765
0000a0 1c 8d 3d be dc 40 d1 3e 4e 15 1f 3e 97 68 9f 3d
       -0.1851086 0.40869796 0.15535471 0.07783621
0000b0 ac 87 25 3a 7b 93 53 bb f9 76 f7 3d 5f ed b4 3e
       0.0006314467 -0.003228395 0.12083239 0.3533735
0000c0 f8 b5 ea be b3 14 2b be 4e a9 4c be 1b 57 ce 3e
       -0.45841956 -0.16707115 -0.1998646 0.4030083
0000d0 a6 b6 01 bd be 2d 98 bc 07 03 0f bd 47 d8 1d be
       -0.031668328 -0.0185765 -0.034914996 -0.15414535
0000e0 29 eb e8 bc bb d5 c2 3e d5 b9 8f 3e 60 73 d9 3d
       -0.028432446 0.38053688 0.28071466 0.10617709
0000f0 8f 28 08 3e 44 35 07 bd f2 53 85 bd 12 5e 30 bd
       0.13296722 -0.033009782 -0.06510152 -0.043058462
000100 b6 9e 6a 3e 0c 8a 0f 3e c2 c0 5a bc cb 98 20 3c
       0.22912106 0.14017504 -0.013351621 0.009802054
000110 97 08 98 be c4 3a 17 be be 2d c8 bd 76 a1 99 3e
       -0.29694054 -0.14768511 -0.0977435 0.30005997
000120 50 2f c3 be f4 24 a9 be 99 da 89 3e 51 69 75 3e
       -0.38122034 -0.33036005 0.2692459 0.23965956
000130 b6 62 ec 3b 99 53 4e be 6f 65 05 be dd 4d 21 be
       0.0072139157 -0.20149077 -0.13026975 -0.15752359
000140 92 f0 79 bd 74 ed 2c be 7d 3c c4 3d 74 1a 84 3e
       -0.06102044 -0.16887456 0.0958185 0.25801432
000150 92 e0 8c be 69 27 bb 3e 30 5a a0 3d 6f 21 b2 bd
       -0.27515084 0.36553505 0.07829702 -0.08697783
000160 40 a9 8d bd e5 e9 3d 3d ca a5 b4 be be 61 55 be
       -0.069170475 0.046365637 -0.35282737 -0.20838067
000170 43 93 66 3e 39 4e 3b be 0c 4b 94 3e 18 ca 25 3e
       0.22517113 -0.18291558 0.28963506 0.16190374
000180 3d 49 70 be 5e ff 3d 3e 02 67 2f 3e 32 0f 3d be
       -0.23465438 0.18554446 0.17129138 -0.18462828
000190 9b b0 ff be eb 81 66 3e 3d cc 79 3e dd 24 ca 3d
       -0.49939427 0.22510497 0.24394317 0.09870312
0001a0 f1 f0 9f 3d 5d f2 df bd 89 53 fe 3d fd 7d ca bc
       0.07809628 -0.10934899 0.12418277 -0.024718279
0001b0 c8 00 96 3d d4 8b 85 be 15 3d 72 3e 16 37 21 3e
       0.07324368 -0.26083243 0.23656113 0.1574367
0001c0 1f 6e 17 3e 7b 73 6a bd b7 6c 8f 3e 17 62 05 3d
       0.14788102 -0.057239037 0.2801263 0.03256425
0001d0 53 f2 e5 bd b1 4c 53 3e 33 57 79 be 1c 7e 48 3e
       -0.1122786 0.20634724 -0.2434967 0.19579357
0001e0 7a 99 ca 3e 40 90 7d be cb 74 22 3f 38 dd b5 3d
       0.39570218 -0.24762058 0.6345946 0.08880085
0001f0 21 5e 1d bd a0 ee 7c 3d aa d0 18 be 3c a5 f0 bd
       -0.038419846 0.061751008 -0.14923349 -0.11750266
000200 a8 95 d3 3d a2 8c 1c 3f 31 48 bd 3d 68 64 f2 3d
       0.10331279 0.6115209 0.09242285 0.11835557
000210 6d 48 6a 3e 21 58 1a be 27 2e 0d be a5 d5 74 be
       0.2287919 -0.15072681 -0.13787137 -0.23909624
000220 64 9f eb 3c 62 53 bd 3c 5f 4e 21 be 84 a5 98 3e
       0.028762527 0.02311105 -0.15752552 0.29813778
000230 87 74 53 bd f8 76 a4 3e 91 15 e2 3d fc 59 f1 3d
       -0.0516248 0.32122016 0.1103927 0.11784741
000240 79 f5 d1 be 11 c1 87 3e b6 2b 4e 3e 13 26 23 bf
       -0.41007593 0.26514485 0.20133862 -0.6372997
000250 31 c0 cc 3d 7f af 26 3f 78 23 9c 3e dc d5 87 be
       0.09997595 0.65111536 0.3049581 -0.2653035
000260 e3 9b 67 3e 04 3d c8 bd b2 e6 59 3e 3b ae b8 3e
       0.2261806 -0.09777263 0.2127941 0.36070427
000270 02 19 e4 be 58 5f a0 bc 5e 93 5b bd 23 06 bc bd
       -0.4455033 -0.019576713 -0.053607337 -0.09180858
000280 e8 69 78 3e 58 c1 a6 3e 13 81 2e 3e e8 a1 4f be
       0.2425915 0.32569385 0.17041425 -0.20276606
000290 d3 5f 92 3e d9 7b 4d be 82 03 23 3e d1 c7 e3 be
       0.28588733 -0.20066775 0.15919307 -0.44488385
0002a0 0d 7b da bd e3 0a ad be 80 ed 9a be 2e 2a e9 bd
       -0.10668001 -0.33797368 -0.30259323 -0.11384998
0002b0 5a 26 d4 3e 17 92 b9 3e 6a 77 e3 3c 17 0b cc be
       0.4143551 0.3624427 0.027766902 -0.3985221
0002c0 39 02 df bc d5 9c e4 be ca 8d 9b be ff d4 34 3e
       -0.02722274 -0.44650903 -0.30381614 0.17659377
0002d0 07 40 91 be 0c 26 05 be d6 33 79 3e ae 2f 45 be
       -0.2836916 -0.13002795 0.2433618 -0.1925647
0002e0 26 0b 0f 3e bf 52 48 3e 2a 30 06 3e dd aa 12 3d
       0.13969097 0.19562815 0.1310431 0.03580748
0002f0 ac 47 a8 bd 29 8a 34 3f 9c 9a d1 3e 19 22 d9 3d
       -0.08216795 0.70523316 0.4093827 0.10602207
000300 2e c1 03 3e 80 bf 57 3e 30 53 d5 3d 3b 07 40 3e
       0.12866661 0.21069145 0.104162574 0.18752758
000310 46 06 be bd 50 bb 06 be 23 89 59 3e be 64 24 be
       -0.0927854 -0.13157392 0.2124372 -0.16054055
000320 8e 63 15 bd 24 22 7a 3e c2 7c a5 bd ee 91 89 3b
       -0.036471896 0.24427086 -0.08080436 0.0041983044
000330 ac ca 35 3e 4a a6 2a 3e 85 a2 b0 3e af 9e e2 3e
       0.17753094 0.16664997 0.34498993 0.4426169
000340 e8 10 80 be 8a f2 e1 3c fb 6c 1a be ab 96 7e be
       -0.25012898 0.027581472 -0.15080635 -0.24862163
000350 84 0b 9d 3e 1e 8f 18 3d a5 b2 d2 3e a5 b7 3a be
       0.30672848 0.037245862 0.4115192 -0.18234117
000360 44 ca a7 be f9 9e 0e be 72 66 04 bf a1 1e 5e bd
       -0.32771504 -0.13927831 -0.5171882 -0.05422843
000370 be 8a d4 be 07 0d bc be de e0 76 be 0c 8f 94 3e
       -0.41512102 -0.3672869 -0.24109218 0.29015386
000380 da b4 a9 bd a5 bd c9 3e 41 09 65 3d 88 62 a6 3d
       -0.08286448 0.394025 0.05591703 0.08124262
000390 51 1a 99 bd 74 a1 6a 3e 2a 4f d0 bd 85 d0 22 3e
       -0.074757226 0.22913152 -0.10171349 0.15899856
0003a0 24 e2 c1 be 50 2f 69 3d 82 a3 2c 3d 82 45 ee 3e
       -0.37867844 0.056929886 0.04214812 0.46537405
0003b0 36 cd 69 3e 93 e0 8e be a5 34 a6 be 31 39 ee 3d
       0.22832188 -0.27905712 -0.3246204 0.11632002
0003c0 84 10 5d be d1 ae 4f 3e da d3 c3 3e 39 b5 2b be
       -0.21588331 0.20281531 0.38247567 -0.1676835
0003d0 72 8c 7b 3e 79 ca 90 be 2c b3 9d 3e aa dc a5 bd
       0.24565294 -0.28279474 0.3080076 -0.08098729
0003e0 94 b4 f1 be 56 a2 04 be 59 1c 7b bd d0 06 1a bc
       -0.47208083 -0.12952551 -0.06130633 -0.009401038
0003f0 db f1 5a 3e 09 57 3d 3e 7e 85 85 3e 80 f8 48 3e
       0.21381323 0.18490233 0.2607841 0.19626045

bn1.running_var f4 [256]
000000 c9 fb 31 3e 6b 18 33 3e 1c 9d 31 3e 59 ff 32 3e
       0.17381205 0.17489783 0.17345089 0.1748022
000010 86 56 33 3e 02 27 35 3e bc 35 33 3e 8b 34 36 3e
       0.17513475 0.17690662 0.17500967 0.17793481
000020 24 fa 32 3e a5 b0 33 3e 69 ab 33 3e 84 b0 35 3e
       0.17478234 0.17547853 0.17545857 0.17743117
000030 03 1c 36 3e fa 5e 36 3e e6 c3 30 3e 14 9c 31 3e
       0.17784123 0.17809668 0.1726223 0.17344695
000040 71 20 33 3e 6e b1 34 3e 2d 88 31 3e f0 09 32 3e
       0.17492844 0.17645809 0.17337103 0.17386603
000050 0a 8f 31 3e 9e df 30 3e d7 02 31 3e f2 d8 31 3e
       0.17339721 0.17272803 0.1728624 0.17367914
000060 39 dc 2f 3e 8a c0 33 3e 61 52 32 3e 1c 5f 34 3e
       0.17173852 0.17553917 0.17414238 0.17614406
000070 28 96 33 3e 92 f2 31 3e f5 63 32 3e 32 4d 34 3e
       0.17537749 0.1737769 0.17420943 0.17607573
000080 6b 51 34 3e e1 f2 35 3e 53 5d 31 3e d8 79 32 3e
       0.17609183 0.17768432 0.17320757 0.17429292
000090 47 e6 33 3e 46 e1 32 3e 78 3a 32 3e 07 eb 30 3e
       0.17568313 0.17468747 0.17405117 0.17277156
0000a0 02 d5 31 3e e4 66 31 3e 32 50 30 3e 0f f2 31 3e
       0.17366412 0.17324406 0.17218092 0.17377494
0000b0 ce 13 35 3e ae 00 32 3e 5d 99 33 3e 03 c8 32 3e
       0.17683336 0.17383072 0.17538972 0.17459111
0000c0 7f 14 33 3e 53 ea 33 3e 33 2b 31 3e d9 9c 2f 3e
       0.17488287 0.17569856 0.17301635 0.17149676
0000d0 6e 32 31 3e db 5b 31 3e 2a 2f 32 3e 85 bd 34 3e
       0.17304394 0.17320196 0.17400804 0.17650421
0000e0 0a cb 31 3e 81 66 31 3e 44 4f 32 3e 7f da 30 3e
       0.1736261 0.17324258 0.1741305 0.1727085
0000f0 7d 42 30 3e a2 4c 31 3e 7f bc 34 3e c1 10 32 3e
       0.17212863 0.1731439 0.1765003 0.17389204
000100 f2 60 32 3e f4 01 33 3e a7 10 34 3e 53 0d 33 3e
       0.17419794 0.17481214 0.17584477 0.17485552
000110 aa 3c 35 3e 5c bd 35 3e 7a 10 31 3e 17 23 36 3e
       0.17698923 0.17748016 0.17291442 0.17786823
000120 43 0f 34 3e 11 00 33 3e e0 3c 31 3e 34 2c 38 3e
       0.17583947 0.17480494 0.17308378 0.17985612
000130 49 e0 32 3e f6 52 30 3e b0 5d 33 3e 01 af 31 3e
       0.1746837 0.17219147 0.17516208 0.17351915
000140 af ab 31 3e 78 82 33 3e 83 0b 32 3e fd 82 35 3e
       0.17350648 0.17530239 0.17387204 0.1772575
000150 94 94 31 3e 4d d4 30 3e 8f ac 31 3e d9 c5 34 3e
       0.17341834 0.17268486 0.17350982 0.17653598
000160 cf d0 31 3e 20 b0 34 3e 60 c0 31 3e b7 0c 33 3e
       0.1736481 0.17645311 0.17358541 0.17485319
000170 cc 2d 31 3e 96 71 30 3e 11 49 35 3e 9d 3d 35 3e
       0.17302626 0.1723083 0.17703654 0.17699285
000180 c1 25 33 3e 86 eb 31 3e 89 2a 34 3e 6e ed 32 3e
       0.1749487 0.17375001 0.17594351 0.17473385
000190 fa fa 32 3e 01 04 38 3e c4 f8 32 3e ae 48 35 3e
       0.17478552 0.17970277 0.17477709 0.17703506
0001a0 f2 00 32 3e af 63 38 3e 1f ea 35 3e 07 13 31 3e
       0.17383173 0.18006776 0.17765091 0.17292415
0001b0 82 97 34 3e 3c 93 33 3e f4 33 30 3e 9f 51 32 3e
       0.1763592 0.17536634 0.17207319 0.17413948
0001c0 b7 f9 31 3e 4b a9 31 3e 4d d4 32 3e df fc 31 3e
       0.17380415 0.17349736 0.17463799 0.17381619
0001d0 99 ad 32 3e a5 ff 30 3e a2 5a 33 3e 65 4a 30 3e
       0.17449035 0.1728502 0.17515042 0.1721588
0001e0 2a 76 30 3e 66 2e 30 3e 6d 42 32 3e 85 64 35 3e
       0.17232576 0.172052 0.17408152 0.17714126
0001f0 91 80 36 3e 0c b5 32 3e f6 4e 33 3e a2 51 30 3e
       0.17822482 0.17451876 0.1751059 0.1721864
000200 2a 01 33 3e 99 4c 34 3e cd 4f 31 3e 4f ad 33 3e
       0.17480913 0.17607345 0.17315598 0.1754658
000210 36 2b 33 3e 08 ea 39 3e 11 df 32 3e f4 85 32 3e
       0.17496952 0.18155682 0.17467906 0.17433912
000220 3e 3f 34 3e 49 89 31 3e 8d 57 30 3e 83 a9 34 3e
       0.1760225 0.17337526 0.17220898 0.17642789
000230 d2 9b 34 3e c3 1b 34 3e b9 bb 33 3e 49 e0 31 3e
       0.17637566 0.17588715 0.1755208 0.17370714
000240 f6 08 30 3e 10 92 32 3e a8 23 33 3e a0 c7 31 3e
       0.17190918 0.17438531 0.1749407 0.17361307
000250 c1 58 32 3e 3c 48 31 3e 84 13 36 3e fa 8e 32 3e
       0.1741667 0.17312711 0.17780882 0.17437354
000260 f5 c5 34 3e 3b 1b 35 3e 92 51 33 3e ef 65 33 3e
       0.1765364 0.17686169 0.17511585 0.17519353
000270 4f 7d 33 3e 53 0b 34 3e 1a a3 32 3e b6 e5 30 3e
       0.1752827 0.17582445 0.17445031 0.17275128
000280 e4 df 2f 3e 5d b8 35 3e 67 93 30 3e e3 64 35 3e
       0.17175251 0.1774611 0.1724373 0.17714266
000290 4f d8 32 3e 0c d3 30 3e 8f cc 31 3e a2 15 33 3e
       0.17465328 0.17268008 0.17363189 0.17488721
0002a0 56 70 34 3e 81 89 34 3e bb 81 32 3e 54 54 36 3e
       0.17620978 0.17630579 0.17432301 0.17805606
0002b0 8d 43 32 3e fb c3 35 3e ea 65 33 3e 1f 99 30 3e
       0.17408581 0.17750542 0.17519346 0.17245911
0002c0 bf c0 33 3e 97 82 35 3e 9e 64 32 3e 3c 7d 34 3e
       0.17553996 0.17725597 0.17421195 0.17625898
0002d0 68 15 30 3e 13 6c 33 3e 72 c0 33 3e 87 15 33 3e
       0.17195666 0.17521696 0.17553881 0.17488681
0002e0 16 90 31 3e a6 2c 32 3e d1 55 32 3e a7 6f 31 3e
       0.1734012 0.17399845 0.17415549 0.17327748
0002f0 88 a1 31 3e 4b 8d 33 3e a0 a0 35 3e 5e 73 35 3e
       0.17346776 0.17534368 0.17737055 0.1771979
000300 58 26 36 3e fb 96 34 3e 68 5a 32 3e f5 6b 33 3e
       0.17788064 0.1763572 0.174173 0.17521651
000310 60 78 31 3e ed 53 32 3e 0d e5 34 3e 5f 5a 36 3e
       0.17331076 0.17414828 0.17665501 0.17807911
000320 ed 2f 30 3e 56 9e 31 3e 10 22 35 3e df dd 30 3e
       0.17205782 0.17345557 0.17688775 0.17272137
000330 c2 8d 31 3e 9e 05 31 3e 1b 12 32 3e 2c 9e 38 3e
       0.17339233 0.17287299 0.17389719 0.18029088
000340 b9 57 33 3e 6b 52 31 3e d2 58 34 3e 99 21 31 3e
       0.17513932 0.17316596 0.17612007 0.17297973
000350 1f 45 31 3e bb de 34 3e 6b c1 31 3e 9e 47 30 3e
       0.17311524 0.1766309 0.1735894 0.1721482
000360 39 b9 31 3e a0 2a 32 3e 09 46 30 3e 09 11 31 3e
       0.17355813 0.17399073 0.17214216 0.17291655
000370 d3 41 31 3e 6a cd 30 3e 7b d2 33 3e 2d 72 32 3e
       0.17310266 0.17265859 0.1756076 0.17426367
000380 4c 60 32 3e 0e 3f 30 3e 17 06 32 3e e8 f7 35 3e
       0.17419547 0.17211553 0.17385136 0.1777035
000390 dd b7 37 3e 6a 7b 37 3e c7 6e 36 3e 11 f1 31 3e
       0.17941232 0.17918172 0.17815696 0.17377116
0003a0 a1 41 38 3e 16 17 30 3e c9 5e 2f 3e da 31 32 3e
       0.17993785 0.17196307 0.17126001 0.1740183
0003b0 5a 7d 32 3e 9d 0e 33 3e 63 29 32 3e ae d3 3a 3e
       0.1743063 0.17486043 0.173986 0.18244812
0003c0 2e 6c 31 3e 47 92 33 3e c8 ca 31 3e 62 20 34 3e
       0.17326424 0.17536269 0.17362511 0.17590478
0003d0 49 b8 34 3e c9 af 31 3e f1 94 32 3e 7e e6 32 3e
       0.17648424 0.17352213 0.17439629 0.17470738
0003e0 b3 a1 30 3e e0 3f 34 3e 62 a6 34 3e 05 4e 32 3e
       0.17249183 0.17602491 0.17641595 0.17412575
0003f0 93 70 31 3e 02 f1 2f 3e 70 8b 33 3e 0e 91 30 3e
       0.173281 0.17181781 0.1753366 0.17242834

fc2.weight f4 [128, 256]
000000 30 0a f7 3c 41 7d c2 3c 0a b5 28 3c f7 bf dc 3b
       0.030156225 0.023741366 0.010297069 0.006736751
000010 e1 6f 0e 3d a5 e7 06 bc 14 44 7a 3d 32 cc dd 3b
       0.034774665 -0.008233939 0.06110008 0.0067687267
000020 bf e3 29 3d d3 00 c8 3c 69 cd 74 3d 79 14 68 bc
       0.04147696 0.024414456 0.059766207 -0.014165037
000030 be 95 b3 3b 06 86 2d bb d7 52 10 3d d0 a4 7e 3d
       0.005480497 -0.002647759 0.035235252 0.062168896
000040 7c 62 21 bd d6 88 12 3d 4c 2d 43 3d 04 74 2b 3d
       -0.039400563 0.03577503 0.04765062 0.041858688
000050 43 5c 5f bd b3 65 b8 bc d1 7b b7 bc b0 a4 77 3d
       -0.054531347 -0.022509431 -0.022397907 0.060459793
000060 46 20 98 bc c3 ed 23 bc d5 03 ac 3c 5e 0e 37 3d
       -0.018570077 -0.010005417 0.020997921 0.044691436
000070 5a 2b 26 3a 98 ac 7e 3c a2 5a 6f bd 69 01 64 3d
       0.00063388573 0.015544079 -0.058436044 0.055665407
000080 87 0b 27 bb dd ea 4c bc b0 82 4c 3d b3 a6 23 bd
       -0.0025489049 -0.012507168 0.04992932 -0.0399539
000090 4a c3 1d 3d c5 70 19 3d 97 1f 1f bd 4e eb f2 bc
       0.03851632 0.03746106 -0.038848486 -0.029653218
0000a0 dc 16 23 3d 1b 22 4d bd ae ce da bc 3d 24 37 3b
       0.039816722 -0.050081354 -0.02670988 0.0027945184
0000b0 92 2c 06 3c d7 32 fc bb 9d 23 f3 bc bc 5a d9 3c
       0.008189337 -0.0076964903 -0.029680068 0.026532523
0000c0 df 15 20 3d 03 62 51 bd cc 8d c9 3c 89 ed 31 3d
       0.039083358 -0.051118862 0.024603747 0.04343942
0000d0 e0 a8 aa bc c2 75 da bb 04 7a 80 bd 00 57 6a bd
       -0.020832479 -0.00666687 -0.06273273 -0.057211876
0000e0 c0 a4 bf 3c 71 10 3b 3d 8d 1f 5e 3d db 2a 82 bd
       0.023393989 0.045669977 0.054229308 -0.0635583
0000f0 dc 62 62 3d 3a a3 dd 3c a1 e7 9c 3c 4f 27 12 bc
       0.05527006 0.027055372 0.019153418 -0.008920505
000100 5f 84 30 3d a0 e4 13 3c 8f ed 46 bc 3c 19 12 bd
       0.04309499 0.009026676 -0.012141599 -0.035668597
000110 3f 77 31 bd e0 82 bd bb be a8 4a 3d ad f7 8b 3b
       -0.043326613 -0.005783424 0.04947733 0.0042714686
000120 9e fd 73 3d 7e 61 3d 3d 88 d2 84 bd 83 1f 0a bd
       0.05956804 0.046235554 -0.06485468 -0.03372146
000130 bc c0 57 bd dd 7e eb 3c fc c0 2a bc 5d 62 49 3d
       -0.05267404 0.028747017 -0.010421988 0.049166072
000140 74 3d 64 bd ba eb 44 bc 3b e3 83 3d f9 7b e7 bc
       -0.05572267 -0.012019092 0.06439825 -0.028257357
000150 7c e8 35 3b 1e cd e3 bc 31 b7 2a bd 41 77 1a 3d
       0.002775698 -0.027807768 -0.04167861 0.037711386
000160 eb cb d7 3c 78 d8 11 3c 89 1a 56 3d ef 1f a5 bc
       0.026342353 0.008901708 0.0522714 -0.020156829
000170 70 11 87 3c 27 db 07 bc f8 ba 10 3d 9b a7 0c bc
       0.016487807 -0.008291996 0.035334557 -0.008584882
000180 bf 84 18 bd df 15 55 bd 68 8d 8d bc 39 54 28 bd
       -0.03723597 -0.05202281 -0.017279342 -0.041095946
000190 91 64 ab 3b 21 75 5a bd ad 76 04 3c 46 99 a0 bc
       0.0052304943 -0.05333436 0.008084935 -0.019604336
0001a0 a7 43 26 3d d9 56 d6 3b 5d f4 79 bd fd d5 34 bc
       0.040591862 0.0065411148 -0.06102406 -0.011037347
0001b0 1b c6 45 3d 5e 2d aa bc 99 6f 4e bd 53 6a 29 3d
       0.04828463 -0.020773586 -0.050399397 0.041361164
0001c0 9e 4b 72 3d ed 36 2c bd 91 a5 27 3d db 3d 1e bc
       0.059154145 -0.04204457 0.04092938 -0.009658302
0001d0 6e 51 9e bc 7b 3e c5 bc aa 2e 16 3d 86 1d 05 bd
       -0.019325938 -0.024077645 0.036665596 -0.03249886
0001e0 8b 72 5b 3d f0 c0 07 3d 1b 7d 82 bb 4c 13 1d 3d
       0.053576034 0.033142984 -0.003982199 0.03834848
0001f0 0a ee ce 3c c7 97 82 bd 8c 41 2e bc fa 05 ad bc
       0.02525999 -0.063766055 -0.010635745 -0.021121014
000200 fa cc 43 3c 27 42 12 bc 8b 36 5a bd ce 26 18 3c
       0.011950726 -0.008926905 -0.053274672 0.0092865955
000210 a0 c2 a8 3b bd 2d 4f bb 20 ee c1 3a 5b f3 c7 bc
       0.0051501542 -0.0031612955 0.0014795698 -0.024408033
000220 f8 fd 5a 3d 3c b8 62 bd f5 fa e1 3c bd b7 3f bc
       0.05346486 -0.05535148 0.027585486 -0.011701521
000230 f0 24 4c 3d 96 b3 c0 bb 31 d5 36 3d 4c 5c 02 3d
       0.049839914 -0.0058807833 0.04463691 0.031826302
000240 38 66 a5 b9 c8 5f 5e 3d e8 3e 59 bd d7 f9 d7 bb
       -0.0003154741 0.054290563 -0.053038508 -0.0065910625
000250 ef 70 56 3d bd 9f 8f bb 0d 63 83 3b e1 bd 5b bc
       0.052353796 -0.004383056 0.0040096105 -0.01341197
000260 62 36 8e bc 47 3d 11 bd e9 65 6f 3d 91 b8 35 3d
       -0.017359916 -0.03545883 0.0584468 0.04436547
000270 55 b2 1b bd 98 ec 63 bd 6c 7a 69 bd 60 30 e7 bc
       -0.038011868 -0.055645555 -0.057001516 -0.02822131
000280 40 fd e8 bc 78 c3 e5 bc 2f b4 3c 3d 00 be 3b 3d
       -0.028441072 -0.028047308 0.046070274 0.045835495
000290 fa e9 15 3c 87 de 98 bc 70 c2 5c bd 5e d3 64 bc
       0.009150023 -0.018660797 -0.053896368 -0.0139664095
0002a0 59 3c 8e 3c 76 8f 2a bb b0 ac 4e 3b 20 c1 a8 ba
       0.01736276 -0.002602545 0.0031536035 -0.0012874939
0002b0 42 47 0b 3d 49 5c 5f 3d cf 92 fc bc 90 f9 31 3c
       0.034003504 0.05453137 -0.030831723 0.010862723
0002c0 18 70 10 bd 5e 64 6c bd ba 02 a3 3c 3c 1b 64 3d
       -0.03526315 -0.057712905 0.019898761 0.055690035
0002d0 07 dd 82 bd 02 52 69 bd 98 33 db 3b b6 fb 3b bd
       -0.06389814 -0.056962974 0.0066895 -0.045894347
0002e0 76 37 bd bc d0 33 57 3b 3c 19 63 bd ae 06 b3 3c
       -0.023097735 0.003283728 -0.055443987 0.021853771
0002f0 06 aa 70 3d 65 42 55 3d 2d 8c 82 bd c6 03 bd bc
       0.058755897 0.052065272 -0.06374393 -0.023073088
000300 22 d4 34 bd e3 a9 81 3d 1c 6e 92 3d 4a 96 85 ba
       -0.044147618 0.063312314 0.07149908 -0.0010191884
000310 e3 60 4e bc 1e 49 e7 3c ba 1b 44 bd 65 a0 a9 3c
       -0.012596342 0.028233107 -0.047878005 0.020706365
000320 2a e1 15 bd f7 01 07 bb ff 4f 82 3c 51 05 10 3d
       -0.036591686 -0.0020600536 0.015907286 0.03516132
000330 95 f1 c1 bc 07 fc ee 3b c1 15 8a 3d ff bf 97 bc
       -0.023674766 0.0072932276 0.067424305 -0.018524168
000340 fe f2 22 3d fe 2c 18 bc 91 91 a2 bb e6 5e c4 bb
       0.039782517 -0.009288071 -0.0049612005 -0.005992758
000350 b9 f9 68 bd 6e 22 0f bd b9 ea 39 bc 20 c5 44 bd
       -0.05687878 -0.034944944 -0.011347466 -0.048039556
000360 e2 a4 64 3c ca 27 71 b9 d2 b4 85 3c 8b fd 58 bd
       0.013955327 -0.00022998374 0.016321573 -0.052976172
000370 e7 3e 99 bc 52 5b 6c bd 5a 47 3a bd ea 4d 0f bd
       -0.018706752 -0.057704277 -0.045478202 -0.034986414
000380 af 7c 45 bc 22 b2 87 3d 43 cb 25 3d a5 a0 9b bb
       -0.012053653 0.06625773 0.04047705 -0.004749375
000390 dd 68 11 3b bd 8b 95 3c 0a 2a 24 bd 9c 8d 8b 3c
       0.0022187748 0.018255109 -0.040079154 0.017035298
0003a0 51 4a 57 bd b1 ae 62 bc 30 61 d7 ba 94 db 1d bd
       -0.052561108 -0.013835595 -0.0016432162 -0.038539484
0003b0 27 6c a8 3b 43 55 3d 3c 9b 45 09 bd 1c 96 4e 3d
       0.005139846 0.0115559725 -0.033513647 0.050436124
0003c0 ae e3 f1 3c a5 f2 3c 3d 12 6b 69 bd 20 66 b5 bc
       0.029527511 0.04612984 -0.056986876 -0.022143424
0003d0 56 bc ce bc e1 a8 dd bb 1d b3 5a bc 49 c2 c0 bb
       -0.02523629 -0.0067645167 -0.013348368 -0.0058825356
0003e0 58 46 12 bd 0b 24 02 3d 84 c7 a4 bc 08 27 88 bc
       -0.035711616 0.031772655 -0.020114668 -0.016620174
0003f0 87 db 4e bd 5c f6 30 bd 14 cd 07 3d 21 18 5b bd
       -0.050502326 -0.043203697 0.033154562 -0.053489808
