face_cnn_model.pth (torch, 35656 bytes, 4 tensors)

fc1.weight f4 [64, 128]
0	0xbd0d1b0e	-0.03444963
1	0x3d3eef1a	0.046614744
2	0xbd2fcbea	-0.042919077
3	0xbcf741fc	-0.030182831
4	0xbd80d032	-0.0628971
5	0xbc9d114b	-0.019173285
6	0xbdf827d8	-0.121169746
7	0xbd488141	-0.04895139
8	0x3d1f678e	0.038917117
9	0x3cad22bd	0.021134729
10	0x3d7cf69e	0.06175863
11	0xbd18a7f1	-0.037269536
12	0xbd04c131	-0.032410804
13	0x3d1e7d10	0.038693488
14	0xbd94dfcc	-0.07269248
15	0x3da27caf	0.07933938
16	0x3d63d045	0.055618543
17	0xbd63f344	-0.055651918
18	0x3ab15eb7	0.0013532256
19	0x3d3c210f	0.045929965
20	0xbc0faef8	-0.008769743
21	0xbb945406	-0.004526618
22	0x3d267d19	0.040646646
23	0xbda93f56	-0.082640335
24	0x3d2e115b	0.04249702
25	0x3d1ca394	0.038241938
26	0x3bb26936	0.005444671
27	0xbd9081b8	-0.07055992
28	0x3db27741	0.08714152
29	0xbd15735a	-0.03648696
30	0xbdc533ab	-0.096289955
31	0xbc13f85c	-0.009031381
32	0xbd714acd	-0.058909226
33	0xbb0cf0da	-0.0021505863
34	0x3d9c6a4a	0.076374605
35	0x3cfefa01	0.03112507
36	0xbb82882e	-0.003983519
37	0xbc9153dc	-0.017740183
38	0x3d6cc92f	0.05780905
39	0xbd4ccd8e	-0.05000072
40	0xbd9587fc	-0.073013276
41	0x3d8992f1	0.0671748
42	0xbba3bda0	-0.0049969703
43	0xbb20f161	-0.0024557936
44	0x3d951c79	0.07280821
45	0x3d6f4cd7	0.05842289
46	0x3d2a3556	0.04155477
47	0xbdd04ec3	-0.101712726
48	0xbdac7fe7	-0.08422833
49	0xbc3a0edf	-0.011356085
50	0x3db36272	0.08759011
51	0x3ce7596a	0.028240878
52	0xbc83edac	-0.016104542
53	0xbd8bb433	-0.0682148
54	0x3d1b97b2	0.037986465
55	0xbd1d3ae9	-0.03838626
56	0xbd1bc597	-0.038030233
57	0x3c698f2c	0.014255326
58	0x3c9694a9	0.018381434
59	0xbdf219a6	-0.11821298
60	0x3c551516	0.013005516
61	0x3d898b19	0.06715984
62	0xbde7c75a	-0.1131732
63	0x3cd0eb56	0.025502842
64	0xbd732a7c	-0.059366688
65	0x3d23abc0	0.039958715
66	0xbc8d7592	-0.017267976
67	0x3c083e86	0.008315688
68	0xbd957631	-0.07297934
69	0xbcafb49e	-0.02144843
70	0xbcc6cdf5	-0.02426813
71	0xbd904453	-0.07044282
72	0x3c6531b3	0.0139889
73	0x3d435334	0.04768677
74	0x3d4e3bb3	0.050349902
75	0xbd807ee0	-0.062741995
76	0xbb82984f	-0.0039854418
77	0x3c4572be	0.012051282
78	0xbd640eb7	-0.055678096
79	0x3d29f2c0	0.04149127
80	0xbd3d546b	-0.046223085
81	0x3cb399c7	0.021923913
82	0xbda1f6ba	-0.079083875
83	0x3d83f6de	0.064435706
84	0x3daaf83a	0.08348127
85	0x3c9f2dc8	0.01943101
86	0x3dea0f4a	0.114286974
87	0x3d9745a7	0.07386332
88	0xbb3c17f0	-0.0028700791
89	0xbdffae08	-0.12484366
90	0x3b787b30	0.0037915222
91	0xbdab6db1	-0.08370531
92	0xbad13c7e	-0.0015963463
93	0x3dfcfa60	0.12352443
94	0xbc559113	-0.013035077
95	0x3d6fb527	0.05852237
96	0x3db0d8e2	0.08635117
97	0xbd49c1e6	-0.04925718
98	0x3d5c1907	0.053734805
99	0xbd587787	-0.052848365
100	0xbd39735f	-0.045276042
101	0xbc21236e	-0.009835107
102	0x3d517ccc	0.051144406
103	0x3d528820	0.05139935
104	0xbd20c569	-0.039250765
105	0x3d34f223	0.044176232
106	0x3dc41f10	0.09576237
107	0x3d966046	0.073425815
108	0xbd234f9f	-0.039870854
109	0x3d8417b2	0.06449832
110	0x3d86d1bd	0.06582973
111	0x3d0c4a2f	0.034250434
112	0xbd4f281a	-0.050575353
113	0xbd9fc593	-0.07801356
114	0x3d336f12	0.043807097
115	0x3c4fe6b0	0.0126892775
116	0x3d0f5d55	0.035001118
117	0x3d163b9f	0.036677953
118	0x3db5698c	0.08858022
119	0x3d4db748	0.05022362
120	0x3dc46751	0.095900185
121	0xbd680481	-0.05664492
122	0xbdb2b775	-0.08726398
123	0x3d1f6f3e	0.03892445
124	0xbc199044	-0.0093727745
125	0x3cda5fe1	0.026657047
126	0xbd807987	-0.062731795
127	0xbd3416b8	-0.04396698
128	0xbd0946d5	-0.033514816
129	0x3aed04ff	0.0018083154
130	0x3d0b4e5a	0.03401027
131	0xbd6a0ebe	-0.057142965
132	0xbd577801	-0.05260468
133	0x3c4c84b6	0.012482813
134	0x3d898e04	0.067165405
135	0x3d9cee3c	0.07662627
136	0xbcd4c4e9	-0.0259728
137	0x3db8dc21	0.09026361
138	0xbc987c96	-0.018614095
139	0x3d9fe5c5	0.07807497
140	0x3d9e8361	0.07739902
141	0x3ca98a26	0.020695757
142	0xbd5624c4	-0.052281156
143	0x3d35e6be	0.044409506
144	0xbcce50c2	-0.025184993
145	0xbd3cb78f	-0.046073493
146	0xbd6985b1	-0.057012264
147	0xbd109bf6	-0.035304986
148	0xbd971a50	-0.073780656
149	0x3d9020e3	0.07037523
150	0x3dbe0555	0.09278361
151	0x3d934f56	0.071928665
152	0x3d72df2f	0.059294876
153	0xbd40f1f5	-0.04710575
154	0x3dc2837a	0.094977334
155	0xbd4d3257	-0.050096836
156	0xbd7d2977	-0.061807122
157	0xbd8ef47f	-0.06980228
158	0xbd60c617	-0.054876413
159	0x3c684608	0.014176853
160	0x3d700a7a	0.05860374
161	0xbd62d5f0	-0.055379808
162	0xbd06ff33	-0.03295822
163	0xbd953916	-0.07286279
164	0xbd3c36da	-0.045950748
165	0x3d5d5056	0.054031692
166	0x3d818b63	0.06325414
167	0x3d0f3bd5	0.03496917
168	0x3dc52d33	0.09627762
169	0x3b0cb939	0.0021472706
170	0x3c4061a4	0.011742029
171	0xbd8b9b70	-0.06816757
172	0xbd35953a	-0.044331767
173	0xbd978195	-0.07397763
174	0x3cae38d2	0.021267328
175	0xbd2d989a	-0.04238186
176	0xbb8999f5	-0.0041992613
177	0xbca5df01	-0.020247938
178	0x3d17d2c2	0.03706623
179	0xbda8a89b	-0.08235284
180	0xbb2444f2	-0.0025065509
181	0xbd1258be	-0.035729162
182	0xbca7b423	-0.020471638
183	0xbcf37e40	-0.029723287
184	0xbd5a076e	-0.05322974
185	0x3d9d464a	0.07679422
186	0xbd5c6673	-0.05380864
187	0xbd9db46e	-0.0770043
188	0xbdbc6258	-0.09198445
189	0xbce46a75	-0.027882794
190	0xbd9d0812	-0.07667555
191	0x3c51e328	0.012810506
192	0xbc1b933d	-0.009495554
193	0xbdc1af9d	-0.09457324
194	0x3d8e3cd1	0.069451936
195	0xbd39fa4a	-0.04540471
196	0x3d9b48e4	0.07582262
197	0xbcd2683a	-0.025684465
198	0xbbaea10d	-0.0053292573
199	0xbd4929b9	-0.049112055
200	0xbcb808b8	-0.022465095
201	0xbd428281	-0.04748774
202	0xbd5eaf5b	-0.05436645
203	0xbd762401	-0.06009293
204	0x3d266f8f	0.040633734
205	0x3d0d453e	0.034489863
206	0xbd40d70c	-0.047080085
207	0x3c4078a2	0.011747511
208	0x3cfdfab9	0.031003343
209	0x3cfc902c	0.030830465
210	0xbdc672b4	-0.09689847
211	0x3d2fea2f	0.042947944
212	0x3d66f031	0.056381408
213	0xbd7b6c00	-0.061382294
214	0xbd13541e	-0.035968892
215	0x3d676850	0.056495965
216	0x3d5b71f2	0.053575464
217	0x3c2d394b	0.010572742
218	0xbd67a5c3	-0.056554567
219	0x3c2f6767	0.010705805
220	0xbda9021d	-0.08252356
221	0x3d0e33b0	0.03471726
222	0xbd5bce76	-0.053663693
223	0xbb37e783	-0.0028061576
224	0x3dc01358	0.093786895
225	0xbba98ec0	-0.005174488
226	0x3d704c53	0.05866654
227	0xbd80f0c2	-0.06295921
228	0xbd6762ad	-0.05649059
229	0x3d765da0	0.06014788
230	0xbd3c22d3	-0.04593165
231	0xbdb26e75	-0.08712474
232	0x3cf7e462	0.030260269
233	0x3d3ec133	0.046570968
234	0x3cd25a17	0.025677724
235	0xbd940d2d	-0.072290756
236	0xbd2b0953	-0.04175694
237	0xbd1065a6	-0.03525319
238	0x3c449648	0.0119987205
239	0x3d84f0e9	0.064912625
240	0xbd833a0d	-0.06407557
241	0x3d1ac137	0.03778192
242	0xbd39af4b	-0.045333188
243	0xbdb513d4	-0.088416725
244	0x3d2ab0a7	0.041672375
245	0xbd3b7704	-0.0457678
246	0xbd9598c1	-0.07304526
247	0x3bf4d781	0.007471979
248	0x3c5b31ff	0.013378619
249	0x3d26306a	0.040573515
250	0xbc86c320	-0.016450465
251	0x3caaf386	0.020868074
252	0xbdad072b	-0.08448633
253	0xbd57a026	-0.052642964
254	0x3d51856e	0.05115264
255	0xbd8588c0	-0.065202236

fc1.bias f4 [64]
0	0x3d80062c	0.06251177
1	0xbda7707c	-0.081757516
2	0x3cf32965	0.029682824
3	0x3b34e926	0.0027604788
4	0xbd08caec	-0.033396646
5	0x3c2c9783	0.01053417
6	0x3d391e92	0.04519517
7	0xbc9ea8f9	-0.019367682
8	0x3d91db5f	0.0712192
9	0x3d1d16ce	0.038351826
10	0xbc8291b3	-0.015938615
11	0x3d8e7ed6	0.06957786
12	0x3d892efc	0.06698415
13	0x3cc42682	0.023944143
14	0xbc39db40	-0.011343777
15	0xbd725f13	-0.0591727
16	0xbd974937	-0.073870115
17	0xbb883c0a	-0.004157548
18	0xbd101e8e	-0.03518539
19	0xbd0aa0cd	-0.033844758
20	0xbd0f24d2	-0.034947224
21	0x3cd560c5	0.02604712
22	0xbcdbc04b	-0.02682509
23	0xbd31ba0d	-0.043390322
24	0x3d10c07d	0.03533982
25	0x3d0e6fa7	0.03477445
26	0xbd8b323d	-0.067966916
27	0xbcf7831c	-0.030213885
28	0x3d17061d	0.036871064
29	0x3cc2bb07	0.023770822
30	0xbdbbc955	-0.091692604
31	0x3d316685	0.04331066
32	0x3d2684fc	0.040654168
33	0xbd803c10	-0.06261456
34	0x3d6c3905	0.057671566
35	0xbca86e17	-0.020560307
36	0x3d9c2da7	0.07625895
37	0x3c8504c9	0.016237633
38	0xbd8f36ee	-0.06992899
39	0x3d7a4712	0.061102934
40	0x3c96701c	0.018364005
41	0x3bc06800	0.0058717728
42	0xbdb2c5fa	-0.08729167
43	0xbd6a618e	-0.05722194
44	0xbd03f523	-0.032216202
45	0x3d64e34c	0.05588083
46	0x3cac7304	0.021050937
47	0x3c5d53c0	0.013508737
48	0xbd7e83c7	-0.06213739
49	0xbd54b32f	-0.051928695
50	0xbd9bb098	-0.07602042
51	0x3bfe5afd	0.0077623115
52	0x3cc21483	0.023691421
53	0x3d883195	0.06650082
54	0x3da180cc	0.07885894
55	0x3d8817d8	0.06645173
56	0xbd09d92e	-0.033654384
57	0x3c75c5d4	0.015000779
58	0xbd037147	-0.03209045
59	0xbd42b8e9	-0.047539625
60	0x3c74b28b	0.014935146
61	0x3d72d9d4	0.05928977
62	0x3db5d969	0.08879358
63	0x3c8f6fd6	0.017509382

fc2.weight f4 [2, 64]
0	0x3de707db	0.11280795
1	0xbda12875	-0.07869045
2	0x3d78e67f	0.060766693
3	0x3c442812	0.011972444
4	0x3bdc6b60	0.0067266673
5	0xbddd27a1	-0.10798574
6	0x3cd4c4f7	0.025972826
7	0x3e06f08b	0.13177697
8	0x3d6713f3	0.05641551
9	0xbd962d20	-0.07332826
10	0x3d0885dc	0.033330783
11	0xbd9d02ba	-0.07666536
12	0x3d15a880	0.036537647
13	0x3d9c713a	0.07638784
14	0x3dd5ffd3	0.10449185
15	0x3c65bc23	0.014021906
16	0xbe039c26	-0.12852535
17	0xbcdb191f	-0.026745377
18	0xbde1beed	-0.11022744
19	0x3db09ad5	0.08623282
20	0x3ccd881f	0.025089322
21	0x3d1fb761	0.038993243
22	0xbe042844	-0.12905985
23	0xbddb808b	-0.10717877
24	0x3b37968f	0.0028013324
25	0x3ddfcbc8	0.1092754
26	0xbc57cf78	-0.013172023
27	0x3d81e404	0.06342319
28	0x3dc8b3cd	0.09799919
29	0x3e1fc723	0.15603308
30	0x3ddd65f5	0.108104624
31	0x3d607ccf	0.054806527
32	0xbd61c6aa	-0.0551211
33	0x3c7cc414	0.015427608
34	0x3b99d795	0.004694889
35	0xbd2b25d0	-0.041784108
36	0xbd36e4c7	-0.044651773
37	0x3d9b083a	0.075699285
38	0x3d9935ae	0.07480942
39	0xbc012487	-0.007882244
40	0xbbc6f28d	-0.006071395
41	0xbcf27218	-0.02959542
42	0xbe08d68e	-0.13363096
43	0xbd51309c	-0.05107175
44	0xbca290a5	-0.019844363
45	0xbd5b3d7c	-0.053525433
46	0x3d042d4d	0.032269765
47	0xbdda1d09	-0.10650069
48	0x3d8e7dfc	0.06957623
49	0xbc17dea4	-0.00926939
50	0x39ea6d09	0.00044713196
51	0x3d58bead	0.052916218
52	0xbc87b857	-0.016567392
53	0x3da8dd7f	0.08245372
54	0xbdface7e	-0.122464165
55	0xbd40e5d3	-0.047094177
56	0xbcf5bfc5	-0.02999867
57	0x3d262e1f	0.04057133
58	0xbdc28c98	-0.094994724
59	0xbd6c0048	-0.057617456
60	0x3daa4665	0.08314208
61	0xbe05bada	-0.1305956
62	0xbe202391	-0.15638568
63	0x3d7ea853	0.062172245
64	0xbd1350eb	-0.03596584
65	0xbc8c33d5	-0.01711456
66	0x3e251481	0.16121103
67	0x3c0a89c0	0.008455694
68	0x3d7ca510	0.061680853
69	0xbd971aff	-0.07378196
70	0x3d9210e8	0.07132131
71	0xbd00f577	-0.031484094
72	0xbdeaac17	-0.11458605
73	0xbdd56354	-0.10419336
74	0xbe31a61f	-0.17348526
75	0xbda9533a	-0.08267827
76	0xbc04b9cd	-0.008100939
77	0x3e0edd11	0.13951518
78	0xbdcc21c5	-0.099673785
79	0x3e17878d	0.14797802
80	0xbd396bbf	-0.04526877
81	0x3cefae86	0.029258024
82	0x3d2b8bc3	0.041881334
83	0xbc39034a	-0.011292288
84	0x3e27920a	0.16364303
85	0xbc258875	-0.010103335
86	0x3d4aba04	0.049493805
87	0x3cbd9fd3	0.0231475
88	0xbd8a7243	-0.06760075
89	0xbe0d14bb	-0.1377744
90	0xbc0dc819	-0.008653664
91	0xbdbdec88	-0.092736304
92	0xbdacc3ac	-0.08435759
93	0x3d62ac04	0.055339828
94	0x3dd2783b	0.102768384
95	0x3e020aae	0.12699386
96	0x3d55eba5	0.05222668
97	0xbb725b72	-0.0036980775
98	0x3dd13c0a	0.1021653
99	0x3dfbef16	0.123014614
100	0x3dddf4d5	0.10837714
101	0xbda3c646	-0.07996802
102	0xbd873242	-0.06601383
103	0xbe118952	-0.1421254
104	0xbd52c7b3	-0.05145998
105	0xbd5255d8	-0.0513514
106	0xbbf9989c	-0.0076170694
107	0x3d252dc4	0.04032685
108	0x3dbc9251	0.09207595
109	0x3cecd76d	0.028911317
110	0x3e05c980	0.13065147
111	0xbc0bef79	-0.008540981
112	0xbd10312b	-0.03520314
113	0xbde8b32d	-0.113623
114	0x3d773077	0.060348954
115	0x3e0eef55	0.13958485
116	0xbe1b2ab7	-0.15153013
117	0xbda58d8d	-0.08083639
118	0x3e0ca07b	0.13733093
119	0xbd1346d1	-0.035956208
120	0xbc4f53b4	-0.012654234
121	0x3dc1e597	0.09467619
122	0xbcc141bd	-0.023590917
123	0x3caccfa4	0.021095105
124	0x3dcb9db7	0.09942191
125	0xbc472ab4	-0.012156177
126	0x3dddfb6a	0.10838969
127	0x3c5d2d84	0.013499621

fc2.bias f4 [2]
0	0x3da920d9	0.08258218
1	0x3c6605b4	0.014039446
