improved_face_cnn_model.pth (torch, 276582 bytes, 14 tensors)

fc1.weight f4 [256, 128]
-0.009850549 -0.009724496 -0.024909193 -0.08081213 -0.08391473 -0.07711982 -0.036438353 -0.045920707
0.0014766877 -0.042527348 0.026267644 -0.0796888 0.06237057 -0.038242843 0.0037748283 0.029566418
-0.076124735 0.03479534 0.019790966 -0.050409485 0.0114478655 0.06215213 -0.072439335 -0.06691843
-0.06619157 -0.07981494 -0.059429005 -0.08370703 -0.0384152 -0.004195217 0.046238475 0.08039104
-0.01392674 0.011980859 -0.066164024 0.017533083 0.0086332485 0.07173651 0.03453646 0.074069485
0.05981144 0.008341769 -0.059994634 0.07898379 0.011643596 -0.027144723 -0.080617175 0.030513441
0.06081409 -0.063457705 0.07468216 -0.058446493 0.03338342 -0.051192183 0.04359083 -0.06485868
0.03893796 0.08225506 0.051393937 0.042250652 -0.015606137 -0.01529111 -0.047248 0.04016063
-0.06997962 0.029235024 0.061501473 -0.022034202 0.080923066 0.050440416 -0.034707528 -0.08044929
-0.08543042 -0.038828626 0.034897592 0.0012880425 0.086845405 0.0024576182 0.08130929 0.0158574
-0.049385414 -0.030135069 -0.062287014 0.0378667 0.059822917 -0.076175325 0.048595704 -0.004667205
0.0048646657 0.058687486 0.028547974 -0.040250305 0.035608213 0.0057545644 0.04539448 0.052374024
0.07928829 -0.022027757 0.058049947 -0.025857491 -0.05713486 -0.07839004 0.017406536 -0.01753581
0.0862355 -0.06097523 -0.046327777 0.03494925 0.07190631 -0.035761453 -0.053339157 -0.04415339
-0.056488946 -0.032018773 -0.08410806 -0.032871824 -0.0061519807 0.07635603 -0.06569454 -0.05796488
-0.024371898 -0.04708604 0.060406037 0.047614936 0.017582124 0.08619501 -0.049159877 -0.044024274
0.049180534 0.08706516 -0.0037684706 0.010575651 0.028699605 -0.015767846 0.051233888 0.055518582
-0.043170873 -0.026979394 -0.009197625 -0.0076592974 0.022067798 -0.0021344493 -0.05636636 -0.07752277
-0.054499622 -0.056695275 -0.006205602 -0.048248563 0.07580205 0.07216685 0.061700724 -0.03662537
0.0047424487 -0.006877648 -0.008167206 -0.00014738982 0.06596356 -0.004681148 0.044703998 -0.07295029
-0.04013313 0.021221954 -0.060674723 0.07766671 -0.07512905 0.065635905 0.018730553 0.049810316
-0.055145077 -0.07339364 -0.013869538 -0.067085445 -0.022787767 0.0033237776 -0.0027555637 -0.048639946
0.0130886175 0.05083923 0.05675264 0.04459403 0.06952515 0.062394626 0.026959393 -0.035761118
0.08358609 -0.0752775 0.08312842 -0.043903716 0.08422137 -0.025635323 0.086475335 0.081764646
-0.06726057 0.0738203 0.02680776 -0.015680922 0.019356715 -0.08284746 0.07379557 -0.05643377
-0.024595927 0.018394317 0.074607246 0.057992935 -0.037197433 0.054800227 -0.08520632 -0.024849892
0.002709773 0.02474112 -0.0577875 -0.03757947 -0.074444175 0.037039552 0.019358339 -0.04986491
-0.05150174 0.022468315 -0.056571487 0.0008542259 0.028998964 0.06937302 0.0647898 -0.020171938
-0.043041095 0.03728931 0.0032345837 -0.01106854 -0.01666374 0.08415058 -0.027015338 0.082180865
0.016196009 0.056096792 0.011109912 -0.01525914 -0.0564791 0.008200647 -0.027999204 -0.05922303
-0.02242799 -0.069098376 -0.012418772 -0.07551998 0.08341123 0.0551631 0.0628772 -0.0048444476
0.06133308 0.06654888 -0.021673335 -0.04183012 -0.037343543 0.016536828 0.080147274 0.044380642
00000000: 3264 21bc 7e53 1fbc 5d0e ccbc d480 a5bd
00000010: 7cdb abbd fff0 9dbd 6240 15bd 5a17 3cbd
00000020: 6b8d c13a 2831 2ebd 3e2f d73c e233 a3bd
00000030: 4878 7f3d 87a4 1cbd 1c63 773b 4635 f23c
00000040: 49e7 9bbd 8f85 0e3d aa20 a23c 2d7a 4ebd
00000050: d48f 3b3c 3b93 7e3d 135b 94bd 880c 89bd
00000060: 728f 87bd 0476 a3bd d46b 73bd 976e abbd
00000070: 4259 1dbd 0878 89bb 8e64 3d3d 0fa4 a43d
00000080: fb2c 64bc 5d4b 443c 0181 87bd 8aa1 8f3c
00000090: 7872 0d3c 97ea 923d 1a76 0d3d beb1 973d
000000a0: d7fc 743d eaab 083c efbc 75bd 41c2 a13d
000000b0: c8c4 3e3c 9c5e debc 9e1a a5bd 53f7 f93c
000000c0: 3218 793d 1df6 81bd f6f2 983d 9765 6fbd
000000d0: 0ebd 083d e5ae 51bd 4c8c 323d a1d4 84bd
000000e0: 697d 1f3d 5775 a83d 7382 523d 050f 2d3d
000000f0: e2b0 7fbc 9087 7abc 1e87 41bd 797f 243d
00000100: 7a51 8fbd 4a7e ef3c f8e8 7b3d 1281 b4bc
00000110: feba a53d 9c9a 4e3d 7b29 0ebd 99c2 a4bd
00000120: 25f6 aebd c40a 1fbd c7f0 0e3d 89d3 a83a
00000130: 01dc b13d fe0f 213b 7c85 a63d 61e7 813c
00000140: 5c48 4abd d2dd f6bc ab20 7fbd 1d1a 1b3d
00000150: e008 753d cf01 9cbd 4a0c 473d 5aef 98bb
00000160: c667 9f3b 4a62 703d 71dd e93c 81dd 24bd
00000170: ebd9 113d c990 bc3b 90ef 393d 2586 563d
00000180: e661 a23d 8e73 b4bc c8c5 6d3d 17d3 d3bc
00000190: 3e06 6abd f58a a0bd 2798 8e3c 42a7 8fbc
000001a0: 3d9c b03d 2ac1 79bd 32c2 3dbd f226 0f3d
000001b0: 9e43 933d 9a7a 12bd 297a 5abd 2fda 34bd
000001c0: f460 67bd 1e26 03bd d940 acbd 9ba4 06bd
000001d0: 8e96 c9bb 8d60 9c3d dc8a 86bd 956c 6dbd
000001e0: 93a7 c7bc 4bdd 40bd 526c 773d e107 433d
000001f0: 6308 903c 0287 b03d de5b 49bd cc52 34bd
00000200: 8771 493d 384f b23d 72f8 76bb 7f45 2d3c
00000210: 6f1b eb3c 922b 81bc a0da 513d 7467 633d
00000220: f1d3 30bd e403 ddbc a3b1 16bc d8fa fabb
00000230: 87c7 b43c 1ee2 0bbb 6ae0 66bd 42c4 9ebd
00000240: ff3a 5fbd 4e39 68bd 5d58 cbbb 49a0 45bd
00000250: 1b3e 9b3d 37cc 933d e6b9 7c3d 7c04 16bd
00000260: 8b66 9b3b e55d e1bb bfcf 05bc a78c 1ab9
00000270: e717 873d 5164 99bb 8a1b 373d f666 95bd
00000280: a362 24bd aad9 ad3c 0f86 78bd b90f 9f3d
00000290: 42dd 99bd 1e6c 863d d170 993c e705 4c3d
000002a0: cedf 61bd 684f 96bd 0f3d 63bc 1864 89bd
000002b0: 69ad babc bcd3 593b b096 34bb ae3a 47bd
000002c0: a471 563c cc3c 503d 7575 683d 3ba8 363d
000002d0: 3463 8e3d 8291 7f3d f2d9 dc3c 407a 12bd
000002e0: 2f2f ab3d 172b 9abd 3c3f aa3d 62d4 33bd
000002f0: 417c ac3d 2b01 d2bc fb19 b13d 3974 a73d
00000300: e9bf 89bd 192f 973d f39b db3c 4775 80bc
00000310: f991 9e3c eeab a9bd 2222 973d 1927 67bd
00000320: 667d c9bc aeaf 963c afcb 983d 008a 6d3d
00000330: 565c 18bd 3476 603d a780 aebd 0092 cbbc
00000340: 7296 313b e4ad ca3c 96b2 6cbd eeec 19bd
00000350: 3076 98bd c9b6 173d 6195 9e3c 263f 4cbd
00000360: 7df3 52bd 790f b83c 81b7 67bd 21ee 5f3a
00000370: 3c8f ed3c 7113 8e3d 84b0 843d 9f3f a5bc
00000380: dc4b 30bd adbc 183d 4ffb 533b d258 35bc
00000390: 6582 88bc 2457 ac3d 454f ddbc 714e a83d
000003a0: 7ead 843c c0c5 653d 5906 363c 7901 7abc
000003b0: a156 67bd 025c 063c 965e e5bc d993 72bd
000003c0: e7ba b7bc 7383 8dbd 1b78 4bbc 38aa 9abd
000003d0: 82d3 aa3d b4f2 613d c3c5 803d 2cbe 9ebb
000003e0: 6538 7b3d c74a 883d 478c b1bc 0f56 2bbd
000003f0: 8bf5 18bd 3e78 873c 4124 a43d 7ac8 353d

fc1.bias f4 [256]
0.038129732 -0.0051348056 0.052763544 0.040708147 -0.06866952 -0.019208271 0.055663913 0.033701226
-0.053652365 0.009621382 0.06754335 -0.03955483 -0.008864516 0.058344565 -0.061034698 -0.079619676
0.055036765 0.053258434 0.046103626 -0.0006497579 -0.020521661 0.04495368 0.035405662 0.08280746
-0.06523839 0.085932836 0.07346707 0.08147899 -0.05772581 -0.059709862 0.078099936 0.040655956
-0.06959587 0.015011532 0.036755584 0.0513352 0.019380728 -0.012432578 0.07161489 0.029620452
0.019494759 0.012747114 -0.06602909 -0.042540237 0.023781952 0.06966046 0.06009215 0.0670088
0.057568867 0.05831408 0.0037666247 0.041599423 -0.04662508 0.01041948 0.018361863 -0.055640303
0.07464169 -0.08335711 0.08415784 0.0418625 0.076195516 -0.010397796 0.017905746 0.03607298
0.061896786 -0.047070324 0.056949038 -0.011250848 0.0017129943 -0.07210477 0.049127724 0.028973632
0.040857162 0.039117973 -0.062807955 -0.052702006 -0.043657564 0.023198593 -0.08437873 0.019875627
-0.02862295 -0.01830359 -0.079028666 -0.059862252 0.06420144 -0.08681668 -0.08441575 0.058906775
0.03242925 7.203775e-05 -0.02934028 -0.040060557 0.06817194 0.0055130725 0.08033945 0.04432845
0.0009142754 0.012972143 -0.07409555 -0.08627205 -0.030354572 -0.0443814 0.012485562 -0.0695806
-0.074662894 -0.037204254 -0.03212343 -0.006877401 -0.011236971 0.021423666 -0.082530275 0.040819142
0.07939668 0.0034233697 -0.07517646 0.04931602 -0.0016079185 -0.052640203 -0.082856245 0.07820958
-0.07260751 -0.03512339 -0.033287734 0.068504654 -0.0142067885 0.07174539 -0.06200399 -0.08128193
-0.0023989356 -0.05940087 0.054493062 0.0015920638 0.07483529 0.0864731 0.03117012 0.07930786
0.024119807 0.07435271 0.061699785 -0.011717502 -0.0821001 -0.008521851 0.06314915 -0.0029828816
0.027011586 0.034266893 0.0018810038 -0.04143469 -0.045229316 -0.07836913 0.023984836 0.041745402
-0.031815868 0.06610674 -0.028045844 -0.040487785 -0.026747506 0.06724144 -0.08035418 -0.044226408
0.04796466 0.053665865 -0.039113227 0.018733403 0.0832855 -2.8409426e-05 -0.0328944 -0.06095933
0.021061027 -0.053394444 -0.036661427 0.04508131 0.083506994 -0.010376909 0.04364386 -0.077065304
-0.013636902 -0.03760945 0.028985307 -0.08326486 0.025163826 -0.032571495 -0.0729594 -0.07371901
0.023183664 -0.005441095 -0.045798127 0.031610105 0.063737586 0.021380283 0.02297244 0.040444028
-0.0062635657 -0.049750913 0.013802612 0.008814516 0.041853797 0.04443462 -0.062083185 -0.0040584104
-0.06957204 -0.023397135 -0.0404695 0.04946019 -0.03676509 -0.0403151 0.02701747 0.0360276
-0.0021300307 -0.05900173 -0.022926033 -0.06442208 0.0746442 -0.037117828 0.078381814 0.04367897
0.00054704724 0.008991147 2.3410244e-05 -0.043979276 -0.013101683 -0.049428824 0.04406493 0.08571349
0.058668558 -0.07921937 0.0061754123 0.039690867 0.07747272 -0.0125548495 0.031751905 -0.076757155
-0.0041874703 0.0046199844 0.043135855 -0.07926792 -0.080126554 0.033140562 -0.01332853 -0.05327753
-0.0011039536 -0.060170997 -0.056010388 0.06226535 -0.05233744 0.0617895 0.02234578 0.033036057
0.033018358 0.062770344 0.026043255 -0.06544929 -0.070342556 0.036133986 -0.07670376 -0.078123644
00000000: ec2d 1c3d df41 a8bb 961e 583d 96bd 263d
00000010: 9ba2 8cbd aa5a 9dbc d8ff 633d 4c0a 0a3d
00000020: 95c2 5bbd 00a3 1d3c 2b54 8a3d 3f04 22bd
00000030: 7a3c 11bc b6fa 6e3d 85ff 79bd a40f a3bd
00000040: 3b6e 613d 8425 5a3d 28d7 3c3d 8454 2aba
00000050: 0b1d a8bc 5a21 383d 8705 113d f596 a93d
00000060: b49b 85bd 8efd af3d e775 963d 75de a63d
00000070: e671 6cbd 5492 74bd dcf2 9f3d dc86 263d
00000080: 4888 8ebd eef2 753c 068d 163d dc44 523d
00000090: 55c4 9e3c 03b2 4bbc d4aa 923d 97a6 f23c
000000a0: 79b3 9f3c 45d9 503c 423a 87bd ac3e 2ebd
000000b0: 5ed2 c23c 25aa 8e3d 3023 763d e93b 893d
000000c0: 55cd 6b3d bfda 6e3d 7ad9 763b 2864 2a3d
000000d0: f1f9 3ebd 77b6 2a3c 9e6b 963c 16e7 63bd
000000e0: bedd 983d 22b7 aabd f25a ac3d 0378 2b3d
000000f0: 650c 9c3d 845b 2abc 12af 923c 43c1 133d
00000100: 7c87 7d3d d0cc 40bd 6543 693d 7a55 38bc
00000110: 8d86 e03a aaab 93bd 273a 493d 1c5a ed3c
00000120: d759 273d 2b3a 203d 75a1 80bd 0fde 57bd
00000130: 46d2 32bd fa0a be3c c1ce acbd 36d2 a23c
00000140: ad7a eabc 69f1 95bc c8d9 a1bd 1f32 75bd
00000150: 0b7c 833d f2cc b1bd 2ae2 acbd 3b48 713d
00000160: 89d4 043d f912 9738 075b f0bc 8a16 24bd
00000170: bb9d 8b3d 01a7 b43b 0289 a43d c091 353d
00000180: fcab 6f3a 1c89 543c 68bf 97bd 67af b0bd
00000190: 27aa f8bc 45c9 35bd 3e90 4c3c 4680 8ebd
000001a0: dce8 98bd 7d63 18bd dc93 03bd d25b e1bb
000001b0: 461b 38bc af80 af3c a205 a9bd f931 273d
000001c0: ba9a a23d 9d5a 603b 1ef6 99bd 98ff 493d
000001d0: cbc0 d2ba 419d 57bd 89b0 a9bd 582c a03d
000001e0: 3fb3 94bd 8bdd 0fbd b858 08bd 2b4c 8c3d
000001f0: 97c3 68bc 3fef 923d e5f7 7dbd 2477 a6bd
00000200: 7637 1dbb 544e 73bd 1e34 5f3d ccac d03a
00000210: 3f43 993d cf18 b13d 7b58 ff3c 296c a23d
00000220: e796 c53c 3c46 983d eab8 7c3d c4fa 3fbc
00000230: 1924 a8bd 3c9f 0bbc 5754 813d 737c 43bb
00000240: 6747 dd3c 715b 0c3d 048c f63a 6cb7 29bd
00000250: 6042 39bd ff7f a0bd d97b c43c 3afd 2a3d
00000260: 5b51 02bd f862 873d 66c0 e5bc 85d6 25bd
00000270: 961d dbbc e1b5 893d bb90 a4bd c026 35bd
00000280: 9776 443d bdd0 5b3d 3135 20bd cb76 993c
00000290: 9791 aa3d c750 eeb7 47bc 06bd 7eb0 79bd
000002a0: 2d88 ac3c 22b4 5abd 4b2a 16bd 2ea7 383d
000002b0: b705 ab3d e903 2abc e7c3 323d 6ad4 9dbd
000002c0: 506d 5fbc 5e0c 1abd 9872 ed3c c486 aabd
000002d0: 5e24 ce3c b069 05bd bd6b 95bd fef9 96bd
000002e0: abeb bd3c 374b b2bb d196 3bbd 9979 013d
000002f0: da88 823d b425 af3c b330 bc3c a3a8 253d
00000300: 993e cdbb 9dc7 4bbd 5a24 623c c26a 103c
00000310: e36e 2b3d 1301 363d f04a 7ebd 6afc 84bb
00000320: c97b 8ebd 59ab bfbc 59c3 25bd c596 4a3d
00000330: fe96 16bd 7221 25bd be53 dd3c ad91 133d
00000340: fc97 0bbb ccab 71bd 60cf bbbc b9ef 83bd
00000350: 0fdf 983d dd08 18bd a586 a03d b8e8 323d
00000360: b867 0f3a 9b4f 133c 1e61 c437 9d23 34bd
00000370: 71a8 56bc e175 4abd 6e7d 343d 8e8a af3d
00000380: 714e 703d c43d a2bd 1d5b ca3b e492 223d
00000390: 04aa 9e3d dbb2 4dbc 490e 023d db32 9dbd
000003a0: 0c37 89bb 3d63 973b 39af 303d 3857 a2bd
000003b0: 6419 a4bd 66be 073d e85f 5abc 8a39 5abd
000003c0: 89b2 90ba dd75 76bd 266b 65bd f409 7f3d
000003d0: c95f 56bd fd16 7d3d 7f0e b73c d150 073d
000003e0: 423e 073d bd8d 803d aa58 d53c 470a 86bd
000003f0: c20f 90bd 3b01 143d dc16 9dbd 4aff 9fbd

bn1.weight f4 [256]
1.0003077 0.9997288 1.0001827 1.0001308 0.9998707 0.99960876 1.0000824 0.9996959
1.0004867 1.000435 1.000394 0.99973595 0.99970293 1.0002923 0.9998096 0.9997295
1.0001425 0.99956423 0.9998889 0.99956447 1.0000567 0.99957913 0.9996216 0.99960774
0.9995929 1.0003986 1.0004225 0.9995487 0.99973196 0.99960583 1.0002708 1.0001768
1.0001955 1.0004578 1.0004003 1.0000478 0.999553 1.0001988 1.0004911 0.99961674
0.99962276 0.9997491 1.0002048 1.0001098 1.0000634 1.0002525 1.0001366 1.0002956
0.999549 0.9995675 1.0004086 1.000404 1.0001608 1.0004191 1.0000551 0.9999967
1.0001806 0.9996237 1.0004758 0.99933225 0.9997169 0.9998876 1.000216 1.0001345
1.0001826 0.99958444 0.99996954 0.9998852 0.9998036 0.9996051 0.9995811 1.0004005
0.9998369 1.0002315 1.0003455 1.0002327 0.9997031 0.99955803 1.0000956 0.99953943
1.0001955 0.9999927 0.999488 0.99954396 1.0000548 0.9999343 1.0003848 0.99992734
1.0004027 0.99996346 1.0000877 0.99974835 0.9999057 1.0000465 0.9999064 0.9993749
0.9996042 1.0002137 0.999597 0.99974895 1.0001887 1.0002363 0.9994839 0.9996874
0.9995748 1.0000893 1.0001489 1.0000464 0.9995506 1.0001448 0.9996038 0.99958456
1.0003008 1.0002775 1.0004501 0.99951494 0.99957114 0.9997577 0.99968755 0.9999395
1.0003488 1.0001906 0.9995934 1.0001861 1.0003182 0.9997124 0.9998035 1.00027
0.9994676 0.9998257 0.9996515 1.00045 0.9995476 0.9998527 0.9995381 0.9996083
0.99960566 0.99956775 1.0003918 0.9996064 1.0000391 0.9996667 0.9995234 1.0002236
0.99993664 1.0002824 0.99987483 0.9998897 1.0003839 1.0002706 0.9995444 1.0004237
1.0003752 0.99966794 0.9996337 1.000215 1.0001966 0.9996735 0.9994921 1.0001081
0.9999164 1.000429 0.9998583 1.0004396 1.0001795 1.0000505 0.9994953 1.0000589
1.0004506 0.9998265 1.0000622 1.0003946 0.9998155 0.9995964 1.0001125 0.9994473
0.99972296 1.0004166 0.99970204 1.0003939 0.99949616 1.0003561 1.0001733 0.9999185
0.9996403 1.0001031 1.0003756 1.0000602 0.99965477 1.0004519 0.9997196 1.000106
1.0005379 0.99959844 0.9998143 1.0001446 1.0004269 0.99955004 1.0004617 0.9998036
1.0001395 0.99987704 0.999746 0.9996107 1.0004336 0.99959034 1.0004336 0.9995008
0.9995133 1.0001253 0.999602 0.99958843 0.9997457 1.0004132 1.0001959 1.0001186
1.0000718 1.0000473 0.99947476 0.9995545 0.9999321 1.0000824 0.99970204 0.99951214
0.99959034 0.9996033 1.0001745 1.0002149 0.99962544 0.9996186 0.9997444 0.9995432
0.99986726 0.999592 0.999583 0.9995292 0.99949884 0.9996126 0.9995151 1.0003875
1.0000268 0.99961436 1.0001042 1.0002005 0.99961805 0.99966925 1.0003183 1.0004098
0.9995693 0.99981165 0.99970967 0.9997997 1.0001334 1.0004127 1.000201 1.0004141
00000000: 150a 803f 3aee 7f3f fd05 803f 4904 803f
00000010: 87f7 7f3f 5ce6 7f3f b302 803f 12ec 7f3f
00000020: f30f 803f 410e 803f e90c 803f b2ee 7f3f
00000030: 88ec 7f3f 9409 803f 86f3 7f3f 46ee 7f3f
00000040: ab04 803f 71e3 7f3f b8f8 7f3f 75e3 7f3f
00000050: dc01 803f 6be4 7f3f 34e7 7f3f 4be6 7f3f
00000060: 52e5 7f3f 100d 803f d80d 803f 6ce2 7f3f
00000070: 6fee 7f3f 2be6 7f3f e008 803f cb05 803f
00000080: 6806 803f 000f 803f 1e0d 803f 9101 803f
00000090: b5e2 7f3f 8406 803f 1810 803f e2e6 7f3f
000000a0: 47e7 7f3f 8fef 7f3f b606 803f 9903 803f
000000b0: 1402 803f 4608 803f 7a04 803f b009 803f
000000c0: 71e2 7f3f a8e3 7f3f 640d 803f 3d0d 803f
000000d0: 4505 803f bc0d 803f ce01 803f c9ff 7f3f
000000e0: eb05 803f 57e7 7f3f 970f 803f 3dd4 7f3f
000000f0: 72ed 7f3f a2f8 7f3f 1407 803f 6804 803f
00000100: fc05 803f c4e4 7f3f 01fe 7f3f 7af8 7f3f
00000110: 21f3 7f3f 1fe6 7f3f 8ce4 7f3f 200d 803f
00000120: 50f5 7f3f 9607 803f 520b 803f a007 803f
00000130: 8bec 7f3f 09e3 7f3f 2203 803f d1e1 7f3f
00000140: 6806 803f 86ff 7f3f 72de 7f3f 1de2 7f3f
00000150: cc01 803f b2fb 7f3f 9c0c 803f 3dfb 7f3f
00000160: 320d 803f 9bfd 7f3f e002 803f 82ef 7f3f
00000170: d2f9 7f3f 8601 803f def9 7f3f 09d7 7f3f
00000180: 10e6 7f3f 0107 803f 97e5 7f3f 8cef 7f3f
00000190: 2f06 803f be07 803f 2dde 7f3f 83eb 7f3f
000001a0: 22e4 7f3f ed02 803f e104 803f 8501 803f
000001b0: 8ce2 7f3f bf04 803f 09e6 7f3f c6e4 7f3f
000001c0: db09 803f 1809 803f c00e 803f 36e0 7f3f
000001d0: e5e3 7f3f 1ff0 7f3f 86eb 7f3f 09fc 7f3f
000001e0: 6e0b 803f 3f06 803f 5ae5 7f3f 1906 803f
000001f0: 6d0a 803f 27ed 7f3f 1ff3 7f3f d908 803f
00000200: 1cdd 7f3f 94f4 7f3f 29e9 7f3f bf0e 803f
00000210: 5ae2 7f3f 59f6 7f3f bbe1 7f3f 54e6 7f3f
00000220: 28e6 7f3f ace3 7f3f d70c 803f 34e6 7f3f
00000230: 4801 803f 28ea 7f3f c4e0 7f3f 5407 803f
00000240: d9fb 7f3f 4109 803f ccf7 7f3f c5f8 7f3f
00000250: 940c 803f de08 803f 24e2 7f3f e20d 803f
00000260: 4b0c 803f 3dea 7f3f ffe7 7f3f 0c07 803f
00000270: 7106 803f 9aea 7f3f b7de 7f3f 8b03 803f
00000280: 85fa 7f3f 0f0e 803f b7f6 7f3f 680e 803f
00000290: e205 803f a801 803f edde 7f3f ee01 803f
000002a0: c40e 803f a1f4 7f3f 0a02 803f ee0c 803f
000002b0: e9f3 7f3f 8de5 7f3f b003 803f c7db 7f3f
000002c0: d8ed 7f3f a70d 803f 79ec 7f3f e80c 803f
000002d0: fbde 7f3f ab0b 803f ae05 803f a9fa 7f3f
000002e0: 6de8 7f3f 6103 803f 4f0c 803f f901 803f
000002f0: 60e9 7f3f cf0e 803f a0ed 7f3f 7903 803f
00000300: a011 803f afe5 7f3f d4f3 7f3f bd04 803f
00000310: fd0d 803f 83e2 7f3f 210f 803f 21f3 7f3f
00000320: 9204 803f f1f7 7f3f 5bef 7f3f 7de6 7f3f
00000330: 350e 803f 27e5 7f3f 350e 803f 49df 7f3f
00000340: 1be0 7f3f 1b04 803f ebe5 7f3f 07e5 7f3f
00000350: 56ef 7f3f 8a0d 803f 6b06 803f e303 803f
00000360: 5a02 803f 8d01 803f 94dd 7f3f cee2 7f3f
00000370: 8dfb 7f3f b302 803f 79ec 7f3f 07e0 7f3f
00000380: 27e5 7f3f 00e6 7f3f b805 803f 0b07 803f
00000390: 74e7 7f3f 01e7 7f3f 40ef 7f3f 10e2 7f3f
000003a0: 4df7 7f3f 43e5 7f3f ace4 7f3f 25e1 7f3f
000003b0: 28df 7f3f 9de6 7f3f 39e0 7f3f b30c 803f
000003c0: e100 803f bae6 7f3f 6a03 803f 9206 803f
000003d0: f8e6 7f3f 53ea 7f3f 6e0a 803f 6e0d 803f
000003e0: c6e3 7f3f a8f3 7f3f f9ec 7f3f e0f2 7f3f
000003f0: 5f04 803f 860d 803f 9606 803f 920d 803f

bn1.bias f4 [256]
-0.00052678376 0.00042592827 0.00023990839 0.00013133933 -0.00012776247 -0.00019102215 1.5652322e-05 -0.00030339448
0.00048972346 0.00043553778 0.00040320092 -0.00042033085 -0.000296367 0.00040612026 0.00033004244 -0.0004022795
0.00014355055 -7.787267e-05 -1.2319655e-05 -0.00043222372 0.00032045163 0.00019864863 -0.00037573316 -0.0003885343
-0.0004068539 0.0004175049 0.00042276192 -0.00025002027 -0.0005404319 -0.00029365515 0.0003665489 0.00017815402
0.0002945458 0.00043054394 0.00040076635 0.0004121178 -0.0002644784 0.0002990014 0.00029762788 -0.00017797283
-0.0003728947 -0.00015093204 4.860098e-05 -0.00043608874 0.00026398725 0.00025243807 0.00023555204 -0.0005527262
-0.00025045846 -0.0004329031 0.0004147658 0.00041119845 0.0001661599 0.00041997983 5.54811e-05 5.8727927e-08
0.00010236727 -0.00035734478 0.00018570099 6.225488e-05 -0.00027055293 -0.00011248712 6.3634754e-05 0.00013117069
0.00018291947 -0.000415057 0.00016856455 -0.0004335576 -7.912227e-05 -0.00037050797 -0.0003182388 0.00020092772
-0.0002709418 0.00044505417 0.00034599577 0.00043347638 0.0001895536 -7.539541e-05 -0.0002900447 -0.0002602447
0.0004035209 -8.6240664e-07 -0.00040825948 -0.00025498366 0.00041894394 -6.408796e-05 0.00038462196 -0.00032992003
0.0004046293 0.00036819873 0.0005231052 -0.00010683936 -0.00024104137 0.0004383376 -5.2437972e-05 -0.000118023105
-0.00039388897 0.0002152884 -0.00020365822 -0.0004129747 0.00028795892 0.00023605995 0.0003402959 -0.0003434491
-0.00032474715 0.00029021874 0.00024789324 0.00024717665 -0.00024873108 0.00014486056 -0.0003961094 -0.00031552644
0.00042279495 -1.36995695e-05 0.00044992863 -0.00028504603 -0.00040712283 -4.17914e-05 -0.00030992556 -5.8523867e-05
0.0003509056 0.00019213429 0.00012260865 0.00038794742 0.00044213227 -0.00031683798 -0.00019591118 0.00027038436
-0.0002177512 -0.0001734052 -0.00033765048 0.00013156817 -0.0002505459 -0.00014655477 -0.00043041966 -0.00029144058
-0.00029310508 -0.00032745386 0.00027713884 -0.00039223526 0.00041138646 -0.00016039595 -0.00036856224 -0.0003543863
-6.305661e-05 0.00035302225 0.00046739273 9.313974e-05 0.00038587837 0.00021215327 0.00014213078 0.00042612973
0.00016536009 -0.00013176507 -0.00016548454 0.00041511425 0.0002910855 -0.00035385016 -0.00030613464 0.00011694759
-0.00038824658 0.00027242448 -0.00012122312 0.00044564018 0.00017650933 0.00015043835 0.00014509256 0.00016275745
0.0004591648 -0.00044672104 0.00025998216 0.00039590936 -9.1113776e-05 -0.00019987412 -8.50894e-05 -0.00043030622
-0.00047027957 0.0004173108 2.8077242e-05 0.00019434985 0.00022813817 0.00035853282 0.0002742067 -0.0004634393
-0.00035884636 4.8053185e-05 0.00017119643 0.00026055909 0.0004404277 0.0004534746 -0.00027914377 0.00010975083
0.0005392022 -0.00020230329 -8.420523e-05 0.00014484169 -0.0001326668 -0.00041573236 0.0003868434 -0.0003981295
0.00014015389 -0.00012248702 7.618378e-05 -0.0003824856 0.0004336596 -0.0004102003 0.00043435453 -0.00039836921
-0.00028483418 0.00032679288 -0.00019544897 -0.00040608467 0.00015700939 4.933307e-05 0.00029639504 0.00032143603
0.00020659837 6.1749575e-05 -4.445922e-05 -0.00024430428 -6.999408e-05 0.0004481891 -0.00033793706 -0.0004869623
-0.0004109714 -0.0003955996 0.00027724242 0.0002601951 -0.0003739037 -9.2688795e-05 -0.00015510203 -0.00025599787
-2.856897e-05 -0.0004053274 -0.00043154132 -0.00027191621 -0.0003196932 -0.00036045723 -0.0004824914 0.00038781782
0.00028418962 -0.0003854075 -0.0003027078 0.0002023865 -0.000513704 -0.00024289016 -0.0001548945 0.00041388944
-0.00023058397 0.00024288552 -0.00029045052 -0.00019964896 0.00013381772 0.00040465797 0.00030156906 0.0004178083
00000000: dc17 0aba 204f df39 eb8f 7b39 22b8 0939
00000010: faf7 05b9 1e4d 48b9 1b4d 8337 eb10 9fb9
00000020: c960 003a e458 e439 b664 d339 da5f dcb9
00000030: b561 9bb9 8aec d439 8c09 ad39 0ae9 d2b9
00000040: 0f86 1639 924f a3b8 84b0 4eb7 169c e2b9
00000050: 4a02 a839 564c 5039 0dfe c4b9 31b4 cbb9
00000060: 024f d5b9 8fe4 da39 25a6 dd39 2715 83b9
00000070: c5ab 0dba baf5 99b9 5c2d c039 dbce 3a39
00000080: 456d 9a39 a1ba e139 f31d d239 8411 d839
00000090: b1a9 8ab9 4ac3 9c39 f00a 9c39 389e 3ab9
000000a0: 1481 c3b9 8343 1eb9 e8d8 4b38 d7a2 e4b9
000000b0: c567 8a39 aa59 8439 85fe 7639 d4e4 10ba
000000c0: f74f 83b9 45f7 e2b9 ec74 d939 1f96 d739
000000d0: 353b 2e39 bd30 dc39 61b4 6838 0a3c 7c33
000000e0: 02ae d638 015a bbb9 bbb8 4239 d68e 8238
000000f0: 00d9 8db9 10e7 ebb8 a673 8538 dd8a 0939
00000100: 12ce 3f39 029c d9b9 b4c0 3039 1e4f e3b9
00000110: 72ee a5b8 bd40 c2b9 4ad9 a6b9 20b0 5239
00000120: 310d 8eb9 2956 e939 c466 b539 3744 e339
00000130: e8c2 4639 9a1d 9eb8 2411 98b9 7471 88b9
00000140: a98f d339 2280 67b5 a90b d6b9 54af 85b9
00000150: b4a5 db39 f666 86b8 16a7 c939 1ef9 acb9
00000160: 6d24 d439 cc0a c139 ff20 093a f20e e0b8
00000170: 0dc0 7cb9 add0 e539 d8f0 5bb8 2c83 f7b8
00000180: e282 ceb9 0abf 6139 168d 55b9 8784 d8b9
00000190: 31f9 9639 dc86 7739 be69 b239 f510 b4b9
000001a0: d342 aab9 8028 9839 abf7 8139 7d97 8139
000001b0: 1f68 82b9 b6e5 1739 e7ac cfb9 3e6d a5b9
000001c0: 94aa dd39 34d7 65b7 66e4 eb39 3b72 95b9
000001d0: 1a73 d5b9 2d49 2fb8 817d a2b9 8677 75b8
000001e0: c1f9 b739 a877 4939 8290 0039 6c65 cb39
000001f0: fdcd e739 461d a6b9 826d 4db9 60c2 8d39
00000200: 2554 64b9 1bd4 35b9 ae06 b1b9 90f5 0939
00000210: b45b 83b9 7fac 19b9 f3a9 e1b9 7ecc 98b9
00000220: e6ab 99b9 1dae abb9 f24c 9139 eda4 cdb9
00000230: 5baf d739 f62f 28b9 963b c1b9 edcc b9b9
00000240: 423d 84b8 d815 b939 640c f539 0454 c338
00000250: b84f ca39 7675 5e39 f108 1539 2a6a df39
00000260: 8364 2d39 6b2a 0ab9 eb85 2db9 b1a3 d939
00000270: d69c 9839 f784 b9b9 b280 a0b9 c241 f538
00000280: 938d cbb9 32d4 8e39 2b39 feb8 d0a4 e939
00000290: 5d15 3939 fdbe 1d39 fd23 1839 dfa9 2a39
000002a0: 0ebc f039 e235 eab9 374e 8839 0e92 cf39
000002b0: 5614 bfb8 4d95 51b9 0672 b2b8 b99a e1b9
000002c0: db8f f6b9 82ca da39 6b87 eb37 64ca 4b39
000002d0: 6038 6f39 76f9 bb39 66c3 8f39 c5f9 f2b9
000002e0: 8b23 bcb9 b78c 4938 3183 3339 a69b 8839
000002f0: 35e9 e639 55c0 ed39 0b5a 92b9 072a e638
00000300: 3f59 0d3a 6021 54b9 5797 b0b8 a5e0 1739
00000310: 791c 0bb9 a7f6 d9b9 3ed1 ca39 09bc d0b9
00000320: 46f6 1239 dc6f 00b9 dbc4 9f38 5988 c8b9
00000330: ce5c e339 2710 d7b9 14ba e339 36dc d0b9
00000340: cc55 95b9 6655 ab39 6ff1 4cb9 c3e7 d4b9
00000350: e3a2 2439 fbea 4e38 7865 9b39 6a86 a839
00000360: 54a2 5839 8d7f 8138 b979 3ab8 f715 80b9
00000370: c9c9 92b8 ecfa ea39 252d b1b9 f94e ffb9
00000380: a677 d7b9 7b68 cfb9 d95a 9139 cc6a 8839
00000390: 8108 c4b9 eb61 c2b8 e2a2 22b9 7437 86b9
000003a0: 65a7 efb7 1f82 d4b9 7f40 e2b9 fa8f 8eb9
000003b0: 7f9c a7b9 c0fb bcb9 e6f6 fcb9 0754 cb39
000003c0: 49ff 9439 8510 cab9 c1b4 9eb9 b637 5439
000003d0: 18aa 06ba 55b0 7eb9 2d6b 22b9 4dff d839
000003e0: eac8 71b9 16af 7e39 9c47 98b9 dc58 51b9
000003f0: 6c51 0c39 4628 d439 ea1b 9e39 480d db39

bn1.running_mean f4 [256]
0.00948479 -0.070133306 -0.07458684 -0.19784324 0.4144268 0.4884175 0.072821476 0.0140838185
-0.07031531 0.12251866 0.64826304 -0.23373507 -0.44048497 -0.41672075 0.03561964 -0.0576887
0.022863122 0.42924345 -0.27712387 -0.08881202 0.07464555 -0.36052188 0.4390117 0.17196983
0.22255783 0.10520368 0.280723 0.0435473 -0.6633076 0.06742875 -0.1322052 0.13418217
0.05033634 0.04251083 0.21019435 -0.061420325 -0.017512195 -0.44970137 0.1083174 0.48250633
-0.049905945 -0.17678109 -0.47571456 0.11078752 0.16062029 -0.05375361 0.1724839 0.061059464
0.37340537 0.5401435 0.22797 -0.0118416175 -0.53512746 0.07362607 0.47455552 0.018095499
-0.34390014 -0.04373947 -0.30304083 -0.17082198 -0.15640603 -0.208892 -0.34200907 -0.015841924
0.15848398 -0.26054308 0.16742997 0.13663734 0.36053798 -0.38916144 -0.06934374 -0.095240764
0.3025896 -0.57452023 0.101108365 -0.45578903 0.0923828 0.32918152 0.0057382756 0.679542
-0.1407971 0.38902238 0.08160302 -0.4283885 0.35520685 -0.009845682 -0.38334414 0.17074223
0.32409838 0.45931748 0.021095954 -0.124630004 0.56559616 0.16771194 -0.19130816 0.07017982
-0.34769985 0.265196 -0.05681773 -0.6157561 -0.124562375 -0.22849548 -0.09589481 -0.4744291
-0.26039547 0.15142424 -0.261079 0.35281515 0.6198563 -0.049010295 -0.42615733 -0.28537372
0.6039644 -0.20264506 0.6245335 -0.045943346 -0.31091294 0.31323707 0.18193825 -0.09275858
-0.29091752 -0.4407861 0.095610194 -0.47021374 -0.14730154 -0.06658885 0.19635679 -0.25986257
-0.0052058534 -0.026621738 0.61323833 0.12921247 -0.2148058 -0.03882978 0.06994658 0.020972276
0.22545578 -0.23480612 -0.11174512 0.16805896 0.14175884 -0.3796987 0.020898324 -0.29031208
-0.1020185 0.56830734 0.58358103 -0.34116226 0.09374878 0.13706923 -0.11978058 0.48877355
-0.3016229 -0.04080397 0.4712262 0.21740176 -0.008966983 0.21624461 0.26747707 -0.08886517
0.20629345 0.2924297 0.28739724 0.52478784 0.28002617 0.021085618 -0.81790525 -0.45929995
0.053239737 0.073798165 -0.10856716 -0.22100821 0.34462154 0.30474234 0.13891724 0.6458413
-0.21477914 -0.04350994 -0.082942404 0.043369126 0.7589901 -0.52561533 0.097108014 -0.21424875
0.25300664 0.13401827 0.099876836 0.06870651 -0.6771212 0.17812473 0.3783657 0.1676913
-0.66933584 -0.21018349 -0.5597357 0.31223658 -0.28764647 0.6814672 0.008634082 0.09984126
0.06097261 0.11022357 -0.049377833 0.2022845 -0.3995455 -0.011329671 0.47576535 0.56933826
0.13505888 -0.33393285 0.42877027 0.18445747 -0.025114466 0.035361256 -0.40547103 0.06346374
0.4288501 -0.55382127 -0.36870423 0.3443277 -0.2589133 -0.27477875 0.2693767 -0.009314357
0.26133195 0.09964625 -0.17473732 0.58989215 -0.34582502 0.23963806 -0.044109274 -0.6754086
0.50482625 0.2923155 0.28286195 -0.33914545 0.17905095 0.24788913 -0.21699406 0.037988223
-0.64217955 -0.26183006 -0.47603118 -0.088084154 0.17054261 -0.45725495 -0.32904628 0.15955555
-0.013472642 -0.16522819 0.13778724 -0.012803949 -0.30352217 0.34615082 0.095157586 0.11762747
00000000: 1866 1b3c 0da2 8fbd fcc0 98bd 6b97 4abe
00000010: c02f d43e dc11 fa3e 6d23 953d d1bf 663c
00000020: 7901 90bd 10eb fa3d 91f4 253f 3f58 6fbe
00000030: 3f87 e1be 6c5c d5be e6e5 113d fc4a 6cbd
00000040: 714b bb3c ccc5 db3e 2ee3 8dbe 14e3 b5bd
00000050: c4df 983d 5396 b8be 24c6 e03e dc18 303e
00000060: 33e6 633e 0775 d73d edba 8f3e a75e 323d
00000070: 87ce 29bf 1618 8a3d cd60 07be 0d67 093e
00000080: 7a2d 4e3d d61f 2e3d 303d 573e e193 7bbd
00000090: bc75 8fbc 423f e6be 83d5 dd3d 120b f73e
000000a0: 2d6a 4cbd 1a06 35be dc90 f3be 91e4 e23d
000000b0: a579 243e bf2c 5cbd 9f9f 303e 7d19 7a3d
000000c0: fd2e bf3e d846 0a3f f870 693e 5803 42bc
000000d0: 1dfe 08bf 44c9 963d f1f8 f23e 033d 943c
000000e0: ae13 b0be 2928 33bd 2b28 9bbe f5eb 2ebe
000000f0: e728 20be c9e7 55be d01b afbe ecc6 81bc
00000100: a049 223e e765 85be c372 2b3e a9ea 0b3e
00000110: 6f98 b83e 2b40 c7be 1704 8ebd 970d c3bd
00000120: 06ed 9a3e c213 13bf e711 cf3d 2e5d e9be
00000130: 3233 bd3d 7b8a a83e 2508 bc3b 77f6 2d3f
00000140: 1d2d 10be f12d c73e 7c1f a73d bd55 dbbe
00000150: acdd b53e c94f 21bc af45 c4be 0dd7 2e3e
00000160: 39f0 a53e a92b eb3e 6cd1 ac3c 043e ffbd
00000170: e9ca 103f aebc 2b3e 49e6 43be 70ba 8f3d
00000180: b705 b2be c5c7 873e b5b9 68bd 31a2 1dbf
00000190: 8f1a ffbd b8fa 69be 8064 c4bd 5fe8 f2be
000001a0: 8e52 85be f50e 1b3e 26ac 85be 30a4 b43e
000001b0: e7ae 1e3f 05bf 48bd 4b31 dabe 811c 92be
000001c0: 699d 1a3f 3082 4fbe 6de1 1f3f 172f 3cbd
000001d0: fb2f 9fbe 9c60 a03e 054e 3a3e 36f8 bdbd
000001e0: 24f3 94be b7ae e1be 47cf c33d dbbf f0be
000001f0: 37d6 16be bc5f 88bd c111 493e b50c 85be
00000200: dd95 aabb d515 dabc 30fd 1c3f 4650 043e
00000210: 0df6 5bbe fa0b 1fbd 2740 8f3d 0dce ab3c
00000220: e1dd 663e 0471 70be a0da e4bd a617 2c3e
00000230: 3b29 113e de67 c2be f632 ab3c c9a3 94be
00000240: 13ef d0bd 977c 113f 9165 153f d2ac aebe
00000250: 5cff bf3d e05b 0c3e 854f f5bd 8740 fa3e
00000260: 516e 9abe 1022 27bd 8f44 f13e 919e 5e3e
00000270: 41ea 12bc 3a6f 5d3e c1f2 883e f1fe b5bd
00000280: 973e 533e 58b9 953e bb25 933e 7f58 063f
00000290: 975f 8f3e bfbb ac3c 3d62 51bf 5d29 ebbe
000002a0: e911 5a3d 7e23 973d 7658 debd fa4f 62be
000002b0: 3c72 b03e 3007 9c3e 5240 0e3e db55 253f
000002c0: 10ef 5bbe 7b37 32bd b5dd a9bd d3a3 313d
000002d0: 2d4d 423f ba8e 06bf 91e0 c63d 0664 5bbe
000002e0: 168a 813e 163c 093e 3a8c cc3d 00b6 8c3d
000002f0: d157 2dbf 5466 363e 26b9 c13e 45b7 2b3e
00000300: 9859 2bbf 573a 57be d74a 0fbf 79dd 9f3e
00000310: 6646 93be a274 2e3f f775 0d3c 9379 cc3d
00000320: 6abe 793d e5bc e13d 6940 4abd ab23 4f3e
00000330: 3a91 ccbe 16a0 39bc 8497 f33e 27c0 113f
00000340: e04c 0a3e 3ff9 aabe c787 db3e 6be2 3c3e
00000350: dabc cdbc f7d6 103d e699 cfbe 47f9 813d
00000360: 3e92 db3e 3bc7 0dbf cdc6 bcbe b84b b03e
00000370: 4990 84be cdaf 8cbe beeb 893e 3f9b 18bc
00000380: 4dcd 853e 5513 cc3d 57ee 32be 2c03 173f
00000390: fa0f b1be ae63 753e edab 34bd 94e7 2cbf
000003a0: 4b3c 013f 61aa 953e 48d3 903e 79a4 adbe
000003b0: 2259 373e a6d6 7d3e b133 5ebe 8a99 1b3d
000003c0: e165 24bf 970e 86be 5cba f3be 7765 b4bd
000003d0: b9a2 2e3e 521d eabe c178 a8be 8862 233e
000003e0: 5bbc 5cbc 9431 29be 1918 0d3e a8c7 51bc
000003f0: 4267 9bbe ae3a b13e fbe1 c23d ace6 f03d

bn1.running_var f4 [256]
0.3396858 0.025389345 0.30267757 0.059976693 0.008003328 0.013218695 0.05913622 0.14221133
0.008878625 0.12611333 0.05721417 0.36391148 0.005957276 0.005632017 0.030162064 0.0070719137
0.14458463 0.07148045 0.07568738 0.005373829 0.022237679 0.0051770937 0.005168839 0.012588336
0.03926486 0.06662499 0.013024106 0.10015726 0.043461263 0.007909785 0.09570368 0.022253541
0.031802468 0.39839497 0.098700054 0.11704156 0.16449043 0.0068340506 0.049471915 0.21836883
0.05156404 0.0352527 0.009657347 0.25055397 0.12481238 0.007498915 0.018765155 0.26408315
0.005286823 0.022384541 0.15093182 0.066246666 0.0574336 0.019369563 0.023838503 0.7315729
0.023805257 0.03542098 0.03866479 0.009222173 0.00599651 0.05640134 0.060636815 0.024147479
0.13038214 0.04559553 0.026329128 0.07930057 0.012942824 0.07038576 0.0064635086 0.011347362
0.210878 0.09993933 0.006390419 0.009747984 0.03508089 0.06548794 0.049684957 0.008168134
0.0067877006 0.009168369 0.0610781 0.008360511 0.30206883 0.044717226 0.055871192 0.005479996
0.22820865 0.14586914 0.11689464 0.1836645 0.0070316633 0.11777666 0.021915214 0.3201357
0.040124457 0.5705979 0.025353707 0.11471243 0.010307907 0.041645292 0.015582402 0.0051553017
0.3404327 0.08089426 0.18817112 0.17499517 0.011742969 0.03340835 0.04390429 0.0051909727
0.09264724 0.21707979 0.03563998 0.20449898 0.41336524 0.01231802 0.023598561 0.050340373
0.01907427 0.025580171 0.027571542 0.100734115 0.0054720514 0.026782561 0.05479213 0.03602955
0.089450285 0.005259742 0.078432955 0.17055322 0.016976764 0.15120767 0.0054014395 0.032587044
0.0052134343 0.010464031 0.05315939 0.008176383 0.12332569 0.38125676 0.070571356 0.5509907
0.052028067 0.034175217 0.008376652 0.028530614 0.76834804 0.02041681 0.016704248 0.010294623
0.15457562 0.006226288 0.027077975 0.043247767 0.11241673 0.069706745 0.16783889 0.3453853
0.050969604 0.013702411 0.005268479 0.0078796875 0.008462697 0.037646536 0.0051540593 0.16812064
0.029408209 0.005298289 0.50958186 0.09926941 0.0060811252 0.30419508 0.017711464 0.0054130545
0.008912687 0.18170996 0.16090341 0.021085521 0.0065178517 0.0298087 0.017262323 0.013022284
0.075521804 0.48948708 0.054857332 0.005976666 0.101720065 0.023299076 0.09772751 0.35576332
0.0378859 0.005166334 0.023709672 0.25103423 0.077080116 0.2985331 0.019139739 0.346861
0.10648686 0.010669424 0.033473372 0.007888395 0.053845573 0.12669139 0.17319334 0.13134727
0.28644842 0.013821224 0.0065722605 0.047101013 0.024687992 0.17080563 0.08833517 0.013533606
0.006183768 0.012969743 0.14937186 0.11359132 0.21386667 0.0848286 0.016685447 0.078669526
0.013363554 0.0064441413 0.039322004 0.34958488 0.058256723 0.12124217 0.0056626895 0.012880508
0.043455847 0.07273729 0.021628542 0.048054587 0.352782 0.08948547 0.054977164 0.077274725
0.026904918 0.017793076 0.08659461 0.21479584 0.008033091 0.036300544 0.10429638 0.39000812
0.017833337 0.030612364 0.35902607 0.26594743 0.056341223 0.016185394 0.03380033 0.122377425
00000000: 4ceb ad3e 51fd cf3c 8ef8 9a3e 1faa 753d
00000010: 6420 033c 3a93 583c d238 723d d99f 113e
00000020: a777 113c da23 013e 6859 6a3d 9b52 ba3e
00000030: 4135 c33b c88c b83b 6f16 f73c 83bb e73b
00000040: fe0d 143e 5864 923d fc01 9b3d f216 b03b
00000050: cb2b b63c 9ca4 a93b 5d5f a93b 4f3f 4e3c
00000060: 31d4 203d af72 883d 0f63 553c 401f cd3d
00000070: 7004 323d 0b98 013c 4a00 c43d 0f4d b63c
00000080: 4e43 023d 6dfa cb3e 4123 ca3d 7cb3 ef3d
00000090: 2e70 283e 2cf0 df3b 10a3 4a3d 149c 5f3e
000000a0: d134 533d 2365 103d d939 1e3c 9c48 803e
000000b0: a29d ff3d 75b9 f53b 62b9 993c e835 873e
000000c0: 163d ad3b c95f b73c df8d 1a3e 55ac 873d
000000d0: 7f3f 6b3d ebac 9e3c f748 c33c 5d48 3b3f
000000e0: 3e03 c33c 9715 113d f95e 1e3d 9918 173c
000000f0: 5f7e c43b 1705 673d 4f5e 783d efd0 c53c
00000100: e582 053e 61c2 3a3d 2fb0 d73c 5668 a23d
00000110: 230e 543c 6926 903d d7cb d33b 49ea 393c
00000120: 67f0 573e feac cc3d b866 d13b 02b6 1f3c
00000130: fbb0 0f3d 8b1e 863d 7482 4b3d a3d3 053c
00000140: 5c6b de3b ed36 163c 082d 7a3d 86fa 083c
00000150: c4a8 9a3e 6929 373d 31d9 643d 8a91 b33b
00000160: 87af 693e b85e 153e 7566 ef3d 8c12 3c3e
00000170: de69 e63b e434 f13d 8987 b33c d4e8 a33e
00000180: 8b59 243d b412 123f 94b2 cf3c 5aee ea3d
00000190: 7fe2 283c 4194 2a3d 554d 7f3c ceed a83b
000001a0: 324d ae3e e4ab a53d eeaf 403e ef31 333e
000001b0: 9565 403c 32d7 083d fcd4 333d 0919 aa3b
000001c0: d6bd bd3d 2a4a 5e3e 3afb 113d 2e68 513e
000001d0: 9ca4 d33e 85d1 493c c551 c13c b531 4e3d
000001e0: a541 9c3c 828d d13c b7dd e13c b04d ce3d
000001f0: e54e b33b 1a67 db3c b66d 603d b993 133d
00000200: b631 b73d ea59 ac3b 75a1 a03d 81a5 2e3e
00000210: db12 8b3c 2fd6 1a3e 8ffe b03b fe79 053d
00000220: 75d5 aa3b 5471 2b3c a9bd 593d 3cf6 053c
00000230: 2e92 fc3d 1634 c33e b787 903d ba0d 0d3f
00000240: 621b 553d 50fb 0b3d 3a3e 093c 09b9 e93c
00000250: 75b2 443f 2741 a73c 59d7 883c c7aa 283c
00000260: 1249 1e3e e405 cc3b a1d2 dd3c 9224 313d
00000270: be3a e63d 69c2 8e3d f5dd 2b3e 58d6 b03e
00000280: 81c5 503d 1480 603c 35a3 ac3b ce19 013c
00000290: 20a7 0a3c 4133 1a3d 62e3 a83b d127 2c3e
000002a0: 7ce9 f03c 459d ad3b f573 023f c34d cb3d
000002b0: 2d44 c73b 75bf 9b3e a217 913c fe5f b13b
000002c0: 8506 123c 2d12 3a3e ddc3 243e 8bbb ac3c
000002d0: b493 d53b 6031 f43c b769 8d3c 6b5b 553c
000002e0: 2dab 9a3d 0d9e fa3e 15b2 603d e9d7 c33b
000002f0: 9c52 d03d b4dd be3c 5c25 c83d 9c26 b63e
00000300: 3f2e 1b3d 5a4a a93b c93a c23c 8f87 803e
00000310: 2edc 9d3d 55d9 983e f1ca 9c3c c497 b13e
00000320: c815 da3d cfce 2e3c 601b 093d 543e 013c
00000330: 2d8d 5c3d 63bb 013e 9859 313e e67f 063e
00000340: 5ea9 923e 6a72 623c 1e5c d73b feec 403d
00000350: 793e ca3c ace7 2e3e 12e9 b43d 0fbc 5d3c
00000360: 35a1 ca3b 0c7f 543c f0f4 183e 91a2 e83d
00000370: ddff 5a3e 9eba ad3d ebaf 883c 7d1d a13d
00000380: cff2 5a3c 6029 d33b 1c10 213d cafc b23e
00000390: 9a9e 6e3d d14d f83d 158e b93b c408 533c
000003a0: c2fe 313d 4af7 943d 572e b13c e3d4 443d
000003b0: d89f b43e 2844 b73d bc2f 613d 3642 9e3d
000003c0: b467 dc3c c9c2 913c 8458 b13d 71f3 5b3e
000003d0: 3a9d 033c e1af 143d 5799 d53d 25af c73e
000003e0: 3817 923c c8c6 fa3c 44d2 b73e 432a 883e
000003f0: 0ec6 663d 3b97 843c 3772 0a3d 04a1 fa3d

fc2.weight f4 [128, 256]
-0.05246531 0.039224822 -0.039614987 0.035627604 -0.033188295 0.0529149 -0.032256477 0.020069666
-0.037736688 0.036136057 -0.0024791793 -0.04414856 0.018502928 -0.009722809 0.025417132 0.046902686
-0.029429471 -0.04024152 0.028954796 0.03156209 0.032192398 -0.037995033 0.032150485 0.03956149
0.034816958 -0.04700751 -0.046563946 0.049993917 -0.052819435 0.061587457 -0.041741185 0.014823715
-0.05195342 0.015882485 0.060963187 0.057675462 -0.053897154 0.056200486 -0.030229906 0.043164484
-0.011309492 0.03773388 0.061768577 0.05936133 -0.060101725 -0.008546337 -0.05011837 -0.04255733
-0.013064779 0.059894424 0.04250332 -0.057288658 0.052079763 0.061064187 0.056358654 0.05559878
-0.026228147 0.026155552 -0.007327015 0.031709835 -0.046867315 -0.023730798 -0.051991884 -0.060418293
0.055935454 -0.046975452 -0.058818366 0.05904452 -0.051177748 -0.0089797545 -0.037348844 0.0016376461
-0.022309752 -0.0016680293 -0.0031236447 -0.036882356 0.004962643 -0.042388227 -0.015929623 0.049969163
-0.0058921874 -0.055061694 -0.054003604 -0.0528576 0.009199864 -0.048686754 -0.002000061 -0.028026305
0.04571449 0.0068767904 -0.009728207 0.059622437 0.04392687 0.008889949 -0.032337613 0.035011653
0.053891446 -0.057228047 0.019283421 0.00012352644 0.034406044 -0.053394753 0.027068231 -0.02842764
0.042905666 0.059612107 0.04783323 -0.03440172 0.016848264 0.0022460902 -0.057545256 -0.03328385
0.03738826 0.03474302 0.04731032 -0.060798835 0.031146985 0.011963024 0.053574063 0.04944277
0.020453004 -0.014735127 0.03640102 0.042546097 0.0057644346 0.037656877 -0.038612563 0.05255927
-0.033354834 0.025840133 -0.0036279797 0.028604621 0.025583873 0.003320133 -0.01844556 -0.024847094
-0.008142632 0.037987575 -0.044046756 -0.020741457 -0.0055007944 0.05908571 -0.040262874 -0.03381556
-0.015500133 0.056681566 0.027997041 -0.06045342 0.046822175 -0.030367775 -0.047256175 -0.019881103
0.008442994 -0.010317101 0.03654643 0.0040020156 0.034451462 0.06114258 0.024253486 0.008253586
0.019743491 0.032988746 -0.040425733 -0.01992985 0.015210404 0.05022574 -0.04811213 0.029306801
0.027066782 -0.03781488 0.045925777 -0.021247596 0.055712767 -0.00708717 -0.04629012 0.0028264993
0.046186786 -0.0368946 -0.011378418 0.018433556 0.0401515 -0.044082683 -0.057319418 -0.0046229493
-0.0073691495 -0.042487428 -0.01227947 0.0079444535 -0.0011154092 -0.010539277 0.018349845 -0.05171062
-0.05267926 -0.059307896 0.049372666 0.061710835 0.005186327 0.04811346 -0.040988892 0.017803302
-0.02864456 -0.00302438 -0.034099914 0.0425301 -0.042795926 -0.042407904 0.021680595 0.027613617
-0.01752761 -0.02563354 -0.041331377 -0.04960909 -0.04016132 -0.031244764 0.022440316 0.0037397447
-0.050628968 -0.012512368 0.056712843 -0.027604586 0.03809118 -0.0057396484 0.010262996 0.0151784625
-0.03116244 -0.038640913 0.038100097 -0.041252274 -0.04067811 0.009079882 -0.0271363 -0.03945491
-0.051837225 0.03074913 -0.04343453 -0.057778616 -0.053838328 0.061093137 -0.023869414 0.0038080986
-0.06098247 -0.04849072 -0.050894152 -0.05115001 0.056342736 0.054498456 0.0041131987 -0.053418837
0.028168363 -0.006230584 0.022038603 -0.03707554 -0.011364633 -0.02564653 0.012802843 -0.0487753
00000000: dde5 56bd 35aa 203d 5343 22bd 40ee 113d
00000010: 73f0 07bd 4bbd 583d 5e1f 04bd 2469 a43c
00000020: c991 1abd 6703 143d ba79 22bb 1fd5 34bd
00000030: 7493 973c 6b4c 1fbc 9737 d03c 081d 403d
00000040: 1316 f1bc 4bd4 24bd 9c32 ed3c 4047 013d
00000050: 2ddc 033d aea0 1bbd 3ab0 033d 3b0b 223d
00000060: 3a9c 0e3d f28a 40bd d6b9 3ebd 6cc6 4c3d
00000070: 3159 58bd 2143 7c3d cef8 2abd 2bdf 723c
00000080: 1ccd 54bd fc1b 823c 89b4 793d 1b3d 6c3d
00000090: 43c3 5cbd 7b32 663d b5a4 f7bc 3ecd 303d
000000a0: 734b 39bc d78e 1a3d 0c01 7d3d de24 733d
000000b0: 3a2d 76bd ef05 0cbc ec48 4dbd 9850 2ebd
000000c0: a80d 56bc db53 753d f617 2e3d 83a7 6abd
000000d0: 9751 553d 711e 7a3d 55d8 663d 8cbb 633d
000000e0: 69dc d6bc 2b44 d63c 7517 f0bb 2ce2 013d
000000f0: f1f7 3fbd 1767 c2bc 71f5 54bd 2c79 77bd
00000100: 931c 653d 5569 40bd 87eb 70bd abd8 713d
00000110: c29f 51bd d21f 13bc 1afb 18bd 49a6 d63a
00000120: f1c2 b6bc c7a1 daba 10b6 4cbb f411 17bd
00000130: ab9d a23b 479f 2dbd d77e 82bc 77ac 4c3d
00000140: 4013 c1bb 5f88 61bd e232 5dbd 3681 58bd
00000150: 07bb 163c c36b 47bd 7513 03bb 6c97 e5bc
00000160: 1e3f 3b3d b356 e13b 0f63 1fbc a836 743d
00000170: a9ec 333d 26a7 113c 7274 04bd 6168 0f3d
00000180: 47bd 5c3d f567 6abd 44f8 9d3c e086 0139
00000190: 5aed 0c3d 75b4 5abd 32be dd3c 15e1 e8bc
000001a0: dabd 2f3d d32b 743d c7ec 433d d1e8 0cbd
000001b0: 5f05 8a3c 2433 133b 93b4 6bbd a554 08bd
000001c0: 6f24 193d b24e 0e3d 77c8 413d 3308 79bd
000001d0: f627 ff3c 8f00 443c 7a70 5b3d 8184 4a3d
000001e0: 0f8d a73c 9a6b 71bc 3c19 153d d144 2e3d
000001f0: 95e3 bc3b 193e 1a3d 3528 1ebd 6448 573d
00000200: 149f 08bd b0ae d33c 66c3 6dbb 3d54 ea3c
00000210: 4595 d13c 9796 593b 251b 97bc 228c cbbc
00000220: ad68 05bc dc98 1b3d 5f6a 34bd fde9 a9bc
00000230: 0240 b4bb dc03 723d afea 24bd 2f82 0abd
00000240: 45f4 7dbc ee2a 683d 0d5a e53c 019e 77bd
00000250: 9cc8 3f3d d7c5 f8bc b18f 41bd b2dd a2bc
00000260: 7c54 0a3c 0f09 29bc b6b1 153d 5723 833b
00000270: fa1c 0d3d a470 7a3d 3faf c63c 0c3a 073c
00000280: 1abd a13c 351f 073d 7495 25bd ed43 a3bc
00000290: 0f35 793c 81b9 4d3d 3a11 45bd d114 f03c
000002a0: 28bb dd3c c7e3 1abd ab1c 3c3d 700f aebc
000002b0: 1233 643d 7e3b e8bb b59a 3dbd ca3c 393b
000002c0: 5b2e 3d3d cb1e 17bd 8b6c 3abc f801 973c
000002d0: e675 243d 0b90 34bd c4c7 6abd 1c7c 97bb
000002e0: e878 f1bb 4c07 2ebd d52f 49bc 7429 023c
000002f0: ec32 92ba efac 2cbc 6a52 963c 84ce 53bd
00000300: 35c6 57bd d6ec 72bd fe3a 4a3d 80c4 7c3d
00000310: 10f2 a93b 9f12 453d f8e3 27bd 3bd8 913c
00000320: ffa7 eabc ad34 46bb 5aac 0bbd 0b34 2e3d
00000330: c84a 2fbd e9b3 2dbd 819b b13c f435 e23c
00000340: 1096 8fbc 6efd d1bc 174b 29bd e732 4bbd
00000350: 3280 24bd 05f5 ffbc c1d4 b73c 8116 753b
00000360: 5260 4fbd ad00 4dbc ba4b 683d 0323 e2bc
00000370: 7f05 1c3d a913 bcbb 2026 283c 16af 783c
00000380: 6048 ffbc ef45 1ebd d90e 1c3d 25f8 28bd
00000390: 179e 26bd c9c3 143c f24c debc 799b 21bd
000003a0: 4553 54bd 99e5 fb3c 68e8 31bd 45a9 6cbd
000003b0: 9485 5cbd cc3c 7a3d ca89 c3bc 4b91 793b
000003c0: c1c8 79bd 359e 46bd 6376 50bd ac82 51bd
000003d0: a4c7 663d c639 5f3d 03c8 863b b6cd 5abd
000003e0: 57c1 e63c ed29 ccbb 4d8a b43c 85dc 17bd
000003f0: ba32 3abc ac18 d2bc 04c3 513c 9cc8 47bd

fc2.bias f4 [128]
-0.034402076 -0.055346347 -0.023832805 -0.016978107 0.02434097 -0.030882163 0.05237924 -0.0030229879
-0.025079204 -0.03915248 -0.014704833 0.054309085 0.028914604 -0.029615996 -0.051137414 0.043803323
-0.005499838 -0.0005495076 -0.01209225 -0.05267103 0.02018379 -0.059871294 0.015427118 0.050903223
0.019397082 0.031598456 -0.0047684065 0.05347912 -0.038674388 0.04447137 0.039640043 0.026492953
0.03140562 0.002189814 0.00059657526 -0.012926695 -0.059880372 -0.03716297 0.036654804 0.03178935
-0.06006022 -0.027306926 -0.054171257 -0.04713546 0.003729673 -0.04430832 -0.038793918 0.012424717
0.008867968 -0.0432414 0.056858636 -0.030377029 0.024517104 0.0170516 -0.06084828 -0.03197171
0.034927595 0.061518986 0.009639773 0.059898745 -0.020941257 -0.0533517 0.05558878 -0.054419875
0.043280624 0.04084394 0.047622133 -0.061350636 0.014423512 -0.04848405 -0.009314631 0.061698712
0.018024147 0.041104034 -0.0408126 0.028759092 0.037474867 -0.04620204 0.03617972 0.04636541
0.024024962 -0.005518303 -0.05029244 0.0023373286 -0.05786186 -0.021192877 -0.011252488 -0.04604604
0.002612767 -6.867534e-05 -0.050938323 0.017207585 0.03664428 -0.018313518 0.035546675 0.016128406
0.05795134 0.020189414 -0.046152957 0.029868715 0.05708935 0.03709625 -0.04400071 0.037255995
0.0085816085 -0.0028570448 -0.009336524 0.017763246 0.05513881 0.035862673 3.6717058e-05 0.04146016
0.041370187 0.004935408 -0.05662679 0.020690199 0.0014658263 -0.0100085195 -0.04396563 -0.009058358
-0.033339754 0.053520817 0.009287562 -0.025875984 -0.029749053 0.035228904 0.028377885 0.0068299896
00000000: 31e9 0cbd dab2 62bd 043d c3bc ac15 8bbc
00000010: b766 c73c 97fc fcbc 9d8b 563d 521d 46bb
00000020: e772 cdbc 5a5e 20bd 8aec 70bc 3473 5e3d
00000030: 52de ec3c 3f9d f2bc 7775 51bd 1d6b 333d
00000040: fc37 b4bb d50c 10ba 931e 46bc 94bd 57bd
00000050: 7a58 a53c 9a3b 75bd 06c2 7c3c e67f 503d
00000060: a1e6 9e3c 626d 013d 4b40 9cbb ec0c 5b3d
00000070: 0969 1ebd 9c27 363d 995d 223d c007 d93c
00000080: 2ea3 003d fc82 0f3b 7d63 1c3a 7dca 53bc
00000090: 1f45 75bd 3338 18bd 5923 163d 8d35 023d
000000a0: b501 76bd c6b2 dfbc aee2 5dbd 1d11 41bd
000000b0: 886d 743b a47c 35bd 5fe6 1ebd 0a91 4b3c
000000c0: f44a 113c e51d 31bd 9ae4 683d 3fd9 f8bc
000000d0: 18d8 c83c ccaf 8b3c 0c3c 79bd c5f4 02bd
000000e0: 3d10 0f3d 55fb 7b3d 23f0 1d3c 6358 753d
000000f0: 008d abbc 5087 5abd 10b1 633d 60e7 5ebd
00000100: 0647 313d fa4b 273d 6d0f 433d ce4a 7bbd
00000110: 9850 6c3c 3697 46bd 659c 18bc cab7 7c3d
00000120: 60a7 933c b45c 283d 1d2b 27bd 3098 eb3c
00000130: 3f7f 193d 5a3e 3dbd 3031 143d a8e9 3d3d
00000140: ffcf c43c e1d2 b4bb 72ff 4dbd de2d 193b
00000150: 8f00 6dbd af9c adbc 5b5c 38bc c69a 3cbd
00000160: f53a 2b3b cb05 90b8 b4a4 50bd ecf6 8c3c
00000170: 5018 163d 3b06 96bc 6499 113d b81f 843c
00000180: 625e 6d3d 4564 a53c e20a 3dbd 3caf f43c
00000190: 86d6 693d 3df2 173d 173a 34bd be99 183d
000001a0: e099 0c3c 423d 3bbb 38f8 18bc 3a84 913c
000001b0: 3cd9 613d bde4 123d a400 1a38 21d2 293d
000001c0: c973 293d 34b9 a13b 7ef1 67bd 7e7e a93c
000001d0: f820 c03a c6fa 23bc 4e15 34bd 8269 14bc
000001e0: 448f 08bd a538 5b3d dc2a 183c dff9 d3bc
000001f0: 49b4 f3bc 2f4c 103d bd78 e83c 1bce df3b

bn2.weight f4 [128]
1.0006249 1.000525 1.0002979 1.0002649 0.99939525 1.0004815 1.0000095 1.0003415
0.99976116 0.9996081 1.0003945 1.0001451 1.0005903 1.0004696 0.999984 0.99949974
0.99936146 0.99941206 0.9994704 0.99947697 1.0005691 0.9997354 1.0001252 0.9997966
0.999752 0.99956346 1.0006342 1.000533 0.9996911 0.9995597 0.9996662 1.000517
1.0001734 0.99946284 1.0001848 1.000527 0.9997164 0.99947923 1.0000191 0.99954915
0.99963397 0.99980885 0.99982345 1.0001129 0.99941826 1.0005233 0.99936604 1.0003103
1.0000707 0.9998692 1.0000011 0.99948686 1.0001603 0.99973065 0.99938864 0.99961287
0.99998105 0.99946535 0.9994122 0.9993963 0.99948096 0.9994449 1.0000619 0.999945
1.0001886 1.0001917 1.0001777 0.9995334 0.9997915 1.0002633 1.000624 1.0005306
1.0002846 0.9994629 1.0000441 0.99953413 0.99945223 0.9998576 0.9993744 0.99990094
0.9997644 1.0005447 1.0000963 0.99929595 1.0002182 0.99992526 1.0000939 0.9999937
1.0003153 0.9998084 0.9994533 1.0003759 0.99952304 1.0003333 0.99980485 0.99958307
0.99926823 0.99989927 1.0000567 1.0000808 1.0005307 0.99981135 1.0003233 0.9999946
1.0006387 1.0001698 1.0003355 0.9993817 0.9998461 1.0003053 0.9996565 0.999631
0.99965006 1.000324 1.0000358 1.0002198 1.0005536 0.9994641 1.0006672 0.9999419
1.0002711 1.0005413 1.0003552 0.9994486 1.0004314 0.99974185 1.0005347 0.9998647
00000000: 7a14 803f 3411 803f c309 803f ae08 803f
00000010: 5ed8 7f3f c70f 803f 5000 803f 310b 803f
00000020: 59f0 7f3f 51e6 7f3f ed0c 803f c104 803f
00000030: 5813 803f 630f 803f f4fe 7f3f 37df 7f3f
00000040: 27d6 7f3f 78d9 7f3f 4bdd 7f3f b9dd 7f3f
00000050: a612 803f a9ee 7f3f 1a04 803f acf2 7f3f
00000060: bfef 7f3f 64e3 7f3f c814 803f 7711 803f
00000070: c2eb 7f3f 25e3 7f3f 20ea 7f3f f110 803f
00000080: af05 803f ccdc 7f3f 0e06 803f 4511 803f
00000090: 6aed 7f3f dfdd 7f3f a000 803f 74e2 7f3f
000000a0: 03e8 7f3f 79f3 7f3f 6ef4 7f3f b303 803f
000000b0: e0d9 7f3f 2611 803f 74d6 7f3f 2b0a 803f
000000c0: 5102 803f 6ef7 7f3f 0900 803f 5fde 7f3f
000000d0: 4105 803f 59ee 7f3f efd7 7f3f a1e6 7f3f
000000e0: c2fe 7f3f f6dc 7f3f 7ad9 7f3f 70d8 7f3f
000000f0: fcdd 7f3f 9fdb 7f3f 0702 803f 65fc 7f3f
00000100: 2e06 803f 4806 803f d305 803f 6ce1 7f3f
00000110: 56f2 7f3f a108 803f 7214 803f 6311 803f
00000120: 5309 803f cddc 7f3f 7201 803f 78e1 7f3f
00000130: 1adc 7f3f abf6 7f3f 00d7 7f3f 82f9 7f3f
00000140: 8ff0 7f3f d911 803f 2803 803f dcd1 7f3f
00000150: 2607 803f 1afb 7f3f 1403 803f 96ff 7f3f
00000160: 550a 803f 71f3 7f3f 2cdc 7f3f 510c 803f
00000170: bee0 7f3f ec0a 803f 36f3 7f3f ade4 7f3f
00000180: 0bd0 7f3f 66f9 7f3f dc01 803f a602 803f
00000190: 6411 803f a3f3 7f3f 980a 803f a5ff 7f3f
000001a0: ee14 803f 9005 803f fe0a 803f 7bd7 7f3f
000001b0: eaf5 7f3f 010a 803f 7de9 7f3f d1e7 7f3f
000001c0: 11e9 7f3f 9e0a 803f 2c01 803f 3407 803f
000001d0: 2412 803f e1dc 7f3f dd15 803f 31fc 7f3f
000001e0: e208 803f bd11 803f a40b 803f dddb 7f3f
000001f0: 230e 803f 15ef 7f3f 8511 803f 22f7 7f3f
